ckpt/ADAM_lstm_bs{32}_lr{1.0e-02}_eps{1.0e-04}_epoch{100}/ADAM_lstm_bs{32}_lr{1.0e-02}_eps{1.0e-04}_epoch{100}.pth (torch, 27327 bytes, 15 tensors)

lstm.weight_ih_l0 f4 [40, 33]
-0.31541964 -0.55669016 -0.5872132 -0.36132413 0.21615882 -0.051734038 -0.36336803 -0.56347823
-0.6963968 0.25005728 -0.6527017 -0.21924256 -0.2723787 -0.52313197 -0.35406142 -0.61004746
-0.5067117 -0.6606532 -0.7946257 -0.56699574 -0.39687052 0.5509682 0.07060323 0.3561725
-0.12630324 -0.16195354 -0.45296383 -0.32567632 -0.47883493 0.42242855 -0.28886592 -0.319528
0.20262691 -0.31569478 0.23270102 -0.02075222 -0.41411045 0.18893552 0.22706315 0.088239305
0.4040672 -0.07102821 -0.17093511 -0.33495826 0.19860171 0.14799899 0.22601993 -0.25321224
0.17948918 -0.20527491 -0.284058 -0.38160715 -0.22904608 -0.3602124 -0.07581516 0.52978915
0.09925999 0.40101153 -0.15973139 -0.5767437 0.5170512 0.040261272 0.018030947 -0.23633662
-0.60159904 0.01682373 -0.074859194 0.55607736 0.001578823 -0.3043269 0.5536297 0.33609375
-0.42217696 0.8165879 -0.41813773 0.41206384 0.23926763 0.017005082 0.3886787 0.52847815
0.3306485 -0.19414562 -0.09514567 -0.013425307 0.12275997 -0.11542557 -0.15168884 0.4378105
-0.23983097 -0.06960877 -0.1343291 -0.212275 0.073109575 0.20704381 0.5561886 0.87146825
0.04067822 0.73042244 0.23336855 0.08220691 0.118905224 -0.10992687 0.093211554 0.11891422
-0.17148727 0.02977296 0.12557106 -0.24723893 0.6534393 0.22623353 0.038459174 0.064558
0.16486733 0.26039568 -0.1730987 -0.13295092 -0.23088753 0.2298723 -0.12807998 0.22762312
0.19850543 -0.0069139223 0.14023325 -0.23630254 0.25144622 0.27039865 0.20496967 0.30769375
0.08002195 -0.41501635 -0.19387348 0.04732048 0.52608305 0.11244215 0.3315802 0.48108757
0.5148536 0.381937 0.79914796 0.69405025 0.45608306 0.7307331 0.8383967 0.717764
0.81296223 0.7165991 0.32553235 0.6044274 0.24303403 0.50033313 0.39738423 0.75589377
0.37313893 -0.04880467 -0.026448125 0.038573556 0.22081307 0.446036 0.24690023 -0.11016364
0.0027225858 0.32447973 0.49238726 0.10467167 0.09620153 0.84682417 -0.014013811 0.4893436
1.0429685 0.14487104 -0.3758563 0.55979025 0.25369227 1.4087713 -0.3670712 0.9738282
-0.25746113 -0.09827357 0.09562265 -0.33885023 0.13906889 1.5399634 0.3540035 1.0020615
0.6346376 0.8352886 -1.5179483 -0.5345256 0.38818246 0.6533544 0.30376017 0.30476463
0.3364427 0.029644445 0.3173664 0.553566 0.37520635 -0.0792786 -0.27171347 0.35996792
-0.75149876 -0.44497505 -0.00434996 -0.16758071 -0.5578814 -0.021857113 -0.5395585 -0.42902088
-0.49352127 -0.53046024 -0.31498915 -0.24622041 -0.33573353 -0.16000828 -0.9720094 -1.0326154
-0.41157055 -0.4947744 -0.42296898 0.4914541 0.1493812 0.14813513 0.13395885 0.42145938
1.3104061 0.31018084 -0.13615485 0.25175256 -0.6614065 -0.79589295 -0.4032443 1.408609
0.25569233 0.8224754 0.7013609 0.09160473 0.056756906 0.57893866 0.19553287 2.6323628
0.11633235 1.2254797 0.023548434 -0.019174505 0.13756797 0.9366583 0.4349924 2.9327419
0.18139182 1.6385636 1.3409332 1.0853686 -0.53616786 0.33396718 -0.13831623 1.8583754
00000000: af7e a1be 3f83 0ebf 9b53 16bf 7aff b8be
00000010: bd58 5d3e 12e7 53bd 600b babe 1c40 10bf
00000020: 1047 32bf 8207 803e 7517 27bf 1f81 60be
00000030: 3975 8bbe faeb 05bf 8a47 b5be 122c 1cbf
00000040: dcb7 01bf 9120 29bf 976c 4bbf a226 11bf
00000050: 9d32 cbbe 410c 0d3f 6d98 903d 3e5c b63e
00000060: a355 01be 26d7 25be e0ea e7be 0cbf a6be
00000070: da29 f5be 8e48 d83e 3ce6 93be 2d99 a3be
00000080: 6e7d 4f3e bfa2 a1be 2d49 6e3e 8f00 aabc
00000090: 4906 d4be 5078 413e 3e83 683e cfb6 b43d
000000a0: e5e1 ce3e 3d77 91bd 9d09 2fbe a67f abbe
000000b0: 3f5e 4b3e 0c8d 173e c571 673e 09a5 81be
000000c0: 03cc 373e 9633 52be 0d70 91be 0362 c3be
000000d0: 0e8b 6abe c26d b8be fb44 9bbd 43a0 073f
000000e0: d248 cb3d 6251 cd3e a090 23be 7aa5 13bf
000000f0: 785d 043f 01e9 243d a3b5 933c 3a02 72be
00000100: 6502 1abf ebd1 893c c74f 99bd 165b 0e3f
00000110: 82f0 ce3a bcd0 9bbe adba 0d3f 7b14 ac3e
00000120: 9427 d8be e80b 513f 2616 d6be 08fa d23e
00000130: 9302 753e 3e4e 8b3c e500 c73e 584a 073f
00000140: c34a a93e 1cce 46be bcdb c2bd d2f5 5bbc
00000150: 9469 fb3d 3e64 ecbd 5254 1bbe b328 e03e
00000160: 4096 75be 0b8f 8ebd 918d 09be 9e5e 59be
00000170: 79ba 953d 4b03 543e 6062 0e3f 8b18 5f3f
00000180: 359e 263d f7fc 3a3f 2af8 6e3e 195c a83d
00000190: 9584 f33d 5721 e1bd b3e5 be3d 4c89 f33d
000001a0: 5c9a 2fbe 6ce6 f33c b395 003e 342c 7dbe
000001b0: cc47 273f c3a9 673e 5e87 1d3d fc36 843d
000001c0: fbd2 283e 9552 853e c940 31be 4924 08be
000001d0: c86d 6cbe a563 6b3e 6627 03be 0916 693e
000001e0: 0245 4b3e 2f8e e2bb 4e99 0f3e 4bf9 71be
000001f0: 8fbd 803e b171 8a3e 92e3 513e 098a 9d3e
00000200: 8ce2 a33d 067d d4be c586 46be 1fd3 413d
00000210: 61ad 063f 1248 e63d e1c4 a93e 1c51 f63e
00000220: 72cd 033f 3f8d c33e f694 4c3f 47ad 313f
00000230: b883 e93e 5311 3b3f 2ba1 563f 62bf 373f
00000240: 4b1e 503f 0a73 373f 2dac a63e c1bb 1a3f
00000250: eadd 783e d515 003f f275 cb3e 4182 413f
00000260: 110c bf3e 68e7 47bd bda9 d8bc 4eff 1d3d
00000270: d21c 623e d55e e43e 6ad3 7c3e 799d e1bd
00000280: 696d 323b 3522 a63e 2f1a fc3e 1a5e d63d
00000290: 4f05 c53d 78c9 583f 2f9a 65bc 3f8b fa3e
000002a0: fe7f 853f 1359 143e 3d70 c0be 6a4e 0f3f
000002b0: f4e3 813e 9e52 b43f c2f0 bbbe ce4c 793f
000002c0: f2d1 83be a743 c9bd cfd5 c33d c77d adbe
000002d0: 1368 0e3e 851d c53f f23f b53e 8d43 803f
000002e0: 9c77 223f 79d5 553f 214c c2bf abd6 08bf
000002f0: dabf c63e 3c42 273f 7486 9b3e 1c0a 9c3e
00000300: 3842 ac3e e8d8 f23c d97d a23e 80b6 0d3f
00000310: 0c1b c03e d25c a2bd 071e 8bbe b74d b83e
00000320: 3962 40bf c5d3 e3be 1c8a 8ebb 479a 2bbe
00000330: 51d1 0ebf b00d b3bc 8120 0abf a0a8 dbbe
00000340: d2ae fcbe 3ecc 07bf 4246 a1be 3421 7cbe
00000350: 44e5 abbe 36d9 23be 9cd5 78bf be2c 84bf
00000360: 60b9 d2be 1253 fdbe 648f d8be df9f fb3e
00000370: 63f7 183e bcb0 173e 822c 093e 86c9 d73e
00000380: 63bb a73f 06d0 9e3e 2d6c 0bbe b6e5 803e
00000390: f051 29bf a4bf 4bbf 0976 cebe 4d4d b43f
000003a0: 1bea 823e bf8d 523f 638c 333f 439b bb3d
000003b0: ee79 683d 5335 143f c539 483e a278 2840
000003c0: a83f ee3d 85dc 9c3f a5e8 c03c da13 9dbc
000003d0: 9ede 0c3e d7c8 6f3f 53b7 de3e 0bb2 3b40
000003e0: c7be 393e 74bc d13f b3a3 ab3f 5ced 8a3f
000003f0: 4c42 09bf bffd aa3e c5a2 0dbe 3fdf ed3f

lstm.weight_hh_l0 f4 [40, 10]
0.32666972 0.6989046 0.038564954 -0.25221795 0.18354587 -0.011204643 0.48851776 0.2873657
0.010413505 -0.23248194 1.0981246 0.6408191 -0.56725246 -0.16693264 -0.35942855 -0.21371888
0.6485782 -0.17936103 0.42908782 0.33523667 0.8328347 -0.07319059 -0.75642383 0.66448647
-0.89873177 -0.79063475 0.374709 -0.4436579 0.85411817 0.8347366 0.7759901 0.21266393
-0.19237638 0.74392396 -0.2561889 -0.77892077 0.64355284 -0.1746605 0.44396347 0.8031828
0.071448274 -0.072081156 -0.48666075 0.6408835 -0.7071566 -0.8579249 0.031584457 -0.836997
0.31249732 0.45127818 0.11932781 -0.015916927 -0.27584592 0.21732886 -0.62141174 -0.4106785
0.12967226 -0.20633437 0.18385056 0.43911114 0.5716292 0.5516341 -0.26311356 0.05087576
-0.0033299534 -0.34335995 0.35486537 0.22460504 -0.06451401 -0.2103764 0.4391651 -0.10945789
-1.1202136 1.3471276 -0.7662059 -0.559711 0.3836432 -0.44621295 0.15465535 0.7544723
0.1607384 0.26336718 -0.35850877 0.83875155 -0.41129827 -0.68725437 0.056736052 -0.5470966
0.67799634 0.50327474 0.2830628 0.8006009 -0.5733849 0.6185476 -0.7644871 -0.3041925
0.26214975 -0.24702352 0.45379558 0.83502084 0.27501908 0.6425929 -0.19252014 -0.54873693
0.3134564 0.11738558 0.7870392 0.24106109 -0.21380842 -0.10546203 0.7359028 0.17522348
-0.77240634 -0.05696484 -0.52872705 -0.84339005 0.39353663 -0.39680272 0.83062786 0.71870536
0.7749028 -0.36283824 -0.6102148 0.88092244 -0.6188025 -0.4094642 0.77904594 -0.4857265
0.9255834 0.49253395 0.43277857 0.25902015 -0.60302 0.2651833 -0.4906705 -0.36850405
0.12735754 -0.6003136 0.018291852 0.21783864 0.3241739 -0.0054747425 -0.34991354 0.14114463
-0.78217584 -0.7880053 -0.12771809 -0.39048108 0.0416704 0.67282695 0.36835906 0.33244962
-1.0426387 0.33200666 -0.5199503 -0.43684894 0.5489672 -0.74177516 0.5600118 0.81217587
0.37048107 0.26160967 0.07011868 -0.01487817 -0.12980758 0.09387262 0.55684495 0.075634845
0.2562326 0.018269489 -0.00972176 0.14263089 -0.12128293 0.69637287 0.44304988 0.938658
-0.1053865 0.78459865 -0.96493274 -0.835342 0.19509993 -0.0010908011 -0.4855365 -0.09951995
-0.5245784 -0.28053996 0.18968321 -0.81898177 0.43116224 0.72233164 0.479217 0.32626507
-0.33209327 0.8468372 -0.19839162 -0.5884507 0.44884703 -0.52511215 -0.0983485 0.027017552
-0.39065877 0.07284437 -0.5281962 0.1177102 -0.5898739 -0.48338744 0.5853769 -0.46184406
0.29066923 0.32606906 0.45542482 0.807168 0.20375787 -0.33012274 -0.11732961 -0.372361
-0.04976371 -0.046534475 0.16074769 0.038188905 -0.50911635 0.05161904 0.11321515 -0.77486676
0.22651006 0.2470675 -0.1476983 0.8405668 -0.15530047 -0.5026457 0.406977 0.59620607
-0.39588848 -0.19427928 -0.51316845 -0.58616555 0.54417384 -0.132147 0.704914 0.67529964
0.29250932 0.20468141 0.25523677 -0.5622429 0.47166526 0.7647079 0.19465385 0.39680967
-0.47520176 -0.5579092 -0.18722887 -0.5636613 0.6013838 -0.32456797 0.6071445 -0.111830175
00000000: 4141 a73e 69eb 323f 49f6 1d3d b622 81be
00000010: 73f3 3b3e ae93 37bc 001f fa3e 9921 933e
00000020: 689d 2a3c bf0f 6ebe 598f 8c3f b80c 243f
00000030: 7537 11bf 64f0 2abe 0507 b8be 1fd9 5abe
00000040: 3909 263f 6baa 37be 66b1 db3e 24a4 ab3e
00000050: a834 553f f3e4 95bd fea4 41bf c91b 2a3f
00000060: 4913 66bf 0a67 4abf dcd9 bf3e 2127 e3be
00000070: 7da7 5a3f 4cb1 553f 4aa7 463f 93c4 593e
00000080: 50fe 44be cd71 3e3f 312b 83be 5a67 47bf
00000090: e1bf 243f 34da 32be 2e4f e33e 639d 4d3f
000000a0: 7953 923d 499f 93bd 992b f9be f110 243f
000000b0: 3708 35bf f7a0 5bbf b45e 013d 6f45 56bf
000000c0: a6ff 9f3e ef0d e73e 2462 f43d 3764 82bc
000000d0: ad3b 8dbe 758b 5e3e d714 1fbf 7444 d2be
000000e0: cec8 043e 5149 53be 5243 3c3e 2dd3 e03e
000000f0: 4b56 123f e437 0d3f d2b6 86be 1a63 503d
00000100: 593b 5abb e0cc afbe eab0 b53e ddfe 653e
00000110: ec1f 84bd e96c 57be 3fda e03e 752b e0bd
00000120: 2963 8fbf ad6e ac3f 1226 44bf 3849 0fbf
00000130: e26c c43e 0676 e4be f95d 1e3e 1925 413f
00000140: 9b98 243e 10d8 863e 768e b7be 6cb8 563f
00000150: b095 d2be e7ef 2fbf 1064 683d 860e 0cbf
00000160: 2b91 2d3f 9dd6 003f 9bed 903e 2ef4 4c3f
00000170: 5ac9 12bf 2359 1e3f 6db5 43bf 1fbf 9bbe
00000180: 7e38 863e bcf3 7cbe e557 e83e edc3 553f
00000190: 4dcf 8c3e f880 243f 0024 45be 067a 0cbf
000001a0: 5b7d a03e da67 f03d 677b 493f b8d8 763e
000001b0: 98f0 5abe 7afc d7bd 2064 3c3f c96d 333e
000001c0: 6cbc 45bf f753 69bd a85a 07bf 69e8 57bf
000001d0: a27d c93e ba29 cbbe 07a4 543f 13fd 373f
000001e0: 0860 463f efc5 b9be 0a37 1cbf 2284 613f
000001f0: d769 1ebf 4ba5 d1be 8e6f 473f 25b1 f8be
00000200: 09f3 6c3f 692d fc3e 2795 dd3e 4a9e 843e
00000210: 855f 1abf 1bc6 873e 2a39 fbbe 90ac bcbe
00000220: 046a 023e 27ae 19bf cbd8 953c 1811 5f3e
00000230: 1ffa a53e 7865 b3bb de27 b3be 3888 103e
00000240: ad3c 48bf b7ba 49bf 88c8 02be 23ed c7be
00000250: 95ae 2a3d 633e 2c3f 8f99 bc3e d636 aa3e
00000260: 2f75 85bf c7fc a93e 761b 05bf aaaa dfbe
00000270: 1d89 0c3f fae4 3dbf ef5c 0f3f c2ea 4f3f
00000280: b2af bd3e b4f1 853e 629a 8f3d 91c3 73bc
00000290: 47ec 04be 4a40 c03d 648d 0e3f 71e6 9a3d
000002a0: eb30 833e e5a9 953c 0448 1fbc d50d 123e
000002b0: 2f63 f8bd 7e45 323f 6fd7 e23e e44b 703f
000002c0: e1d4 d7bd 75db 483f d505 77bf f9d8 55bf
000002d0: 47c8 473e 36f9 8eba 3d98 f8be 1ed1 cbbd
000002e0: c54a 06bf efa2 8fbe 513c 423e caa8 51bf
000002f0: 4cc1 dc3e baea 383f ee5b f53e 370c a73e
00000300: 2108 aabe 53ca 583f 2c27 4bbe b4a4 16bf
00000310: 47cf e53e c06d 06bf f06a c9bd ea53 dd3c
00000320: 6d04 c8be 6e2f 953d de37 07bf 0c12 f13d
00000330: fa01 17bf 8f7e f7be 43db 153f d376 ecbe
00000340: 99d2 943e 86f2 a63e 712d e93e 90a2 4e3f
00000350: e7a5 503e d905 a9be 824a f0bd 1aa6 bebe
00000360: 08d5 4bbd ef9a 3ebd 0b9b 243e f86b 1c3d
00000370: 7355 02bf 7d6e 533d 58dd e73d ab5d 46bf
00000380: 41f2 673e 43ff 7c3e 393e 17be 632f 573f
00000390: 1607 1fbe 63ad 00bf 4a5f d03e f6a0 183f
000003a0: e5b1 cabe 26f1 46be 025f 03bf f20e 16bf
000003b0: fa4e 0b3f 8b51 07be 3e75 343f 70e0 2c3f
000003c0: c8c3 953e 0198 513e 65ae 823e 27ef 0fbf
000003d0: 1c7e f13e e6c3 433f 5753 473e a32a cb3e
000003e0: a54d f3be 23d3 0ebf edb8 3fbe 1b4c 10bf
000003f0: 4af4 193f c62d a6be d26d 1b3f 3807 e5bd

lstm.bias_ih_l0 f4 [40]
-0.5288711 0.20161453 0.12737936 0.12415935 0.58311397 -0.06980371 -0.4245914 0.33600914
0.18442695 0.8255038 -0.035457425 0.3981625 0.75623244 0.59846205 0.27642387 0.79150707
-0.26275453 -0.7894356 0.49727637 0.16483155 0.28886467 -0.4913358 -0.4585402 0.24559708
-0.6794536 -0.33971265 0.5656562 -0.5252321 0.6676627 0.41048712 -0.6432003 -1.4899759
-0.68824756 -1.8809539 -0.8003471 -1.7841138 -1.3083591 -1.2659905 -1.2737942 -1.8048238
00000000: 1964 07bf 0a74 4e3e bc6f 023e 4247 fe3d
00000010: f546 153f 3ff5 8ebd 0b64 d9be 6409 ac3e
00000020: 6bda 3c3e 3854 533f ce3b 11bd f5db cb3e
00000030: 7398 413f cf34 193f 6e87 8d3e 35a0 4a3f
00000040: c387 86be 7418 4abf 029b fe3e 9ac9 283e
00000050: 12e6 933e 5e90 fbbe c8c5 eabe cd7d 7b3e
00000060: acf0 2dbf d1ee adbe d8ce 103f 9c75 06bf
00000070: f1eb 2a3f 5e2b d23e c6a8 24bf 88b7 bebf
00000080: fe30 30bf 19c3 f0bf 8ce3 4cbf d75d e4bf
00000090: 5078 a7bf fa0b a2bf b00b a3bf 7704 e7bf

lstm.bias_hh_l0 f4 [40]
-0.3774473 -0.23620237 0.15112895 0.43075716 0.34325942 -0.14620851 -0.661427 0.6231613
0.4090439 0.44058326 -0.1676573 0.26800025 0.6554373 0.4930778 0.572391 0.36896074
-0.19762737 -0.75778073 0.33350545 0.46074456 0.5386208 -0.07697818 -0.42728204 0.47853118
-0.684668 -0.48494768 0.4600531 -0.4407429 0.689536 0.64529556 -0.45327118 -1.2701092
-0.69764847 -2.0244908 -0.7566944 -1.6983238 -1.2433938 -1.0517768 -0.814702 -1.5414091
00000000: c640 c1be 09df 71be 8cc1 1a3e 348c dc3e
00000010: b3bf af3e afb7 15be 4853 29bf 8087 1f3f
00000020: 346e d13e 2194 e13e 5bae 2bbe 5437 893e
00000030: bdca 273f b274 fc3e 3788 123f 6ce8 bc3e
00000040: d45e 4abe ebfd 41bf 3ac1 aa3e b6e6 eb3e
00000050: 0ee3 093f bca6 9dbd b6c4 dabe 0a02 f53e
00000060: 6746 2fbf 104b f8be 148c eb3e 0ea9 e1be
00000070: 6e85 303f 1732 253f 2913 e8be f092 a2bf
00000080: 1799 32bf 4291 01c0 b9b6 41bf ad62 d9bf
00000090: 8727 9fbf 9fa0 86bf 4f90 50bf e54c c5bf

fc.weight f4 [1, 10]
1.3756828 0.028732285 -1.9294252 1.6832708 -1.810787 -2.3951871 0.9737196 -1.8079836
1.8587492 1.5355554
00000000: 6016 b03f f85f eb3c 68f7 f6bf 6b75 d73f
00000010: dec7 e7bf bf4a 19c0 b045 793f 026c e7bf
00000020: 7eeb ed3f 148d c43f

exp_avg f4 [40, 33]
-4.805511e-05 -2.3267861e-05 -4.2176674e-05 -5.1134703e-05 2.2908436e-07 1.788978e-07 -4.6460853e-05 -5.147327e-06
-5.5185286e-05 7.7814946e-07 -5.0449176e-05 -8.080632e-06 -1.0992427e-05 -1.7522289e-05 -3.2771975e-05 -9.5233245e-06
-5.506984e-05 -5.0086313e-05 -3.4745935e-05 -4.3376713e-05 -4.6097688e-05 -2.1829392e-05 -6.559387e-06 -5.9472263e-06
-4.3693902e-07 3.1465738e-06 5.665728e-06 9.653977e-07 -2.1377487e-06 -1.1762321e-05 -2.493423e-06 -2.193174e-06
-6.566754e-06 -8.079082e-11 -9.4257976e-11 -7.552834e-11 -8.979172e-11 -4.2770184e-12 -4.873012e-12 -7.281031e-11
-9.617973e-12 -1.02201025e-10 -1.503199e-11 -6.846456e-11 -1.5092962e-11 -3.6968263e-12 -2.4686827e-11 -8.072551e-11
-3.6299845e-11 -1.0547856e-10 -7.8173856e-11 -7.9643535e-11 -7.5461866e-11 -7.835256e-11 -6.066561e-11 -1.3532083e-11
-3.9884266e-11 -8.6823105e-13 -3.636254e-15 8.505918e-18 -3.601702e-18 2.1137816e-19 -1.956322e-19 -1.6754802e-20
1.3521272e-17 3.6687645e-13 3.7037076e-10 4.2937431e-10 3.4661116e-10 4.114742e-10 1.9660305e-11 2.2367875e-11
3.3235642e-10 4.3859825e-11 4.685419e-10 6.899191e-11 3.1389225e-10 6.709958e-11 1.7123853e-11 1.11701905e-10
3.7022585e-10 1.6641352e-10 4.835258e-10 3.5841566e-10 3.6493567e-10 3.4613182e-10 3.5927705e-10 3.0645003e-10
4.519179e-11 1.7038743e-10 4.212797e-12 1.7883525e-14 -5.0939877e-14 2.688885e-13 -4.4414575e-15 1.8679611e-15
3.9786726e-16 -3.4348384e-17 -1.2060782e-12 3.3661243e-10 3.8624012e-10 3.1531577e-10 3.7369655e-10 1.783232e-11
2.0295118e-11 3.0011696e-10 4.0011435e-11 4.257312e-10 6.280803e-11 2.852099e-10 5.918029e-11 1.5415594e-11
9.9927254e-11 3.3637382e-10 1.5119281e-10 4.3936932e-10 3.256333e-10 3.3179787e-10 3.1475866e-10 3.2659983e-10
2.996368e-10 3.9746335e-11 1.3506751e-10 4.119699e-12 1.1981366e-14 -3.901677e-17 2.1320243e-17 -3.2268859e-19
2.1634705e-19 1.6830387e-20 -6.708552e-17 -1.2289202e-12 3.4545654e-12 3.9037874e-12 3.2387708e-12 3.82714e-12
2.0415806e-13 2.2441494e-13 3.0512047e-12 4.0538715e-13 4.3624457e-12 6.6483104e-13 2.9250762e-12 5.8759914e-13
1.9471114e-13 1.0056835e-12 3.4719066e-12 1.5567299e-12 4.5009348e-12 3.3428236e-12 3.3841807e-12 3.2317799e-12
3.351653e-12 3.3365786e-12 3.7441494e-13 1.1484032e-12 2.1595307e-14 9.425623e-17 -5.07137e-15 4.9350413e-14
-8.206428e-16 3.2319386e-16 2.5400508e-17 2.94664e-18 -1.0853171e-14 1.6483617e-12 1.7355056e-12 1.5499819e-12
1.854079e-12 6.093131e-14 8.074261e-14 1.4566617e-12 8.7801924e-14 2.1452332e-12 2.5567672e-13 1.396669e-12
2.317463e-13 7.203407e-14 3.507093e-13 1.6384804e-12 7.503461e-13 2.206748e-12 1.6513792e-12 1.5674318e-12
1.5444916e-12 1.599212e-12 2.0756719e-12 4.5167774e-14 1.4509903e-13 2.6235086e-15 4.815502e-17 -5.2030257e-15
2.8005344e-14 -1.298119e-15 6.6960406e-16 9.728539e-17 2.1554894e-17 -1.0807093e-14 -1.3589204e-05 -5.5859773e-06
-2.1947608e-06 -1.0150401e-05 3.3229277e-08 3.3536327e-07 -4.717339e-06 -1.2390921e-06 -1.06671e-05 3.655944e-07
-6.153042e-06 -2.7487336e-06 -1.13844635e-05 2.3818302e-07 4.5570596e-06 -1.5508342e-05 -1.137843e-05 -1.0016602e-05
2.4710043e-06 -5.529744e-06 -1.040676e-05 -3.4238594e-05 -1.14736085e-05 -8.496212e-06 -2.690622e-06 3.7742755e-06
5.583523e-05 -1.7593528e-07 -3.1429302e-06 -7.277534e-06 -9.4283666e-07 1.0596761e-07 -1.1203435e-06 3.715867e-10
2.3489435e-10 3.9386422e-10 3.5814512e-10 2.4013298e-11 3.374646e-11 1.5990191e-10 1.2945623e-11 2.612121e-10
6.429361e-11 3.175389e-10 4.8394032e-11 1.5267553e-10 4.962925e-11 3.455703e-10 1.1201702e-10 2.594207e-10
4.2976092e-10 1.0119989e-10 3.807269e-10 3.8584627e-10 3.110351e-10 3.1521903e-11 2.144248e-11 2.4755601e-12
00000000: c88e 49b8 5a2f c3b7 dce6 30b8 7879 56b8
00000010: 3bfa 7534 0e17 4034 f6de 42b8 34b7 acb6
00000020: c076 67b8 06e2 5035 6499 53b8 0d92 07b7
00000030: 1d6c 38b7 d4fc 92b7 a474 09b8 5ec6 1fb7
00000040: cafa 66b8 c513 52b8 2abc 11b8 64ef 35b8
00000050: 0459 41b8 431e b7b7 b518 dcb6 498e c7b6
00000060: 7194 eab4 ba29 5336 3c1c be36 d092 8135
00000070: 3e76 0fb6 c956 45b7 ae54 27b6 712e 13b6
00000080: fd57 dcb6 30a9 b1ae 8646 cfae ad16 a6ae
00000090: 3f74 c5ae f57b 96ac 3174 abac 901c a0ae
000000a0: 8033 29ad 10be e0ae 0839 84ad 1f8e 96ae
000000b0: 54c2 84ad 0d12 82ac cb25 d9ad 6c84 b1ae
000000c0: fea5 1fae 27f3 e7ae f8e7 abae 5323 afae
000000d0: 41f1 a5ae 924c acae b467 85ae 150f 6ead
000000e0: b169 2fae a462 74ab 8602 83a7 10e8 1c23
000000f0: 1de1 84a2 218d 7920 34f6 66a0 a03e 9e9e
00000100: 676c 7923 7888 ce2a 0d9d cb2f 100d ec2f
00000110: 2f8d be2f d835 e22f 12ef ac2d fabf c42d
00000120: 02b7 b62f c6e5 402e b5ca 0030 feb6 972e
00000130: 6890 ac2f b58d 932e 7d9f 962d 95a2 f52e
00000140: a888 cb2f 3ef9 362f 1ae9 0430 850a c52f
00000150: 21a0 c82f b949 be2f c083 c52f 0279 a82f
00000160: 6fc1 462e cc57 3b2f 8139 942c 9a14 a128
00000170: ae69 65a9 eb5e 972a 3705 a0a7 cd99 0627
00000180: d85a e525 6a67 1ea4 8cbd a9ab fd0d b92f
00000190: 7756 d42f c058 ad2f 1d71 cd2f d1da 9c2d
000001a0: 8b84 b22d b5fd a42f dff8 2f2e 570c ea2f
000001b0: c71d 8a2e bacb 9c2f 8b23 822e d598 872d
000001c0: 0bbe db2e 68ec b82f fe3c 262f bc8b f12f
000001d0: d004 b32f 6668 b62f 580a ad2f d78c b32f
000001e0: 21ba a42f 65ce 2e2e 2082 142f f3f2 902c
000001f0: 4cd6 5728 dfee 33a4 00a5 c423 527b bea0
00000200: e26a 7f20 61f5 9e1e 4db0 9aa4 84f4 acab
00000210: eb17 732c 315a 892c 82e8 632c d0a7 862c
00000220: 8edc 652a 34ab 7c2a 9eb5 562c 7236 e42a
00000230: 6b7d 992c 2022 3b2b 7dd5 4d2c fb64 252b
00000240: aa39 5b2a 9189 8d2b 4f50 742c 1b17 db2b
00000250: d15c 9e2c f53a 6b2c fb23 6e2c 926a 632c
00000260: 03da 6b2c 75ca 6a2c e1c6 d22a 969f a12b
00000270: 6383 c228 0f57 d924 22b7 b6a7 2741 5e29
00000280: c088 6ca6 ff4e ba25 4147 ea23 756c 5922
00000290: 6b83 43a8 7dfc e72b 2e40 f42b fc23 da2b
000002a0: 1e78 022c 8234 8929 f2d0 b529 c501 cd2b
000002b0: 5db6 c529 16f5 162c e6ee 8f2a 4e90 c42b
000002c0: 2976 822a d034 a229 896e c52a 7a98 e62b
000002d0: 2234 532b 3d49 1b2c 3569 e82b af98 dc2b
000002e0: 2d5e d92b af11 e12b fb0f 122c e66a 4b29
000002f0: f35d 232a 310b 3d27 6a13 5e24 7175 bba7
00000300: ed3f fc28 2314 bba6 0f00 4126 2853 e024
00000310: 0ecf c623 ebae 42a8 30fd 63b7 2e6f bbb6
00000320: b449 13b6 a44b 2ab7 fab7 0e33 fa0b b434
00000330: a249 9eb6 e14e a6b5 d8f6 32b7 e946 c434
00000340: 3a76 ceb6 e276 38b6 e6ff 3eb7 40bf 7f34
00000350: d8e8 9836 e917 82b7 fce5 3eb7 fa0c 28b7
00000360: 88d3 2536 248c b9b6 b298 2eb7 699b 0fb8
00000370: c67e 40b7 f48a 0eb7 8990 34b6 8f49 7d36
00000380: 9f30 6a38 b9e8 3cb4 21eb 52b6 8b31 f4b6
00000390: 3e17 7db5 4f90 e333 b65e 96b5 2e48 cc2f
000003a0: 7122 812f 7687 d82f 72e4 c42f 2439 d32d
000003b0: 236b 142e 63d0 2f2f e7bd 632d 569a 8f2f
000003c0: 1662 8d2e a191 ae2f d6d6 542e 57de 272f
000003d0: 9145 5a2e b2fa bd2f fa53 f62e 389e 8e2f
000003e0: 7943 ec2f 798a de2e 8c4e d12f 091f d42f
000003f0: 4cfe aa2f 82a2 0a2e 2c9c bc2d ba33 2e2c

exp_avg_sq f4 [40, 33]
0.00012109725 3.7387697e-05 0.00014053144 0.00015093011 8.40374e-07 1.5100508e-06 9.000698e-05 1.3106246e-06
0.00016113659 3.4353966e-06 7.8244746e-05 9.36196e-06 7.438938e-06 1.295223e-05 0.000100841615 1.3070548e-05
0.00016568796 0.00012483647 0.00011871692 0.00012598926 0.000120500634 1.6951963e-06 8.958931e-07 2.8952707e-06
3.4606062e-06 6.726705e-06 1.1938924e-06 2.1267472e-06 3.3068684e-08 7.153559e-08 9.504144e-05 3.0775789e-06
5.5183045e-06 7.6691684e-08 6.230288e-10 9.8382e-08 1.1060476e-07 2.305718e-10 6.4110456e-10 7.452912e-08
1.2917788e-09 1.307016e-07 2.4574973e-09 5.471496e-08 7.077585e-09 5.1939093e-09 1.04936e-08 5.9010656e-08
6.56417e-09 1.3913231e-07 7.656447e-08 7.9477374e-08 8.288442e-08 7.631407e-08 2.2400575e-12 6.731103e-13
1.7354914e-11 2.4001513e-12 7.53936e-13 1.7569569e-11 4.1175587e-09 5.15061e-10 5.077921e-09 7.429095e-08
3.0510354e-09 6.2425516e-12 0.00022296699 1.8457167e-05 0.00022852725 0.00028868197 2.869006e-10 1.6300866e-08
0.00024043611 3.1158947e-06 0.00030767795 2.6985109e-07 0.00023684397 7.9839765e-06 6.0635334e-06 4.366151e-05
0.00017759319 2.793972e-06 0.0002904385 0.00029557935 0.00020986238 0.00021616068 0.00021946378 1.2194907e-06
4.2890996e-08 1.01003245e-07 9.2220586e-07 1.0741988e-06 2.2512445e-06 3.0587635e-06 1.0529472e-05 3.1939388e-05
4.9744913e-06 1.5317431e-05 2.9158934e-06 6.335273e-09 2.3453635e-09 7.2701254e-09 7.4456277e-09 1.4455004e-10
1.0907977e-10 4.198366e-09 2.783882e-10 7.539894e-09 7.7000656e-10 4.152269e-09 6.0726113e-10 5.181121e-10
7.5187473e-10 6.079114e-09 7.4273476e-10 7.781917e-09 6.964064e-09 5.7605622e-09 6.3287575e-09 6.1354206e-09
2.0549297e-11 9.091378e-12 1.7638956e-11 4.9429228e-11 3.6819275e-10 2.1782132e-09 1.7408629e-10 7.292591e-10
1.4011285e-10 5.915495e-09 8.993324e-11 3.4116475e-12 6.3404544e-09 6.319649e-11 7.9830365e-09 9.096473e-09
4.636527e-11 8.19217e-11 5.9658163e-09 1.13321214e-10 1.0728588e-08 2.473232e-10 4.59483e-09 5.662134e-10
4.631922e-10 8.2327406e-10 4.9955955e-09 5.452007e-10 1.1421075e-08 6.285242e-09 6.5445267e-09 6.9110677e-09
6.3358625e-09 1.937295e-12 7.247924e-12 5.6202556e-12 5.039438e-12 2.300866e-12 4.0264693e-12 7.1730326e-12
9.127251e-12 8.664963e-10 4.5561173e-09 3.8234296e-10 3.1973534e-12 6.7259837e-10 5.555846e-09 9.724328e-10
2.4348923e-10 2.885231e-09 4.1009116e-09 6.9446164e-11 2.305836e-09 9.821328e-11 7.3214133e-09 2.8747588e-10
5.7109467e-10 4.848743e-09 4.5829585e-09 5.9465077e-09 4.4253037e-10 1.3018667e-10 1.8459176e-10 9.582325e-10
7.759574e-10 6.8856926e-10 7.972377e-09 3.4302534e-09 2.3198261e-10 4.8613027e-11 2.9912094e-11 2.3453938e-11
1.3011026e-11 2.3460256e-11 8.06463e-12 1.882493e-11 1.6405686e-11 4.4155601e-10 0.0009392407 5.7976275e-05
0.0014340257 0.0015343832 3.0899166e-06 1.4051004e-05 0.0010067697 1.4767946e-05 0.0028314767 3.6098645e-05
0.0004640589 0.00030737053 5.865816e-05 4.059212e-05 0.00025627413 2.2045686e-05 0.0030708187 0.0003472075
0.0028070463 0.0013668858 0.0010611871 0.0012555349 7.1245064e-05 1.3813312e-07 2.9704678e-08 2.7342274e-08
2.992276e-08 9.4474935e-09 2.7771422e-08 3.239147e-06 0.00011052325 0.0015245308 0.0019087231 3.7000842e-07
4.4600083e-06 4.6709476e-07 5.996393e-08 3.5837238e-06 3.7636366e-06 2.9777496e-08 8.3217805e-07 1.9255149e-08
4.3959362e-06 1.1095462e-07 7.7132927e-07 4.2105603e-06 2.0288614e-06 4.334598e-06 3.2956257e-07 2.4618785e-08
6.1118214e-08 7.8979855e-07 4.7137857e-07 4.3975433e-07 6.527659e-07 2.485453e-07 1.2672083e-06 1.2190569e-06
00000000: 97f5 fd38 bcd0 1c38 9f5b 1339 fe42 1e39
00000010: 1096 6135 f3ac ca35 21c2 bc38 b8e8 af35
00000020: c6f6 2839 aa8b 6636 5417 a438 5011 1d37
00000030: fe9b f936 674d 5937 ee7a d338 9449 5b37
00000040: 86bc 2d39 89e6 0239 a9f7 f838 fc1b 0439
00000050: 49b5 fc38 8086 e335 4e7d 7035 5f4c 4236
00000060: c33c 6836 f5b5 e136 d53d a035 3db9 0e36
00000070: 6707 0e33 1b9f 9933 fc50 c738 6788 4e36
00000080: e029 b936 b3b1 a433 c141 2b30 1446 d333
00000090: 9c85 ed33 3184 7d2f b939 3030 d10c a033
000000a0: 6d8a b130 fb56 0c34 c0e0 2831 bcff 6a33
000000b0: 192f f331 1c76 b231 5747 3432 e772 7d33
000000c0: 0d8b e131 6664 1534 c36b a433 26ad aa33
000000d0: 31fe b133 1be2 a333 4aa1 1d2c b576 3d2b
000000e0: cba7 982d 48e5 282c d036 542b 278b 9a2d
000000f0: 6e7a 8d31 3294 0d30 de79 ae31 e289 9f33
00000100: 62aa 5131 e8a3 db2c 3fcc 6939 77d4 9a37
00000110: d1a0 6f39 3d5a 9739 abb9 9d2f fc05 8c32
00000120: 941d 7c39 aa1a 5136 d64f a139 0de0 9034
00000130: 5259 7839 ebf2 0537 5b75 cb36 3021 3738
00000140: 4f38 3a39 1380 3b36 ff45 9839 fdf7 9a39
00000150: 810e 5c39 31a9 6239 dc1f 6639 62ad a335
00000160: 2637 3833 1fe7 d833 818d 7735 312d 9035
00000170: 1614 1736 2845 4d36 bda7 3037 a8f6 0538
00000180: 8eea a636 ef7d 8037 abae 4336 a7ad d931
00000190: 122c 2131 b3cc f931 6fd4 ff31 38ef 1e2f
000001a0: 74de ef2e 3841 9031 a80b 992f ce88 0132
000001b0: 65a8 5330 bfab 8e31 34ec 2630 e66a 0e30
000001c0: 7bac 4e30 74e0 d031 5029 4c30 3cb1 0532
000001d0: 8e48 ef31 71ee c531 5774 d931 bbcf d231
000001e0: e7c0 b42d edef 1f2d 6627 9b2d 5d64 592e
000001f0: 866a ca2f 88af 1531 ef68 3f2f 0c75 4830
00000200: 430e 1a2f 3f41 cb31 eac3 c52e c712 702c
00000210: 3adb d931 76f8 8a2e c425 0932 b646 1c32
00000220: a7ea 4b2e d125 b42e e0fb cc31 2c32 f92e
00000230: d450 3832 a5f7 872f 8de0 9d31 baa3 1b30
00000240: 82a4 fe2f c34c 6230 b9a5 ab31 17dd 1530
00000250: 6b36 4432 93f5 d731 44de e031 6576 ed31
00000260: d6b2 d931 3453 082c 7f03 ff2c c3be c52c
00000270: 394f b12c b8e8 212c 36ab 8d2c ef60 fc2c
00000280: 7c91 202d 422e 6e30 088c 9c31 fd31 d22f
00000290: 66fe 602c e7e1 3830 bde5 be31 70a6 8530
000002a0: 10dc 852f 8545 4631 00e8 8c31 b7b6 982e
000002b0: b274 1e31 29f9 d72e d58f fb31 a20a 9e2f
000002c0: 37fb 1c30 ff99 a631 2178 9d31 0952 cc31
000002d0: 9d48 f32f 4a24 0f2f f6f5 4a2f cfb2 8330
000002e0: 264b 5530 c145 3d30 e3f6 0832 a8b9 6b31
000002f0: 4d11 7f2f 67cd 552e 068e 032e 934d ce2d
00000300: 74e4 642d cd5b ce2d dddf 0d2d f995 a52d
00000310: 524e 902d 7cbf f22f 6037 763a 8d2b 7338
00000320: ebf5 bb3a 5b1d c93a 5d5c 4f36 9abc 6b37
00000330: 96f5 833a d8c3 7737 4c90 393b a068 1738
00000340: ee4c f339 9326 a139 b807 7638 7541 2a38
00000350: 885c 8639 c0ee b837 ca3f 493b 6709 b639
00000360: 6cf6 373b 1429 b33a 8817 8b3a c390 a43a
00000370: 6769 9538 be51 1434 4729 ff32 4cde ea32
00000380: 6c84 0033 844e 2232 018e ee32 1f60 5936
00000390: b8c8 e738 c4d2 c73a 1f2e fa3a 92a5 c634
000003a0: 2ea7 9536 04c5 fa34 85c5 8033 e87f 7036
000003b0: c992 7c36 68c9 ff32 d762 5f35 8566 a532
000003c0: ce80 9336 f345 ee33 580d 4f35 7048 8d36
000003d0: 9327 0836 ea71 9136 bcee b034 4879 d332
000003e0: 1840 8333 8b02 5435 c711 fd34 6017 ec34
000003f0: bb39 2f35 ce6f 8534 f214 aa35 7a9e a335

exp_avg f4 [40, 10]
-1.40475205e-08 3.9345468e-07 4.703337e-05 -2.01117e-05 5.010399e-05 4.3422246e-05 -5.933476e-10 3.7228496e-05
-4.9592498e-05 -4.9211998e-05 2.5951817e-15 -1.4227936e-13 -1.0347091e-13 5.4445326e-13 -2.3322113e-13 -5.5738194e-13
3.040392e-15 -3.9663368e-13 3.0429232e-13 3.5934748e-13 -3.0157202e-14 1.2639109e-12 4.0873424e-12 -5.9101135e-12
6.136634e-12 6.972823e-12 -2.8798548e-14 6.5902275e-12 -6.29388e-12 -6.4531054e-12 -1.434753e-14 6.238603e-13
1.8309473e-12 -2.863809e-12 2.7957224e-12 3.3344226e-12 -1.4049622e-14 3.0817193e-12 -2.9027002e-12 -3.00563e-12
-1.7226691e-16 5.426689e-15 1.9822982e-14 -2.821861e-14 2.86494e-14 3.2595427e-14 -1.4705776e-16 3.1073756e-14
-2.9450644e-14 -2.9985986e-14 -1.5859826e-16 3.3775125e-15 1.6367086e-14 -1.9776283e-14 2.244262e-14 2.3576815e-14
-1.0853435e-16 2.3919909e-14 -2.2329073e-14 -2.1955035e-14 -7.868353e-09 2.4995993e-06 5.2216255e-06 1.1054207e-05
9.83286e-06 5.9925596e-06 -2.0917819e-09 7.865427e-06 -9.465306e-06 -8.814621e-06 1.5656621e-12 -1.035536e-10
-3.8860015e-10 1.1529482e-10 -4.471366e-10 -4.0792866e-10 2.0336016e-12 -3.365306e-10 4.391579e-10 4.1605092e-10
-7.6558173e-16 2.3582776e-14 8.662809e-14 -1.2438064e-13 1.2470136e-13 1.4281383e-13 -6.5869697e-16 1.3594205e-13
-1.2829179e-13 -1.3096051e-13 -1.04915565e-16 3.7542817e-15 1.4765926e-14 -1.9514472e-14 2.1159854e-14 2.3069552e-14
-9.909241e-17 2.222786e-14 -2.1445356e-14 -2.1872495e-14 1.07581055e-10 -1.06057016e-07 1.6888432e-06 -7.819564e-07
1.7424344e-06 1.4957467e-06 1.5257886e-09 1.2825939e-06 -1.7308108e-06 -1.6940388e-06 2.2033692e-20 -3.1403982e-18
1.7688276e-17 5.0285935e-18 2.0497876e-17 2.8593656e-20 5.915663e-20 1.0506133e-17 -1.5566808e-17 -1.2167637e-17
-2.4954014e-17 4.63419e-16 5.9052686e-16 -1.8573262e-15 1.1850068e-15 1.9584052e-15 -1.039704e-17 1.7889929e-15
-1.4560192e-15 -1.3601641e-15 -2.1712588e-15 9.95083e-14 2.1605463e-13 -4.3634904e-13 3.4823183e-13 4.873077e-13
-2.250894e-15 4.2057888e-13 -3.777903e-13 -4.0270475e-13 -5.2266687e-16 1.8038248e-14 4.7414716e-14 -8.459053e-14
7.347374e-14 9.530507e-14 -4.4208047e-16 8.638677e-14 -7.856208e-14 -8.131187e-14 -1.3298527e-18 2.5742805e-17
1.0468755e-16 -1.4223826e-16 1.4760775e-16 1.6299294e-16 -7.9070174e-19 1.6606315e-16 -1.4646694e-16 -1.4160297e-16
-3.6162748e-09 7.3125295e-07 -5.7003417e-06 1.237812e-05 -3.0476003e-06 -5.0501094e-06 1.8866295e-08 -1.9487761e-06
3.2001753e-06 3.6577521e-06 -4.904043e-10 5.1877926e-08 1.4403581e-06 -5.2933643e-07 1.5037392e-06 1.304822e-06
-2.684119e-10 1.0988642e-06 -1.4809376e-06 -1.4853658e-06 -1.6164924e-16 4.5248534e-15 1.2687636e-14 -2.2145814e-14
2.0286326e-14 2.5208094e-14 -1.1489601e-16 2.4196294e-14 -2.1814627e-14 -2.2365444e-14 -4.4569423e-16 1.8115589e-14
3.9632614e-14 -8.569571e-14 6.12673e-14 9.140565e-14 -4.724111e-16 7.737381e-14 -6.747358e-14 -7.291254e-14
8.628346e-14 -1.9762955e-11 1.331311e-10 -6.150611e-11 1.3729971e-10 8.870027e-11 1.9081274e-13 9.492136e-11
-1.3304363e-10 -1.2499474e-10 -1.2751246e-19 6.8469127e-18 -7.600156e-18 -2.5071608e-17 -6.4790923e-18 1.9440506e-17
-1.6441094e-19 6.619169e-18 1.2541784e-18 -3.4193126e-18 6.545478e-17 -1.8440692e-16 -1.1178296e-15 8.621639e-16
-1.6693559e-15 -9.648097e-16 4.5432846e-18 -1.9258834e-15 1.8312067e-15 8.227014e-16 -3.851124e-18 1.3930774e-16
5.6361313e-16 -7.1682387e-16 8.076136e-16 8.581966e-16 -3.6083777e-18 8.363119e-16 -8.139386e-16 -8.2650113e-16
8.972457e-18 -1.2103681e-16 -4.1931921e-16 6.336918e-16 -6.3911436e-16 -7.1289766e-16 3.4128723e-18 -7.5542824e-16
6.8593543e-16 6.290759e-16 2.655868e-20 -2.9189107e-19 -1.8399644e-18 1.8654608e-18 -2.5253156e-18 -2.3207013e-18
00000000: a655 71b2 003c d334 b245 4538 8cb5 a8b7
00000010: c026 5238 4820 3638 2019 23b0 cb25 1c38
00000020: 8a01 50b8 fb68 4eb8 a700 3b27 3c31 20aa
00000030: ebfe e8a9 fe3f 192b b54a 83aa 9ae3 1cab
00000040: 5515 5b27 f048 dfaa 254d ab2a 6e4b ca2a
00000050: e3d0 07a9 30e1 b12b 82cf 8f2c 92f1 cfac
00000060: e3e9 d72c 9b55 f52c 77b2 01a9 7edf e72c
00000070: 3b72 ddac 680c e3ac 273b 81a8 df99 2f2b
00000080: 6ad7 002c cc85 49ac 42bb 442c 9ea3 6a2c
00000090: 7218 7da8 52db 582c 6642 4cac 9e80 53ac
000000a0: 389c 46a5 5f84 c327 af8c b228 af2b fea8
000000b0: 8206 0129 f8cb 1229 ca8b 29a5 9af1 0b29
000000c0: 48a2 04a9 7d0b 07a9 f2d9 36a5 1c60 7327
000000d0: ee6b 9328 0121 b2a8 2925 ca28 6f5c d428
000000e0: 5f43 faa4 8e73 d728 561f c9a8 ddc0 c5a8
000000f0: 622d 07b2 cabe 2736 6c35 af36 7575 3937
00000100: d0f7 2437 b213 c936 04bf 0fb1 c0f5 0337
00000110: 2ecd 1eb7 82e2 13b7 ec58 dc2b 7fb7 e3ae
00000120: 9ca2 d5af 3789 fd2e e2d0 f5af db42 e0af
00000130: 1c1a 0f2c 7902 b9af fb6d f12f f6b9 e42f
00000140: f6a9 5ca6 2e6a d428 b211 c329 470a 0caa
00000150: b866 0c2a 49cb 202a 42db 3da6 a10e 192a
00000160: 9771 10aa cc72 13aa 38eb f1a4 2343 8727
00000170: e8ff 8428 4fc5 afa8 4d97 be28 c4ca cf28
00000180: d67d e4a4 f535 c828 a029 c1a8 8a02 c5a8
00000190: c092 ec2e 76c1 e3b3 36ac e235 a2e7 51b5
000001a0: 97dd e935 77c1 c835 eab3 d130 9725 ac35
000001b0: 354e e8b5 bb5e e3b5 331a d01e 72b8 67a2
000001c0: 4325 a323 b985 b922 3e0f bd23 9c07 071f
000001d0: fdad 8b1f cfcd 4123 1694 8fa3 0b74 60a3
000001e0: 0029 e6a3 4992 0526 3135 2a26 9fd5 05a7
000001f0: 09c7 aa26 331e 0d27 a2ca 3fa3 18e9 0027
00000200: a1d5 d1a6 3305 c4a6 a874 1ca7 a112 e029
00000210: 8241 732a 86a4 f5aa 7f09 c42a 382a 092b
00000220: aa31 22a7 cec3 ec2a 52ad d4aa dfb3 e2aa
00000230: 02a6 16a6 5e79 a228 7289 5529 1f7b bea9
00000240: ba72 a529 a29b d629 90d7 fea5 9586 c229
00000250: f5e7 b0a9 1a19 b7a9 6a40 c4a1 7b6f ed23
00000260: 9f64 f124 53fd 23a5 1e2e 2a25 06eb 3b25
00000270: bc5f 69a1 3175 3f25 69dd 28a5 d241 23a5
00000280: 2e82 78b1 524b 4435 9045 bfb6 9fab 4f37
00000290: 6085 4cb6 1c74 a9b6 6c0f a232 b8c7 02b6
000002a0: 98c2 5636 b477 7536 22cd 06b0 62d0 5e33
000002b0: 5452 c135 b917 0eb5 16d4 c935 5821 af35
000002c0: 9e8f 93af b07c 9335 a1c4 c6b5 c85c c7b5
000002d0: 6f5e 3aa5 6806 a327 658f 6428 c578 c7a8
000002e0: 15b9 b628 e80d e328 5177 04a5 dbf0 d928
000002f0: 1b7d c4a8 3473 c9a8 6e76 00a6 b42b a328
00000300: 4b7d 3229 37f8 c0a9 32f6 8929 c5d3 cd29
00000310: c929 08a6 f73a ae29 dfef 97a9 382f a4a9
00000320: 074b c229 38d6 adad 1361 122f dd40 87ae
00000330: 6ff6 162f d00d c32e 07d6 562a fabb d02e
00000340: 7448 12af e46e 09af 478a 16a0 439b fc22
00000350: b932 0ca3 a93e e7a3 4c09 efa2 994e b323
00000360: 281a 42a0 4934 f422 8515 b921 fd4c 7ca2
00000370: afed 9624 519b 54a5 a218 a1a6 7880 7826
00000380: 5d94 f0a6 320b 8ba6 1c9e a722 47c6 0aa7
00000390: cdf3 0327 a620 6d26 d614 8ea2 639c 2025
000003a0: 4f73 2226 449c 4ea6 5ec7 6826 bb5b 7726
000003b0: 2a20 85a2 ed0c 7126 119a 6aa6 0539 6ea6
000003c0: 3b83 2523 c38b 0ba5 98b8 f1a5 34a6 3626
000003d0: 5136 38a6 907a 4da6 56d3 7b22 c4bc 59a6
000003e0: 1ab5 4526 9c51 3526 f3d6 fa1e 554d aca0
000003f0: f2c3 07a2 8fa5 0922 dd55 3aa2 cf3c 2ba2

exp_avg_sq f4 [40, 10]
6.378643e-05 7.062381e-05 0.00010087733 0.00014720586 0.00013877175 0.00012545673 5.133508e-06 0.00014754928
9.573331e-05 0.00013575645 1.3947783e-10 7.7941076e-10 1.3297602e-10 1.144404e-09 8.262197e-10 1.0247593e-09
1.6018605e-12 1.1906107e-09 1.8171097e-10 9.489318e-10 2.5894618e-09 1.4528752e-05 5.3048203e-05 0.0003192242
0.00031967214 0.0003186274 2.344966e-10 0.00031942077 0.00031972487 0.00032053763 3.5550323e-09 1.7228355e-09
4.683666e-09 2.4245899e-09 4.6551607e-09 2.3000288e-09 1.6813293e-09 3.99089e-09 4.3934607e-09 2.0963324e-09
3.2891058e-11 1.1774594e-10 5.0068116e-11 1.4911207e-10 1.0674301e-10 1.348508e-10 1.682831e-11 1.4633451e-10
1.9579087e-11 1.228888e-10 2.9093123e-09 9.369878e-11 1.675893e-09 1.0522351e-09 1.769602e-09 1.0243125e-09
3.434534e-12 1.3759462e-09 3.9306025e-09 1.6919502e-10 0.0013905101 0.0010345463 0.0019225952 0.0020490198
0.0019988846 0.0013140441 5.843559e-05 0.0020414465 0.0018895435 0.0018187544 1.571857e-07 4.3857026e-11
6.700543e-07 7.5701495e-10 1.5722921e-06 7.8771893e-07 4.3424903e-12 4.8204816e-07 6.5887366e-07 5.237519e-07
3.7473853e-08 3.6527774e-07 6.6673636e-08 4.4861628e-07 3.6646702e-07 3.9809993e-07 3.4411954e-10 4.6606553e-07
3.5561982e-08 4.2565043e-07 9.993838e-10 6.364394e-10 5.412878e-10 1.095249e-09 1.1061206e-09 1.0905371e-09
5.1647475e-10 1.113605e-09 1.0891682e-09 2.047036e-10 4.397306e-05 2.6010906e-05 7.060886e-05 7.2003124e-05
7.146967e-05 6.768724e-05 1.101206e-06 7.1259106e-05 7.04455e-05 7.050341e-05 3.5261316e-08 2.1360251e-09
3.723938e-08 3.940807e-08 3.5947348e-08 4.419815e-09 2.4685912e-10 3.2371204e-08 3.5271547e-08 6.2229284e-09
2.0946171e-10 2.7820547e-06 1.0376741e-05 6.2120744e-05 6.187631e-05 6.168305e-05 1.8073326e-11 6.181467e-05
6.192222e-05 6.206444e-05 4.174509e-09 1.9223516e-09 5.4365388e-09 3.1175587e-09 5.349848e-09 2.6391427e-09
1.88632e-09 4.61901e-09 5.054929e-09 2.3553723e-09 5.967913e-11 1.8969963e-10 1.00504494e-10 2.0302342e-10
2.2016182e-10 1.8759166e-10 3.080006e-11 2.0313261e-10 5.2880436e-11 1.7060366e-10 3.4040202e-09 1.7006675e-10
2.8477458e-09 1.9518347e-09 2.4226052e-09 1.8468758e-09 1.9789954e-11 2.7248093e-09 5.007166e-09 1.8721416e-10
0.000102934486 9.603263e-05 0.00011304589 0.000113737166 0.000113408845 0.00010321954 3.6125315e-05 0.000113610906
0.00011309995 0.00011180777 9.577578e-08 6.580499e-11 1.8190934e-07 2.6016357e-08 2.6387247e-07 1.5862905e-07
6.5567395e-12 2.499146e-07 2.9684244e-07 7.659464e-08 2.653122e-10 5.4913657e-10 7.017763e-10 4.88085e-10
9.416923e-10 5.1731025e-10 6.210413e-11 5.8298844e-10 5.74164e-10 4.760496e-10 7.244262e-11 1.4714982e-10
2.0026675e-10 9.9919005e-12 2.3601865e-10 1.069317e-10 5.241095e-12 6.3388815e-11 1.5280192e-10 8.315307e-11
0.04052858 0.09835481 0.12013281 0.13037121 0.12826909 0.104314536 0.002545932 0.12990974
0.11883704 0.120298535 0.00021503323 1.580167e-05 0.00022350284 0.00023604048 0.00021615929 2.9266856e-05
1.6687275e-06 0.00019456744 0.00021444474 4.7582016e-05 1.7326457e-10 6.720623e-10 4.416596e-10 8.8396755e-11
9.63765e-10 2.7496608e-10 1.2592373e-11 1.1982006e-10 4.1430737e-10 2.1833717e-10 2.7922133e-09 1.5508802e-09
3.777913e-09 1.8724213e-09 3.905748e-09 1.8152435e-09 1.3357325e-09 3.1222518e-09 3.5293577e-09 1.6973639e-09
1.4630652e-10 2.9202663e-09 1.7668908e-10 3.2759706e-09 2.3200668e-09 3.4458318e-09 1.0118776e-11 3.521379e-09
6.055813e-11 3.3266774e-09 1.30942865e-08 1.541332e-10 6.935363e-09 1.0389455e-09 5.7809464e-09 1.9684057e-09
00000000: 14c5 8538 df1b 9438 1b8e d338 465b 1a39
00000010: 4283 1139 098d 0339 7f40 ac36 75b7 1a39
00000020: 6ec4 c838 d859 0e39 855b 192f 283e 5630
00000030: 6c35 122f 2349 9d30 0b1c 6330 83d7 8c30
00000040: 1b71 e12b e4a2 a330 17cb 472f 926b 8230
00000050: 4bf2 3131 84c0 7337 1380 5e38 8c5d a739
00000060: ab99 a739 720d a739 76ea 802f ee77 a739
00000070: bfa0 a739 d50d a839 ca4c 7431 e3c8 ec30
00000080: f6ed a031 d69d 2631 3af3 9f31 890e 1e31
00000090: 8414 e730 3d20 8931 4af5 9631 120f 1031
000000a0: 0aa8 102e 8976 012f b033 5c2e 51f3 232f
000000b0: f9ba ea2e 2045 142f fc05 942d 81e5 202f
000000c0: 2f38 ac2d 1f1e 072f 2aed 4731 b90b ce2e
000000d0: 3e55 e630 3b9e 9030 5636 f330 cbc7 8c30
000000e0: 10af 712c ce1b bd30 f20d 8731 2a08 3a2f
000000f0: c741 b63a 9d99 873a 97ff fb3a d948 063b
00000100: b8ff 023b 013c ac3a bd18 7538 cac9 053b
00000110: 8faa f73a 4563 ee3a e0c6 2834 9fe2 402e
00000120: c8dd 3335 3116 5030 8c07 d335 a273 5335
00000130: adc9 982c 1966 0135 74dd 3035 f597 0c35
00000140: f0f2 2033 641b c434 382e 8f33 5ad9 f034
00000150: d8be c434 70ba d534 852e bd2f 8f37 fa34
00000160: d0bc 1833 f384 e434 b15a 8930 71f1 2e30
00000170: bec9 1430 a687 9630 2906 9830 dde1 9530
00000180: aef7 0d30 7e0d 9930 b3b1 9530 f112 612f
00000190: b76f 3838 ff31 da37 d813 9438 6200 9738
000001a0: fde1 9538 4ff3 8d38 26cd 9335 f170 9538
000001b0: 24bc 9338 3bdb 9338 3a72 1733 5ac9 1231
000001c0: 22f1 1f33 a241 2933 8764 1a33 1bdd 9731
000001d0: 55b6 872f 8408 0b33 7a7d 1733 75d1 d531
000001e0: 3b4e 662f 56b3 3a36 c317 2e37 d246 8238
000001f0: 97c3 8138 d65b 8138 83f9 9e2d 80a2 8138
00000200: 3ddc 8138 9828 8238 5f6f 8f31 5e1a 0431
00000210: 4dcc ba31 ac3c 5631 c3d1 b731 4a5c 3531
00000220: 7ea0 0131 3eb5 9e31 a0af ad31 26dc 2131
00000230: 5d3c 832e b393 502f 0003 dd2e 033a 5f2f
00000240: 0b12 722f 5c42 4e2f c975 072e bf58 5f2f
00000250: 1492 682e a994 3b2f 28ec 6931 89fd 3a2f
00000260: 13b2 4331 0a21 0631 ec7a 2631 2ad5 fd30
00000270: 0413 ae2d 5a3f 3b31 7f0b ac31 1ad8 4d2f
00000280: 88de d738 2065 c938 0d13 ed38 2d86 ee38
00000290: e9d5 ed38 9277 d838 4385 1738 6442 ee38
000002a0: 1330 ed38 577a ea38 4bad cd33 ebb4 902e
000002b0: dc52 4334 937a df32 5baa 8d34 9f53 2a34
000002c0: dcb1 e62c 002c 8634 b75d 9f34 597c a433
000002d0: 5fdb 912f 0df2 1630 1ee7 4030 ee29 0630
000002e0: da6c 8130 7932 0e30 8491 882e 2a40 2030
000002f0: 33d3 1d30 03db 0230 924d 9f2e feca 212f
00000300: 1432 5c2f 85c7 2f2d acc0 812f 3225 eb2e
00000310: 9667 b82c bb64 8b2e eb01 282f 04db b62e
00000320: 4c01 263d 3f6e c93d 3108 f63d 0880 053e
00000330: f958 033e dca2 d53d a7d9 263b 0f07 053e
00000340: d660 f33d 145f f63d 8b7a 6139 d48d 8437
00000350: 165c 6a39 a281 7739 d1a8 6239 1882 f537
00000360: 0af9 df35 cd04 4c39 92dc 6039 cd92 4738
00000370: a481 3e2f 2ebc 3830 10ce f22f f362 c22e
00000380: 7775 8430 092a 972f 0287 5d2d 59be 032f
00000390: 94c4 e32f 7310 702f 23e1 3f31 bf26 d530
000003a0: e0ce 8131 fcab 0031 5333 8631 347c f930
000003b0: e994 b730 3c8f 5631 1e89 7231 af48 e930
000003c0: a0dd 202f dead 4831 8e45 422f 7c1f 6131
000003d0: 0c6f 1f31 b7cb 6c31 ea02 322d c1fc 7131
000003e0: 322b 852e 879b 6431 48f5 6032 a478 292f
000003f0: 194c ee31 a5ca 8e30 bea1 c631 8f44 0731

exp_avg f4 [40]
-5.0148665e-05 -1.1458695e-10 5.2526977e-10 4.7735327e-10 4.9140414e-12 2.280096e-12 -9.843132e-06 4.512917e-10
1.8828208e-11 2.3634853e-12 -1.7450992e-06 -1.6673099e-17 -1.9808278e-15 -5.3264776e-13 -1.0826609e-13 -2.1933827e-16
3.0410956e-06 -1.5051769e-06 -2.8273721e-14 -9.774373e-14 -1.3753718e-10 4.0234755e-15 -2.2613366e-13 1.041047e-12
-9.626462e-13 -5.050824e-15 -1.02948046e-10 4.2742502e-13 2.627364e-12 2.6568652e-14 -6.049946e-09 -0.0008647756
-0.0134022795 -0.029314678 -0.0001232319 -0.037997622 1.0637086e-07 -0.0019751093 -0.0023270198 -0.0023271055
00000000: b856 52b8 b8fa fbae 9362 1030 c036 0330
00000010: c0e5 ac2c 8f72 202c ee23 25b7 a919 f82f
00000020: 5b9d a52d c450 262c 2739 eab5 3ec8 99a3
00000030: d3bb 0ea7 51ed 15ab 27cb f3a9 3be1 7ca5
00000040: a015 4c36 7c05 cab5 c3aa fea8 6d19 dca9
00000050: 4639 17af 03f6 9027 979a 7eaa ac83 922b
00000060: fc7a 87ab a1f9 b5a7 9962 e2ae 709e f02a
00000070: 62e2 382c 244f ef28 e3df cfb1 1cb2 62ba
00000080: 3c95 5bbc 5625 f0bc d037 01b9 65a3 1bbd
00000090: 006e e433 d670 01bb ea80 18bb 5a82 18bb

exp_avg_sq f4 [40]
0.000213079 1.643425e-07 0.0003229561 1.4423952e-08 1.3594994e-08 1.1956679e-08 0.00223979 5.5600467e-06
5.494807e-07 7.073627e-09 7.219133e-05 3.9786777e-08 6.21326e-05 8.336169e-09 4.8215504e-10 2.0608198e-08
0.00011390126 8.142581e-07 1.4337848e-09 4.5160464e-10 0.13567184 0.00023815609 3.2389573e-09 5.794014e-09
6.843672e-07 1.02948455e-07 0.48531505 2.0566736e-07 0.00020760366 5.8368577e-09 4.0115785e-05 0.0012676574
0.0018313127 0.0030925337 0.00073335855 0.043682743 0.00053069287 0.000784303 0.0016021607 0.0027532885
00000000: f56d 5f39 1f76 3034 6f52 a939 36cd 7732
00000010: 6a8f 6932 086a 4d32 71c9 123b 7090 ba36
00000020: 0780 1335 480c f331 6d65 9738 06e2 2a33
00000030: 304d 8238 dc36 0f32 a588 0430 e805 b132
00000040: 46de ee38 6493 5a35 d10e c530 b445 f82f
00000050: 8fed 0a3e 8ab9 7939 5794 5e31 b014 c731
00000060: 5bb5 3735 8314 dd33 377b f83e 6ad5 5c34
00000070: 2fb0 5939 8b8d c831 ff41 2838 8627 a63a
00000080: a808 f03a 1bac 4a3b dc3e 403a adec 323d
00000090: 321e 0b3a af99 4d3a 98ff d13a 8470 343b

exp_avg f4 [40]
-5.0148672e-05 -1.1458692e-10 5.2526977e-10 4.77353e-10 4.9140414e-12 2.280096e-12 -9.843152e-06 4.5129175e-10
1.8828208e-11 2.3634864e-12 -1.7450988e-06 -1.6673099e-17 -1.9808278e-15 -5.3264776e-13 -1.0826609e-13 -2.1933815e-16
3.0411102e-06 -1.5051768e-06 -2.8273721e-14 -9.774373e-14 -1.3753713e-10 4.0234755e-15 -2.2613366e-13 1.041047e-12
-9.62646e-13 -5.0508244e-15 -1.02948094e-10 4.2742502e-13 2.627365e-12 2.6568652e-14 -6.0499463e-09 -0.00086477544
-0.0134022795 -0.029314678 -0.00012323193 -0.03799763 1.06366315e-07 -0.0019751096 -0.0023270196 -0.0023271053
00000000: ba56 52b8 b4fa fbae 9362 1030 bb36 0330
00000010: c0e5 ac2c 8f72 202c 0424 25b7 ab19 f82f
00000020: 5b9d a52d c950 262c 2339 eab5 3ec8 99a3
00000030: d3bb 0ea7 51ed 15ab 27cb f3a9 32e1 7ca5
00000040: e015 4c36 7b05 cab5 c3aa fea8 6d19 dca9
00000050: 4339 17af 03f6 9027 979a 7eaa ac83 922b
00000060: fa7a 87ab a2f9 b5a7 a062 e2ae 709e f02a
00000070: 66e2 382c 244f ef28 e4df cfb1 19b2 62ba
00000080: 3c95 5bbc 5625 f0bc d237 01b9 67a3 1bbd
00000090: 806b e433 d770 01bb e980 18bb 5982 18bb

exp_avg_sq f4 [40]
0.0002130789 1.6434244e-07 0.0003229561 1.4423952e-08 1.3594994e-08 1.1956679e-08 0.00223979 5.5600467e-06
5.494807e-07 7.073627e-09 7.219133e-05 3.978677e-08 6.21326e-05 8.336169e-09 4.8215504e-10 2.0608198e-08
0.0001139012 8.1425793e-07 1.4337848e-09 4.5160464e-10 0.13567184 0.00023815609 3.2389478e-09 5.794014e-09
6.84367e-07 1.02948455e-07 0.485315 2.0566702e-07 0.00020760369 5.8368577e-09 4.0115785e-05 0.0012676574
0.0018313127 0.0030925334 0.0007333586 0.043682743 0.0005306929 0.00078430306 0.0016021609 0.0027532885
00000000: ef6d 5f39 1b76 3034 6f52 a939 36cd 7732
00000010: 6a8f 6932 086a 4d32 71c9 123b 7090 ba36
00000020: 0780 1335 480c f331 6d65 9738 04e2 2a33
00000030: 304d 8238 dc36 0f32 a588 0430 e805 b132
00000040: 3ede ee38 6193 5a35 d10e c530 b445 f82f
00000050: 8fed 0a3e 8ab9 7939 2c94 5e31 b014 c731
00000060: 58b5 3735 8314 dd33 357b f83e 52d5 5c34
00000070: 31b0 5939 8b8d c831 ff41 2838 8627 a63a
00000080: a808 f03a 1aac 4a3b dd3e 403a adec 323d
00000090: 331e 0b3a b099 4d3a 99ff d13a 8470 343b

exp_avg f4 [1, 10]
-6.8950336e-05 0.0058291657 0.13399202 -0.04968165 0.1459251 0.1175973 -1.8911564e-05 0.10700956
-0.14328904 -0.14181675
00000000: 6e99 90b8 9602 bf3b 3435 093e fc7e 4bbd
00000010: 646d 153e dad6 f03d 46a4 9eb7 d427 db3d
00000020: 5dba 12be 6938 11be

exp_avg_sq f4 [1, 10]
0.0114211645 0.006784867 0.21103491 0.04081702 0.21624756 0.08434097 0.002625046 0.11215506
0.19469477 0.10660222
00000000: d61f 3b3c 9753 de3b 8919 583e bf2f 273d
00000010: 0070 5d3e f5ba ac3d f708 2c3b 8db1 e53d
00000020: 115e 473e 4452 da3d
