ckpt/ADAM_lstm_bs{32}_lr{1.0e-02}_eps{1.0e-04}_epoch{400}/ADAM_lstm_bs{32}_lr{1.0e-02}_eps{1.0e-04}_epoch{400}.pth (torch, 24447 bytes, 15 tensors)

lstm.weight_ih_l0 f4 [40, 27]
0.9261842 2.0607595 0.6368064 0.97438776 0.5237068 0.95604414 1.4637586 0.8450481
1.0659639 0.45499894 0.8488668 1.3901737 1.1579142 0.8959087 1.1415817 0.40458414
0.60976666 0.9552958 1.301723 0.39990184 0.91264576 0.18553291 0.3129227 0.95159453
0.38384134 -0.57236 0.38855633 -2.9582014 -0.10060648 -2.7940762 0.4232021 1.4754997
-2.644561 -7.037027 0.3198166 -1.9693304 1.3402135 2.1460834 0.66731864 -1.0865963
-1.7208482 -1.281774 0.93815297 1.1847109 0.97247535 1.218196 1.8239735 1.2686824
1.7445104 1.8483115 1.758031 -2.8527622 0.506388 1.6166387 0.6101445 0.1244635
0.7742268 0.4797157 0.36917767 0.26739785 0.6875981 0.47035825 0.1976573 0.6383959
0.71582 0.35258213 0.6875446 0.7542555 0.2440569 -0.072880335 0.6251332 1.2678118
-0.14887336 0.57809293 0.22170065 -0.14826755 0.28315306 -0.15924045 -0.12997878 0.20170033
0.27344802 0.7649144 1.0869782 1.1295713 0.77288115 0.80526304 1.2521315 1.1238353
1.1950533 1.0658396 0.29957315 0.7541579 1.0517589 1.0836453 0.82455915 1.1929653
0.23595993 0.12933747 0.4636279 0.89443284 0.42724 0.6937593 0.3787658 0.57801336
0.35661417 0.3274878 -0.3663311 0.114601366 6.6311207 1.7124017 0.92070043 0.7227852
-0.2330108 3.5521505 0.98312443 1.4036766 -0.0877396 0.2165938 4.7315 -0.68754506
1.7368281 1.3792242 1.6261058 1.0158457 -0.6916475 0.15104206 -0.13293453 -0.37718865
-0.96541643 0.2793622 0.56457585 -6.6767144 0.56425667 2.111379 0.015678862 1.2154408
1.3398414 1.1279688 0.6634864 0.31915972 1.0637333 1.0991944 0.79491276 1.0153134
0.3456901 1.0282178 1.3957402 1.008011 0.8131224 0.9541629 -0.1615259 0.42782825
0.15111089 0.44246468 0.42117122 0.5913512 0.52491677 0.1157518 0.5811076 -0.08076532
0.35412842 0.018601626 -5.6231165 -1.872407 -1.275591 -1.5462271 -2.150482 0.40939367
0.60831463 -0.48846084 -3.5520997 4.607715 2.1957376 4.79803 -4.0068884 -2.469407
-1.5805552 2.3034425 -3.3686903 0.5890648 1.9697938 1.2899152 2.1275423 2.0114946
1.1725739 4.755088 0.72247595 -4.544576 -2.436105 -2.7170975 -0.2976709 -0.15343937
-1.8398275 -2.3855314 0.63852 -1.9175776 0.105618715 0.501583 3.0909083 0.82563984
0.23469283 -1.9530141 -0.5548022 0.40817255 -1.131386 1.2379417 3.156573 1.8718264
-6.2831283 2.1306553 -1.6012968 -5.9987307 0.5284857 -0.7059541 1.8674552 -0.26883137
0.021550965 0.834852 -1.3737462 -0.16460845 -0.5915364 -0.55789 -3.8619175 1.967085
3.0488853 -6.108741 2.4490972 -7.2648306 0.53657585 0.51190513 0.96676016 2.577294
3.4868214 0.96518785 0.40162656 0.16161188 -0.35619235 -1.6762623 -2.3523278 0.07737793
-0.71721977 -0.9766479 0.09504902 0.46142638 -1.4108553 1.0563015 -7.477606 -6.68414
1.1969614 1.2591482 -5.892914 1.529101 0.022701086 -0.96768504 -5.423168 0.61854756
00000000: 681a 6d3f 7ce3 0340 bf05 233f 7a71 793f
00000010: a611 063f 4fbf 743f 715c bb3f 1355 583f
00000020: 8171 883f 9ff5 e83e 564f 593f 36f1 b13f
00000030: 8836 943f 465a 653f 591f 923f a725 cf3e
00000040: ab19 1c3f 448e 743f dc9e a63f efbf cc3e
00000050: 27a3 693f 57fc 3d3e 6737 a03e b39b 733f
00000060: da86 c43e 2f86 12bf dbf0 c63e 2c53 3dc0
00000070: c50a cebd 25d2 32c0 f2ad d83e 2ddd bc3f
00000080: 7d40 29c0 532f e1c0 00bf a33e 0513 fcbf
00000090: 1e8c ab3f 6e59 0940 65d5 2a3f 9615 8bbf
000000a0: c144 dcbf 2c11 a4bf cb2a 703f 9ba4 973f
000000b0: 25f4 783f d9ed 9b3f f777 e93f 2f64 a23f
000000c0: 1e4c df3f 7995 ec3f 2907 e13f a893 36c0
000000d0: a5a2 013f 04ee ce3f 6e32 1c3f b8e6 fe3d
000000e0: ba33 463f 4c9d f53e db04 bd3e 5fe8 883e
000000f0: 6e06 303f ccd2 f03e ad66 4a3e ea6d 233f
00000100: fb3f 373f a585 b43e ec02 303f e316 413f
00000110: 0dea 793e 4942 95bd bb08 203f a847 a23f
00000120: 4272 18be e6fd 133f 7f05 633e 73d3 17be
00000130: 70f9 903e ee0f 23be 2819 05be 888a 4e3e
00000140: 6101 8c3e 6ed1 433f 1a22 8b3f cb95 903f
00000150: 8adb 453f b825 4e3f d845 a03f d6d9 8f3f
00000160: 82f7 983f 6f6d 883f a761 993e 7e10 413f
00000170: 09a0 863f e4b4 8a3f 4f16 533f 16b3 983f
00000180: 7b9f 713e 0b71 043e a360 ed3e 8df9 643f
00000190: 34bf da3e 369a 313f 97ed c13e aff8 133f
000001a0: 2296 b63e 7bac a73e c08f bbbe 1fb4 ea3d
000001b0: 2432 d440 fb2f db3f 06b3 6b3f 7308 393f
000001c0: 629a 6ebe 6f56 6340 0bae 7b3f adab b33f
000001d0: d2b0 b3bd c4ca 5d3e 7368 9740 f402 30bf
000001e0: 6250 de3f 6b8a b03f 3c24 d03f 3b07 823f
000001f0: d00f 31bf c5aa 1a3e fd1f 08be df1e c1be
00000200: 8825 77bf 9008 8f3e 0b88 103f a5a7 d5c0
00000210: 2073 103f d520 0740 f570 803c 9093 9b3f
00000220: ec7f ab3f 4861 903f 3fda 293f e768 a33e
00000230: 6a28 883f 67b2 8c3f 677f 4b3f caf5 813f
00000240: 4bfe b03e a49c 833f 9da7 b23f 8106 813f
00000250: ca28 503f 0544 743f 0c67 25be 4e0c db3e
00000260: d0bc 1a3e bb8a e23e c1a3 d73e cb62 173f
00000270: f260 063f 480f ed3d 78c3 143f 4a68 a5bd
00000280: 5250 b53e 7062 983c 92f0 b3c0 08ab efbf
00000290: 9146 a3bf c5ea c5bf 7fa1 09c0 0c9c d13e
000002a0: 82ba 1b3f 8a17 fabe 9a55 63c0 6772 9340
000002b0: f786 0c40 7689 9940 6e38 80c0 c40a 1ec0
000002c0: a24f cabf 9a6b 1340 9f98 57c0 f3cc 163f
000002d0: 3422 fc3f f11b a53f a729 0840 54bc 0040
000002e0: e716 963f ae29 9840 2ff4 383f 2b6d 91c0
000002f0: 25e9 1bc0 ede4 2dc0 5268 98be 361f 1dbe
00000300: 787f ebbf 8cac 18c0 0c76 233f 2f73 f5bf
00000310: a04e d83d be67 003f 71d1 4540 225d 533f
00000320: 5153 703e 5efc f9bf 8407 0ebf fefb d03e
00000330: 42d1 90bf e074 9e3f 4b05 4a40 0298 ef3f
00000340: 630f c9c0 a85c 0840 4bf7 ccbf 9af5 bfc0
00000350: d74a 073f 68b9 34bf c608 ef3f 44a4 89be
00000360: a68b b03c dcb8 553f ead6 afbf 1e8f 28be
00000370: ee6e 17bf e1d1 0ebf a829 77c0 71c9 fb3f
00000380: f020 4340 ce7a c3c0 02be 1c40 7e79 e8c0
00000390: 095d 093f 370c 033f 987d 773f 63f2 2440
000003a0: 1528 5f40 8d16 773f ffa1 cd3e 967d 253e
000003b0: d85e b6be c38f d6bf 8a8c 16c0 5278 9e3d
000003c0: b79b 37bf 9905 7abf 10a9 c23d 1440 ec3e
000003d0: e896 b4bf e334 873f 8c48 efc0 7ae4 d5c0
000003e0: 0836 993f c52b a13f c092 bcc0 95b9 c33f
000003f0: a1f7 b93c 35ba 77bf 988a adc0 2259 1e3f

lstm.weight_hh_l0 f4 [40, 10]
-0.41777572 -0.2525412 -0.4952008 0.014318804 -0.26737905 -0.0040725567 0.1322308 -0.17154658
-0.7383258 0.5591815 0.5162198 -0.14400189 5.2930074 5.0232763 -1.6417816 -0.9653856
-1.5157489 -1.6610299 -1.2466733 -0.10648637 0.3785903 0.108739026 -0.19811837 -0.5178576
0.6381166 -0.36270753 0.37510398 -0.043836135 0.020657366 -0.06608634 0.049631365 -0.21336715
0.14912131 -0.54861104 0.6099457 0.07982629 0.17633021 -0.0541519 0.24625975 -0.06163995
-1.3352588 0.12926821 -1.2572945 -0.30769292 2.852645 0.86414665 -0.4542774 0.48129934
-1.5549903 0.43694097 -0.27447712 -0.3879628 -0.4992125 -0.63928574 0.098085895 -0.54110676
0.14948568 0.059413772 0.30634046 -0.3640206 -1.2186776 -1.648415 2.7954736 1.854874
1.1280242 -1.9160838 -1.2426931 0.7519872 2.788136 1.2761452 -0.056674123 -1.0293472
-0.33370486 -0.65284383 1.8678565 1.2048239 2.519347 1.1745061 -1.9948152 0.35369697
1.1650352 -3.0856102 -1.3111808 0.68555164 0.8587142 0.7256101 -0.46989104 -3.0791352
-2.294635 0.5704969 2.126882 -0.72081447 -3.427045 0.95430255 -0.94231814 -0.10736598
-1.9475878 1.145137 -0.86887443 -2.6482823 -0.20968358 -0.2708845 -0.65579563 -0.20571677
-0.23650749 -0.79531646 0.046486817 0.39013642 -1.1310823 0.6925449 0.8164803 2.0681326
1.6065522 1.1556853 -1.969476 -0.7300627 -3.9005365 -2.0921292 -1.4709071 -0.006451652
0.3044078 0.38679096 -0.4723686 -0.31325725 0.49669078 -0.58727497 0.6840087 -0.16035898
0.2475863 0.019019317 0.12257866 -0.2992995 0.40127003 -0.017460747 0.29020324 -0.17906502
0.4578314 -0.44100356 0.16960296 -0.08528113 -1.0056727 -0.26451844 -0.5932795 -0.76336217
-0.12332299 -0.08463232 -0.34704256 0.23441683 0.082164146 0.38593394 -0.57530355 0.07491873
-0.05813996 -0.43527395 0.10526526 -0.339154 -0.0155702075 0.19032846 0.29546562 -0.076008126
-0.6113971 -2.0673409 -2.0730124 0.4071748 -0.95815283 1.6164056 -0.15451623 3.468502
-1.3938063 -0.6156845 -0.4336357 1.9904176 3.0671842 2.570162 2.169077 1.6731356
1.6273059 -0.25489086 -0.43160906 0.20682934 0.5749725 -4.9073853 2.8010275 -0.096465185
3.2251966 0.38873845 -0.38833907 -2.1682656 1.1073266 1.9802427 2.0798793 -0.5922415
0.87516344 1.3033394 0.22792405 1.2606102 -0.388572 0.14171526 0.23819555 -0.5813649
0.32067847 -0.056738034 1.1874285 0.85800326 -0.14997798 0.49957436 -0.39177927 -0.26878712
0.70000553 -0.49259794 -1.8175209 1.024132 -0.34106544 -0.33038193 -1.5665755 -1.2757672
-0.51808697 0.046342656 -0.35093382 0.2164659 0.1434703 -0.06415844 0.28491795 0.46370098
-0.46887803 0.22058861 0.040733993 0.033636138 0.16635454 -0.41662136 0.018852206 -0.116039194
0.08058692 0.13372156 -0.54349464 -0.008849123 0.12883365 -0.3392418 0.22463846 0.031865686
-0.5557887 -1.2130301 -0.20512643 -0.6799959 -3.5838678 -2.5596292 0.96921605 1.252086
-2.0417366 0.18120828 0.15434884 0.16835153 0.48079896 0.21611534 -0.12725468 0.5867294
00000000: b3e6 d5be 154d 81be f68a fdbe 6b99 6a3c
00000010: e8e5 88be 1573 85bb 8367 073e e8a9 2fbe
00000020: eb02 3dbf 8526 0f3f fb26 043f 3b75 13be
00000030: 5160 a940 aebe a040 e625 d2bf 8323 77bf
00000040: 0f04 c2bf a19c d4bf fe92 9fbf 8715 dabd
00000050: 96d6 c13e 91b2 de3d 8bdf 4abe 5192 04bf
00000060: 9c5b 233f cdb4 b9be a10d c03e 858d 33bd
00000070: a339 a93c 4658 87bd 424a 4b3d eb7c 5abe
00000080: 42b3 183e c671 0cbf 6725 1c3f f77b a33d
00000090: e88f 343e 62ce 5dbd 842b 7c3e 2c7a 7cbd
000000a0: c3e9 aabf e35e 043e 07ef a0bf ed89 9dbe
000000b0: bc91 3640 b738 5d3f 0c97 e8be de6c f63e
000000c0: ec09 c7bf bab6 df3e 4488 8cbe 0fa3 c6be
000000d0: c898 ffbe 3ba8 23bf 42e1 c83d f985 0abf
000000e0: c612 193e db5b 733d a8d8 9c3e e860 babe
000000f0: a1fd 9bbf 43ff d2bf 0ae9 3240 836c ed3f
00000100: 1963 903f 3c42 f5bf 9110 9fbf 3c82 403f
00000110: d270 3240 ba58 a33f 2023 68bd a6c1 83bf
00000120: 5ddb aabe c620 27bf ec15 ef3f ab37 9a3f
00000130: fb3c 2140 3756 963f 1b56 ffbf c517 b53e
00000140: e01f 953f a37a 45c0 c6d4 a7bf 5080 2f3f
00000150: b2d4 5b3f 95c1 393f 8f95 f0be 8d10 45c0
00000160: 4ddb 12c0 160c 123f d61e 0840 4c87 38bf
00000170: b554 5bc0 2c4d 743f c33b 71bf b2e2 dbbd
00000180: 8f4a f9bf d993 923f 8e6e 5ebf 757d 29c0
00000190: 4bb7 56be 60b1 8abe 39e2 27bf 6ba7 52be
000001a0: 052f 72be dc99 4bbf f668 3e3d f6bf c73e
000001b0: 4ec7 90bf 9f4a 313f da04 513f 495c 0440
000001c0: 81a3 cd3f 7fed 933f ca17 fcbf 64e5 3abf
000001d0: 64a2 79c0 72e5 05c0 af46 bcbf 6168 d3bb
000001e0: 57db 9b3e 7709 c63e 4cda f1be 4163 a0be
000001f0: 414e fe3e a757 16bf 321b 2f3f 2535 24be
00000200: 4387 7d3e 66ce 9b3c 850a fb3d c93d 99be
00000210: 4473 cd3e d709 8fbc 8595 943e d25c 37be
00000220: e168 ea3e 38cb e1be 66ac 2d3e e0a7 aebd
00000230: e2b9 80bf f66e 87be 2ae1 17bf b46b 43bf
00000240: c490 fcbd b653 adbd 90af b1be f70a 703e
00000250: ad45 a83d 2299 c53e 1847 13bf fe6e 993d
00000260: 2b24 6ebd 3adc debe 5095 d73d 98a5 adbe
00000270: 2f1a 7fbc 77e5 423e 4547 973e 26aa 9bbd
00000280: 8584 1cbf 504f 04c0 3cac 04c0 3779 d03e
00000290: 8149 75bf 61e6 ce3f 8139 1ebe f0fb 5d40
000002a0: 3f68 b2bf 809d 1dbf 8005 debe 01c6 fe3f
000002b0: bf4c 4440 897d 2440 28d2 0a40 4f29 d63f
000002c0: 8f4b d03f 0e81 82be ddfb dcbe 12cb 533e
000002d0: 6631 133f 4d09 9dc0 0944 3340 8a8f c5bd
000002e0: 9f69 4e40 ba08 c73e 61d4 c6be ddc4 0ac0
000002f0: e1bc 8d3f 9878 fd3f be1c 0540 249d 17bf
00000300: b60a 603f d3d3 a63f ec64 693e ad5b a13f
00000310: e9f2 c6be ce1d 113e 89e9 733e 55d4 14bf
00000320: f82f a43e 2466 68bd a8fd 973f 1aa6 5b3f
00000330: d493 19be 36c8 ff3e 4b97 c8be 779e 89be
00000340: 9033 333f cc35 fcbe 86a4 e8bf c216 833f
00000350: 21a0 aebe d227 a9be 8c85 c8bf 574c a3bf
00000360: 59a1 04bf ccd1 3d3d 99ad b3be 3da9 5d3e
00000370: e1e9 123e 8065 83bd c4e0 913e 376a ed3e
00000380: c810 f0be fbe1 613e b0d8 263d 0cc6 093d
00000390: d858 2a3e 654f d5be f16f 9a3c f5a5 edbd
000003a0: c10a a53d 4eee 083e 7722 0bbf e9fb 10bc
000003b0: f8ec 033e 1ab1 adbe a007 663e 9885 023d
000003c0: 2b48 0ebf 9244 9bbf aa0c 52be 3614 2ebf
000003d0: 175e 65c0 f7d0 23c0 8b1e 783f 5b44 a03f
000003e0: d0ab 02c0 aa8e 393e 9f0d 1e3e 5864 2c3e
000003f0: 482b f63e 574d 5d3e 0d4f 02be e633 163f

lstm.bias_ih_l0 f4 [40]
1.0940552 0.0528405 0.60151464 1.1473947 1.6250342 1.4057827 -0.1799841 -0.73179793
-0.30961248 -2.1259038 0.38532433 -1.3405602 0.85348934 0.67242074 0.7208192 0.807678
-1.4683871 -0.36809176 0.73955697 -1.7632631 -0.7671407 1.3295814 -0.57033867 -1.1272904
0.064139016 -1.1307927 1.1731137 -0.3841803 0.68782675 -0.24348299 -0.9918354 -0.7116589
-2.3668935 -1.9206154 -0.06733379 -2.1675723 0.13641441 -2.034552 -0.96382916 -1.7259796
00000000: 000a 8c3f 486f 583d ddfc 193f d4dd 923f
00000010: 1f01 d03f b0f0 b33f c04d 38be 1c57 3bbf
00000020: 8785 9ebe cf0e 08c0 3b49 c53e 7a97 abbf
00000030: 477e 5a3f c423 2c3f 9b87 383f fcc3 4e3f
00000040: 1cf4 bbbf 8676 bcbe 9b53 3d3f 9bb2 e1bf
00000050: 5563 44bf b92f aa3f b701 12bf 0d4b 90bf
00000060: 515b 833d d1bd 90bf 9728 963f 48b3 c4be
00000070: 6a15 303f 9b53 79be ede8 7dbf 472f 36bf
00000080: 2f7b 17c0 bad6 f5bf 4ce6 89bd 81b9 0ac0
00000090: 38b0 0b3e 1a36 02c0 82bd 76bf e6ec dcbf

lstm.bias_hh_l0 f4 [40]
1.1129503 0.09403585 0.7281726 1.243627 1.1876271 0.97869563 0.16043848 -0.40812287
-0.6094818 -2.059036 0.54424417 -1.1826228 0.5502602 0.40394056 0.71126485 1.018174
-1.2143341 -0.19607812 0.39416623 -2.0220246 -0.58282334 0.9942377 -0.59734243 -0.82883006
0.29501805 -0.7490839 1.2086226 -0.34212905 0.46091247 0.043134704 -0.9372607 -0.40711892
-2.3015172 -2.311785 -0.37945133 -1.6908113 -0.024176065 -1.965626 -1.1236868 -1.365526
00000000: 2875 8e3f de95 c03d 8569 3a3f 2b2f 9f3f
00000010: 2a04 983f cc8b 7a3f fc49 243e 7bf5 d0be
00000020: 0007 1cbf 3fc7 03c0 9653 0b3f 2f60 97bf
00000030: dadd 0c3f 4cd1 ce3e 7415 363f 8753 823f
00000040: 4d6f 9bbf b4c8 48be 28d0 c93e da68 01c0
00000050: e933 15bf 5d86 7e3f 6feb 18bf 352e 54bf
00000060: 9b0c 973e f6c3 3fbf 25b4 9a3f 8a2b afbe
00000070: b8fc eb3e 04ae 303d 51f0 6fbf e471 d0be
00000080: 0f4c 13c0 49f4 13c0 7247 c2be 816c d8bf
00000090: e20c c6bc a299 fbbf f8d4 8fbf 8ec9 aebf

fc.weight f4 [1, 10]
-3.718939 -1.1004164 -2.0866807 -2.6722915 -1.8594012 -2.7665813 -1.0577813 2.3349817
-1.1189408 1.1826503
00000000: 1903 6ec0 72da 8cbf 2d8c 05c0 d306 2bc0
00000010: dc00 eebf ab0f 31c0 6165 87bf 5770 1540
00000020: 7439 8fbf 1661 973f

exp_avg f4 [40, 27]
-1.2772087e-17 -1.6052902e-16 -7.501315e-18 -2.3745078e-16 -1.7100673e-16 -4.0493403e-17 -1.5702884e-16 -5.6028217e-16
-9.1547354e-17 -1.855053e-16 -4.2630354e-17 -6.274967e-17 -1.6363285e-17 -2.000167e-17 -2.0934772e-17 8.747925e-22
1.6164006e-22 1.16465444e-23 2.3242081e-22 -7.669231e-21 -4.7355974e-20 -5.129034e-18 -1.2800476e-17 -3.525691e-18
-2.0880644e-17 -8.056695e-16 -4.6185818e-17 6.639176e-10 8.498697e-10 6.19638e-10 1.475797e-10 -1.065829e-10
2.9354127e-10 4.2972498e-10 2.8515446e-10 8.628298e-10 -2.301917e-10 1.9339716e-09 2.0417129e-10 8.0687174e-10
8.9628566e-10 9.580536e-10 1.270398e-10 -1.0647008e-10 1.4096734e-10 1.1451422e-09 -6.681304e-10 6.133988e-10
5.4372884e-10 3.9301823e-10 2.416444e-10 5.3460183e-12 5.9443735e-11 -1.2466507e-09 -1.3051671e-22 4.176654e-22
1.8553934e-22 7.5730205e-23 8.290846e-23 5.3381725e-22 4.43654e-22 1.750964e-22 1.729614e-22 -1.8253358e-22
-2.1740502e-23 -1.3878941e-22 1.5920933e-23 3.8230736e-23 2.1611575e-23 -1.98661e-23 -3.4985896e-23 1.2989402e-23
2.355065e-21 -2.3412931e-21 -1.4442623e-23 2.9036964e-24 -6.2159904e-24 1.2857487e-23 -3.3321374e-22 7.77096e-22
2.4977941e-23 1.4778958e-20 8.74104e-21 4.5812182e-21 3.110587e-20 2.6700634e-20 3.0221567e-21 2.6052826e-23
3.2576502e-20 8.979136e-21 1.5417789e-20 3.7240608e-20 9.730555e-21 1.4578131e-20 1.3548257e-20 1.3109441e-20
3.1736467e-22 -4.6267947e-22 -3.6608425e-23 4.648047e-22 -2.5656018e-22 7.888652e-26 -2.2877986e-26 -8.718937e-26
-4.029631e-24 4.7960193e-23 3.1693858e-20 9.056786e-21 1.4016364e-13 3.164858e-12 1.7976826e-13 -1.4992795e-13
2.6037622e-13 3.5655184e-14 -1.5396263e-13 -8.3582896e-13 -1.976862e-12 2.5948444e-13 2.0396202e-13 -3.920575e-13
1.3956665e-13 1.2475839e-13 1.1926305e-13 4.5166057e-19 -5.65016e-19 5.740273e-20 -8.721063e-24 -8.380514e-24
-7.1388466e-23 -2.582769e-22 -5.8629576e-22 -2.6652756e-12 -8.6988906e-12 -9.481576e-13 1.0698103e-11 2.8874743e-21
3.218029e-21 1.1822716e-21 5.2240236e-21 4.3935444e-21 7.449421e-22 2.1263242e-22 6.0269167e-21 2.0323272e-21
2.2205405e-21 7.261323e-21 1.9540565e-21 3.2236687e-21 3.1090011e-21 3.0438255e-21 9.069476e-22 3.4136962e-22
1.332722e-22 4.3780054e-22 1.5100129e-22 1.1939173e-25 -3.9297975e-26 -2.9592307e-25 -5.6257127e-25 3.843854e-23
2.547511e-21 3.831094e-21 9.437568e-06 1.5158315e-06 1.1474446e-05 3.0770383e-07 5.4008467e-07 1.08249615e-05
1.1978129e-05 1.4759177e-06 1.02297145e-05 1.7218451e-06 7.936293e-06 3.480372e-06 9.416408e-06 9.290664e-06
9.493843e-06 -3.0649588e-08 -4.4433757e-10 3.8605194e-08 1.8563237e-07 -2.1374235e-07 2.547823e-06 1.3855711e-07
5.2888836e-08 1.0537851e-05 4.8144733e-07 -9.6558005e-11 2.3597563e-11 0.00053522305 0.00033662072 0.00060952036
-7.636238e-06 -1.09214025e-05 0.00061027636 0.00063932606 -2.6787591e-05 0.00057231914 -1.9621395e-05 0.00030980108
0.00055374834 0.00053747 0.00051371835 0.0004927076 1.3192949e-05 8.656716e-05 -2.314162e-05 -3.2649623e-05
-1.120075e-08 0.00042945362 8.309182e-06 6.279935e-09 -3.9023955e-05 5.0715025e-05 4.871775e-06 7.185035e-05
0.0018765406 0.002438292 0.002079918 -2.2104872e-05 -2.7148335e-05 0.0018645703 0.0021152324 -1.645705e-05
0.0019338805 0.0003483802 0.0017379912 0.0008748911 0.0018940396 0.0018773876 0.0018745507 0.00028955293
0.00076248334 0.00016680281 0.0006814295 0.00049038936 0.00042834115 -1.8435378e-05 4.1134477e-05 -0.00027292848
-0.0002061857 -0.0004529309 0.00016617254 0.00017903943 0.00017930986 0.00019300081 1.6957534e-07 2.4098742e-06
0.00018125506 0.00018729878 1.1870114e-05 0.00019664367 4.2294465e-05 0.00018098445 -5.160846e-07 0.00018457699
00000000: 7a9a 6ba3 ce13 39a5 f55f 0aa3 8de1 88a5
00000010: 4728 45a5 2cbe 3aa4 bc0a 35a5 877d 21a6
00000020: 0518 d3a4 80df 55a5 0a99 44a4 deb0 90a4
00000030: b7ec 96a3 9c7b b8a3 d516 c1a3 e531 841c
00000040: 2d69 431b e546 6119 617d 8c1b 20de 109e
00000050: dca1 5f9f 5b3a bda2 8a20 6ca3 3613 82a2
00000060: 0797 c0a3 eb37 68a6 97fe 54a4 0c7f 3630
00000070: 439c 6930 2653 2a30 fe43 222f d760 eaae
00000080: 4360 a12f 6a3e ec2f ecc3 9c2f 402c 6d30
00000090: 3419 7daf cae6 0431 1c7d 602f 8dca 5d30
000000a0: 7f5e 7630 84ac 8330 86ae 0b2f 5421 eaae
000000b0: c7fe 1a2f 1c63 9d30 7fa7 37b0 1a9c 2830
000000c0: 8475 1530 6610 d82f 6dd8 842f a718 bc2c
000000d0: d9b7 822e 9f56 abb0 f7c8 1d9b 9776 fc1b
000000e0: a54d 601b ba1a b71a da75 c81a 1c56 211c
000000f0: 1116 061c b6ad 531b f618 511b 68ab 5c9b
00000100: e042 d299 3ec9 279b 52fa 9919 5cdf 381a
00000110: ab03 d119 1522 c099 712e 299a 6740 7b19
00000120: 95f1 311d 32e7 309d 34ae 8b99 a2a9 6018
00000130: 3078 f098 31b3 7819 546a c99b e4dc 6a1c
00000140: 6392 f119 5495 8b1e 131d 251e d312 ad1d
00000150: b0e4 121f 2c2e fc1e 0359 641d acf7 fb19
00000160: 93d6 191f 709c 291e ed9d 911e 22dd 2f1f
00000170: 14ce 371e c2af 891e 5aeb 7f1e 5ea1 771e
00000180: ced5 bf1b 17d6 0b9c 0907 319a 867a 0c1c
00000190: c414 9b9b 4650 c315 9692 e294 d4de d795
000001a0: 88e3 9b98 d8eb 671a 86ab 151f ee13 2b1e
000001b0: 6bcf 1d2a 03b5 5e2c ac66 4a2a cacd 28aa
000001c0: 2b94 922a a193 2029 b558 2daa d343 6bab
000001d0: fb1b 0bac a613 922a 0da4 652a 71b5 dcaa
000001e0: 5923 1d2a 2877 0c2a 3c47 062a 824e 0521
000001f0: 67c3 26a1 d289 871f 9db0 2899 4c1a 2299
00000200: 529b ac9a 6a1e 9c9b 7032 319c 568d 3bac
00000210: 5208 19ad fa70 85ab f933 3c2d e02b 5a1d
00000220: bc25 731d eba8 b21c a85b c51d c1fb a51d
00000230: 1a25 611c 4687 801b c3b0 e31d ed8e 191d
00000240: 80c7 271d 9a29 091e f3a4 131d d292 731d
00000250: d4e8 6a1d 26fc 651d d60d 891c 6458 ce1b
00000260: c01d 211b 2d51 041c a38c 361b c0cc 1316
00000270: 1a98 4295 e22a b796 7d1b 2e97 9ce0 391a
00000280: 077c 401d 11bc 901d 0c56 1e37 9373 cb35
00000290: 5f82 4037 7e32 a534 56fa 1035 db9c 3537
000002a0: acf5 4837 2518 c635 4aa0 2b37 261a e735
000002b0: 1e26 0537 5690 6936 2afb 1d37 19df 1b37
000002c0: bf47 1f37 94a3 03b3 f446 f4af dcce 2533
000002d0: 3d52 4734 0d81 65b4 44fb 2a36 4ac6 1434
000002e0: e427 6333 bacb 3037 cf3c 0135 5355 d4ae
000002f0: fd90 cf2d 364e 0c3a 787c b039 38c8 1f3a
00000300: 641d 00b7 113b 37b7 f4fa 1f3a 7298 273a
00000310: eab5 e0b7 b007 163a a098 a4b7 cc6c a239
00000320: 6c29 113a 00e5 0c3a 0eab 063a 0c29 013a
00000330: 4957 5d37 648b b538 4020 c2b7 44f1 08b8
00000340: 6b6d 40b2 4a28 e139 aa67 0b37 e4c6 d731
00000350: a7ad 23b8 d8b6 5438 3b78 a336 5dae 9638
00000360: 41f6 f53a c0cb 1f3b 3c4f 083b da6d b9b7
00000370: 9bbc e3b7 9964 f43a b69f 0a3b 3f0d 8ab7
00000380: 437a fd3a cda6 b639 4fcd e33a f358 653a
00000390: 6c41 f83a ad12 f63a 7cb3 f53a 23cf 9739
000003a0: 64e1 473a cae7 2e39 f6a1 323a 798d 003a
000003b0: fa92 e039 aca5 9ab7 cf87 2c38 d717 8fb9
000003c0: 8d33 58b9 5b77 edb9 9a3e 2e39 88bc 3b39
000003d0: 2005 3c39 4360 4a39 8414 3634 53b9 2136
000003e0: 490f 3e39 a265 4439 c025 4737 2232 4e39
000003f0: 5665 3138 a5c6 3d39 1089 0ab5 028b 4139

exp_avg_sq f4 [40, 27]
4.612458e-14 4.5892054e-15 1.9199372e-14 1.7751788e-14 1.0920332e-14 7.4291515e-15 5.9951645e-15 6.735503e-14
3.2858366e-14 8.468344e-15 6.307916e-14 7.0050196e-15 4.6278333e-14 4.824299e-14 5.113183e-14 5.2577304e-16
3.8375655e-17 4.6460138e-18 3.6685832e-18 6.372449e-19 1.3735941e-18 3.1549135e-17 3.7154548e-17 1.7922855e-17
3.599105e-15 2.0917072e-13 1.3899043e-15 4.6292615e-07 3.4004827e-06 9.5811004e-08 1.3984047e-06 1.7571174e-06
4.2158582e-08 2.9760352e-08 3.69617e-06 1.5533139e-07 2.0389446e-06 3.7102686e-06 2.2512288e-07 4.4991623e-07
3.9506364e-07 3.933514e-07 2.2915863e-06 8.506388e-07 2.6855162e-07 1.5837726e-07 1.01309354e-07 9.9039056e-08
5.294153e-08 8.3486476e-08 3.9589952e-07 2.8940125e-10 6.17522e-08 1.4373835e-07 7.056339e-18 1.6165922e-17
1.0740765e-17 2.7515443e-20 4.4258354e-20 1.00342244e-17 1.2283972e-17 5.4778325e-19 7.0895715e-18 2.2803069e-20
1.3200291e-17 1.5616453e-18 7.961497e-18 8.792811e-18 9.526683e-18 1.1829483e-23 1.3691986e-20 2.799273e-20
3.2346792e-18 1.4824213e-17 2.6271145e-21 6.834989e-22 2.6261844e-23 3.3655395e-25 3.3553728e-25 8.07322e-26
1.8809672e-24 4.614801e-21 1.18619525e-20 6.969389e-21 1.9583636e-23 3.1049155e-23 6.728537e-21 7.948321e-21
3.686632e-22 4.5060458e-21 1.8208511e-23 8.376965e-21 1.0626667e-21 5.2894028e-21 5.8084114e-21 6.267439e-21
2.8012589e-24 6.651515e-24 8.09846e-23 6.8665846e-21 1.8625597e-21 8.59464e-24 2.0544803e-23 3.2576605e-25
1.3334081e-25 1.6892884e-23 2.9644695e-24 8.49718e-25 2.3552585e-13 9.967139e-10 1.0887135e-13 5.0772823e-11
4.4462142e-11 8.587027e-13 2.3498177e-11 2.8510452e-10 3.4413292e-10 5.6803375e-11 9.876433e-13 2.0510234e-11
2.6055904e-13 3.547248e-13 3.6276556e-13 2.7170137e-23 1.5228589e-23 1.8172326e-25 7.176014e-29 2.1285778e-30
3.4203672e-27 1.5169333e-26 5.3332686e-26 7.9808693e-10 5.9644996e-09 7.610365e-11 1.0393409e-08 1.06379595e-20
2.782661e-20 1.6088375e-20 4.286358e-23 6.920583e-23 1.5702883e-20 1.836584e-20 8.302141e-22 1.03735396e-20
3.6572923e-23 1.9294388e-20 2.4061125e-21 1.2227724e-20 1.3415329e-20 1.4465659e-20 4.5046715e-24 2.816005e-24
1.9253192e-22 1.9418879e-20 1.8742487e-21 6.976607e-24 1.0515999e-23 5.7904284e-25 8.2349375e-26 2.2481898e-23
1.6995813e-25 7.774312e-25 7.4037544e-06 6.479773e-06 6.8006675e-06 5.047158e-06 5.105433e-06 3.9829333e-06
5.5849196e-06 1.1866182e-05 5.1793404e-06 5.9556232e-06 1.9422228e-05 2.6909358e-06 7.811429e-06 8.145564e-06
8.5784395e-06 6.018212e-06 1.3151171e-07 8.548098e-07 2.7647957e-07 2.3852058e-07 4.0780674e-07 1.354602e-06
2.0980658e-06 1.5435373e-05 6.2794743e-06 8.0717735e-09 1.4434768e-06 4.9613096e-05 6.1471925e-05 4.7744277e-05
1.11442105e-07 2.3667656e-07 2.8382414e-05 3.5735062e-05 1.9813301e-06 3.6646827e-05 9.421652e-06 4.505176e-05
8.905206e-06 5.6317833e-05 5.720636e-05 5.8961712e-05 3.823594e-07 2.2232643e-06 6.334598e-05 6.7025767e-06
3.3148358e-12 4.788615e-06 4.054715e-09 4.403849e-11 6.9957514e-06 2.0658977e-07 1.6376428e-06 2.439454e-07
0.00012927788 0.00010145902 0.00014737414 2.5390412e-07 4.3411507e-07 0.000101877275 0.0001281872 4.5712122e-06
0.00012793986 8.373749e-06 0.0001288034 1.39677595e-05 0.00014165454 0.00014861902 0.00015481924 1.7652443e-05
2.6073381e-05 1.4341314e-05 2.843818e-05 2.3800909e-05 8.691145e-06 7.515593e-06 9.2051505e-07 1.7348984e-05
1.09315715e-05 6.8405075e-06 1.8760607e-05 2.3526988e-07 3.2610973e-07 3.0688213e-07 7.305366e-11 1.6337123e-10
2.7756997e-07 2.958581e-07 2.5772988e-09 2.9505594e-07 1.5190496e-08 2.7722012e-07 6.2204317e-09 2.549641e-07
00000000: 05ba 4f29 f357 a527 bdee ac28 d6e4 9f28
00000010: 24b9 4428 ead4 0528 a2ff d727 88ab 9729
00000020: 1efb 1329 588d 1828 a90a 8e29 e761 fc27
00000030: 496b 5029 6144 5929 fd46 6629 348b 1726
00000040: faf9 3024 5c68 ab22 ca58 8722 dd14 3c21
00000050: ebb4 ca21 a57e 1124 5958 2b24 254f a523
00000060: e2ab 8127 5b81 6b2a 6b4e c826 1688 f834
00000070: d933 6436 a8c0 cd33 d2b0 bb35 18d6 eb35
00000080: da11 3533 b5a3 ff32 b80b 7836 2bc9 2634
00000090: cdd4 0836 eefd 7836 4eb9 7134 048c f134
000000a0: 2219 d434 ce2d d334 27c9 1936 7457 6435
000000b0: 742d 9034 690e 2a34 688f d933 4caf d433
000000c0: d461 6333 2d49 b333 048c d434 9b19 9f2f
000000d0: a29c 8433 7f56 1a34 9e2a 0223 b41a 9523
000000e0: d421 4623 21f0 011f 1101 511f 4919 3923
000000f0: 6b99 6223 55ad 2121 8ec7 0223 705e d71e
00000100: 9d80 7323 4b75 e621 1bdd 1223 e032 2223
00000110: 7dbc 2f23 c3d0 6419 3151 811e 2231 041f
00000120: 5dad 6e22 afba 8823 c97f 461d 2a93 4e1c
00000130: 2dfd fd19 1a51 d016 01b0 cf16 1ce2 c715
00000140: 6588 1118 9e57 ae1d e210 601e e6a5 031e
00000150: bc66 bd19 fe24 161a 6b32 fe1d b923 161e
00000160: ded7 de1b cd3b aa1d 171a b019 843c 1e1e
00000170: ed95 a01c f7d3 c71d 826f db1d f3c6 ec1d
00000180: a6bc 5818 b5a8 0019 0acf c31a c4b4 011e
00000190: 25bb 0c1d 993e 2619 78b2 c619 b1a3 c916
000001a0: 6411 2516 c160 a319 5e5d 6518 cc7c 8317
000001b0: da96 842a c1fc 8830 0f28 f529 1e4d 5f2e
000001c0: ec8b 432e 0db4 712b 31b1 ce2d e5bc 9c2f
000001d0: 6730 bd2f ead2 792e 9aff 8a2b f168 b42d
000001e0: 84ae 922a 3bb1 c72a 0738 cc2a 0063 031a
000001f0: 2948 9319 66f6 6016 feee b510 d5b0 2c0e
00000200: a57e 8713 d43a 9614 9b0b 8415 6060 5b30
00000210: 4bf0 cc31 8c5a a72e b28e 3232 04f2 481e
00000220: 4f68 031f 4ef3 971e 8b46 4f1a 5554 a71a
00000230: 3e4f 941e e075 ad1e b4ea 7a1c 5cf3 431e
00000240: 16db 301a f83a b61e fccc 351d a5f9 661e
00000250: 8d68 7d1e d19f 881e 1b44 ae18 bae0 5918
00000260: bec1 681b f867 b71e 3e9d 0d1d 7cf2 0619
00000270: b468 4b19 8034 3317 1ee3 cb15 7c6e d919
00000280: e265 5216 729a 7017 c46d f836 d46c d936
00000290: 4a31 e436 c25a a936 564f ab36 23a5 8536
000002a0: 1866 bb36 dd14 4737 32ca ad36 6ad6 c736
000002b0: ebec a237 ed95 3436 d50d 0337 eea8 0837
000002c0: 1eec 0f37 0cf0 c936 aa35 0d34 1576 6535
000002d0: 106f 9434 050e 8034 88f0 da34 c5cf b535
000002e0: 7fcc 0c36 367b 8137 46b4 d236 09ac 0a32
000002f0: 7cbd c135 a817 5038 7dea 8038 0741 4838
00000300: f251 ef33 2821 7e34 c516 ee37 3be2 1538
00000310: fef6 0436 3bb5 1938 b011 1e37 f5f5 3c38
00000320: 9267 1537 d036 6c38 ddf0 6f38 a84d 7738
00000330: 1347 cd34 6433 1536 9dd8 8438 b2e6 e036
00000340: c642 692c e4ad a036 a651 8b31 efae 412e
00000350: 0cbd ea36 f7d2 5d34 facc db35 9af7 8234
00000360: c48e 0739 66c6 d438 7288 1a39 5150 8834
00000370: 5210 e934 f2a6 d538 fd69 0639 6a62 9936
00000380: 9827 0639 fa7c 0c37 660f 0739 1257 6a37
00000390: 1a89 1439 9dd6 1b39 f956 2239 5514 9437
000003a0: 29b8 da37 7a9b 7037 878e ee37 10a8 c737
000003b0: 2fd0 1137 742e fc36 5019 7735 a988 9137
000003c0: be66 3737 8387 e536 1960 9d37 7e9e 7c34
000003d0: 2e14 af34 8fc1 a434 8ea5 a02e eaa0 332f
000003e0: ed04 9534 6dd6 9e34 521c 3131 2e68 9e34
000003f0: 417c 8232 d8d4 9434 7fbb d531 00e2 8834

exp_avg f4 [40, 10]
2.9194546e-17 -6.279711e-18 3.320416e-19 3.16392e-18 -1.2351092e-16 2.4319983e-18 -2.7142779e-17 4.810445e-20
-1.4162435e-18 1.3870729e-25 -1.2929842e-09 7.779794e-11 -9.647365e-11 -5.4841437e-10 -2.6660053e-11 -9.125784e-10
-5.560938e-10 -1.8620272e-11 1.9877065e-10 2.1000428e-13 1.298002e-22 -5.6138884e-24 1.2760353e-22 1.2397165e-22
-9.515867e-25 1.2730861e-22 -8.445519e-25 -4.3395367e-25 2.2838512e-23 -8.213676e-25 1.2651512e-21 -8.911017e-22
3.8187116e-24 5.6810617e-22 -2.7042369e-24 4.7094935e-22 -5.585517e-24 4.9319827e-26 1.5445694e-24 -8.745533e-27
4.8850735e-13 6.034293e-14 -2.3811892e-14 -6.7876416e-14 7.953414e-13 -1.539178e-13 -5.2297524e-12 1.0225217e-14
4.1805613e-16 2.9605337e-20 -3.055684e-22 2.1870637e-22 -3.0149578e-25 -1.5148601e-22 1.8697187e-25 -1.01544946e-22
5.871695e-25 1.5716787e-26 -1.3543215e-25 4.8419447e-27 -1.3809853e-05 2.0848749e-10 -2.6297876e-06 -7.868349e-06
1.6938888e-08 -1.31744255e-05 1.1507461e-06 -2.4787175e-07 3.118152e-07 -1.5177032e-09 -0.0005685444 -4.4687906e-11
-5.1951793e-05 -0.00050098833 3.2267722e-05 -0.00056728174 2.114846e-06 3.86755e-06 0.00012601401 -1.30217895e-05
-0.0020630094 4.7646045e-12 -0.0006683183 -0.0017785095 -3.7272555e-05 -0.0020632236 2.1202143e-06 -3.9969033e-05
-0.00038821934 5.755372e-05 -0.0002122447 7.720278e-14 -8.69048e-05 -0.00018426191 2.0558937e-06 -0.00020993741
6.764718e-10 -7.922091e-06 -4.7417736e-05 1.3783477e-05 1.2332595e-15 -2.3080893e-16 1.27497236e-17 1.201014e-16
-4.3997877e-15 9.3689547e-17 -2.0564071e-15 3.617778e-18 -4.8992945e-17 7.022574e-24 1.1493466e-11 -8.138039e-12
1.2701467e-16 4.2564546e-12 4.9547985e-13 -1.8513756e-12 -7.9820433e-13 1.7332075e-13 -1.0747449e-12 5.2424153e-17
1.5883887e-22 -2.6986833e-24 1.6106644e-22 1.4573838e-22 -1.2524282e-24 1.5736004e-22 -6.3958614e-25 -7.075045e-25
2.884053e-23 -1.0685592e-24 1.5181325e-19 -1.2202278e-19 1.2219989e-21 5.5585283e-20 -1.3583506e-21 8.0511195e-20
-1.6171723e-21 3.8790073e-22 2.646257e-21 4.9634235e-23 5.295487e-09 -2.3658155e-11 1.9545727e-09 6.092592e-09
-6.18949e-10 5.5760734e-09 3.642907e-10 6.114729e-12 -9.553979e-10 -2.5031552e-14 -1.4814309e-21 1.0781763e-21
-2.7659628e-23 -7.577195e-22 5.177079e-24 -5.5519475e-22 1.727377e-24 3.6430953e-24 8.475004e-24 5.175446e-25
-3.404694e-09 2.2089062e-09 -3.157518e-12 -1.7897427e-10 2.9666614e-14 4.950084e-12 3.6675465e-09 -2.649582e-13
-9.983636e-13 -1.1104589e-15 -2.838075e-06 6.2948625e-11 -4.8464324e-07 -2.9513274e-06 -1.5126325e-08 -3.101223e-06
8.939324e-09 -2.0692257e-08 1.0760548e-06 -1.7221925e-07 0.00031551786 1.5142357e-10 6.9756716e-05 0.00028608082
-5.0409497e-05 0.0003165853 2.0851054e-10 -2.403497e-06 -0.00012243523 4.0094415e-07 -2.225273e-11 -2.6588617e-20
-8.274421e-12 -1.8477645e-11 4.0434103e-13 -2.197701e-11 -5.5150345e-17 -7.192909e-13 -6.3181587e-12 1.6298473e-12
-5.2703333e-17 1.129987e-17 -6.0652827e-19 -5.7733224e-18 2.241978e-16 -4.428051e-18 4.7808048e-17 -8.309404e-20
2.5683104e-18 -2.8940706e-25 -1.7489371e-16 7.5068765e-17 -1.794842e-18 -2.698635e-17 6.888199e-17 -1.4897399e-17
1.5791326e-15 -7.2057526e-20 5.287726e-19 5.2614964e-26 -6.36796e-25 3.3286427e-25 -2.1818317e-25 -3.6413324e-25
-2.169111e-26 -3.9852067e-25 1.5108931e-25 2.1500681e-27 -3.538613e-26 1.5655991e-27 -1.9438113e-22 1.3907297e-22
-2.3549505e-25 -8.646473e-23 5.047961e-25 -7.450601e-23 1.0049351e-24 -3.1159025e-27 -8.9775563e-26 5.242503e-28
-1.298602e-13 5.37931e-14 -6.237945e-18 -2.2665902e-14 -2.1177242e-15 -8.733159e-15 2.6362177e-15 2.585192e-17
-2.5504971e-17 2.1929382e-23 3.3183746e-23 -2.404251e-23 1.1545567e-26 1.6495031e-23 -2.845755e-26 1.12405705e-23
00000000: d6a2 0624 32ae e7a2 b500 c420 c274 6922
00000010: fd65 0ea5 2673 3322 1359 faa3 b62a 631f
00000020: 2b00 d1a1 18b6 2b16 d6b4 b1b0 5914 ab2e
00000030: d625 d4ae 3bbf 16b0 1a81 eaad ffd8 7ab0
00000040: 9fdb 18b0 20c9 a3ad f78c 5a2f 9d71 6c2a
00000050: 37eb 1c1b 422d d998 6143 1a1b 5edf 151b
00000060: 3c40 9397 1be8 191b 26b0 8297 5a4d 0697
00000070: 6be1 dc19 7233 7e97 2b2f bf1c d4a8 869c
00000080: b0ba 9318 16b3 2b1c ee3a 5198 f155 0e1c
00000090: 4814 d898 4f38 7415 b302 ef17 1f39 2d94
000000a0: aa80 092b 55e1 8729 7c7a d6a8 17d8 98a9
000000b0: 63de 5f2b c94b 2daa 6c01 b8ac 7e33 3828
000000c0: 32fe f025 a8ce 0b1f 6bb4 b89b 2c33 841b
000000d0: ea9d ba96 a622 379b c075 6716 4785 f59a
000000e0: 5cb8 3517 caa6 9b14 29a8 2796 27cf bf13
000000f0: deb0 67b7 033c 652f 687b 30b6 4d02 04b7
00000100: 0281 9132 ba07 5db7 5673 9a35 3c13 85b4
00000110: 8e67 a734 6f97 d0b0 5e0a 15ba 1c8a 44ae
00000120: d0e6 59b8 c254 03ba 3457 0738 a2b5 14ba
00000130: c7ec 0d36 00c6 8136 a122 0439 2978 5ab7
00000140: 8e33 07bb bea3 a72c 1532 2fba e01c e9ba
00000150: 1a55 1cb8 2637 07bb 0149 0e36 6ca4 27b8
00000160: eb89 cbb9 d665 7138 018e 5eb9 5fd8 ad29
00000170: a940 b6b8 6e36 41b9 fcf7 0936 a522 5cb9
00000180: 79f2 3930 1fe9 04b7 68e2 46b8 953f 6737
00000190: 3fbb b126 630d 85a5 de30 6b23 ad77 0a25
000001a0: e184 9ea7 8c08 d824 042e 14a7 f278 8522
000001b0: a9f0 61a4 1ad6 0719 f831 4a2d 782a 0fad
000001c0: 1d70 1225 bcc2 952c 1677 0b2b 6b47 02ac
000001d0: afac 60ab 4e24 432a c441 97ab 84c3 7124
000001e0: 4006 401b eecc 5098 a6b7 421b d82f 301b
000001f0: cbcd c197 933c 3e1b 3cf1 4597 48f6 5a97
00000200: d976 0b1a fe59 a597 bd3a 3320 1f0f 10a0
00000210: cba9 b81c 3e3f 831f a544 cd9c 081a be1f
00000220: 5361 f49c bb78 ea1b 0ef2 471d 3504 701a
00000230: 99f3 b531 6e19 d0ad 3551 0631 0257 d131
00000240: aa22 2ab0 a997 bf31 5c45 c82f 9524 d72c
00000250: 134f 83b0 d476 e1a8 15de df9c eded a21c
00000260: f6c0 059a b501 659c 4f47 c818 1dcc 279c
00000270: 3aa6 0518 78ef 8c18 30ee 2319 1c2c 2017
00000280: 03f8 69b1 7dcb 1731 ca30 5eac c7c8 44af
00000290: 479b 0529 652a ae2c 2908 7c31 8028 95aa
000002a0: d781 8cab b408 a0a6 c275 3eb6 ed6c 8a2e
000002b0: 6e18 02b5 6b0f 46b6 24ef 81b2 9b1e 50b6
000002c0: 9093 1932 c1be b1b2 f66c 9035 44eb 38b4
000002d0: 176c a539 f27d 262f 5a4a 9238 1efd 9539
000002e0: c96e 53b8 5cfb a539 8042 652f c44b 21b6
000002f0: f561 00b9 5841 d734 b1bc c3ad 551f fb9e
00000300: ae90 11ad f587 a2ad af9f e32a d44f c1ad
00000310: 0956 7ea4 5f76 4aab ea4c deac 7061 e52b
00000320: 1d0d 73a4 2172 5023 fb03 33a1 7dff d4a2
00000330: c13d 8125 c25d a3a2 c879 5c24 4433 c49f
00000340: 0382 3d22 6122 b396 83a3 49a5 c718 ad24
00000350: 9b6f 04a2 b8e7 f8a3 c0d4 9e24 7d67 89a3
00000360: b693 e326 1a24 aa9f ee10 1c21 b244 8215
00000370: 2d14 4597 7308 ce16 810c 8796 3763 e196
00000380: 7fd1 d694 1fac f696 1d0a 3b16 9058 2a13
00000390: 4039 2f95 3f14 f812 0cfe 6a9b 0021 281b
000003a0: aec3 9196 130f d19a 113a 1c17 fd24 b49a
000003b0: 9581 9b17 03de 7693 0646 de95 3d24 2612
000003c0: a735 12aa 3943 7229 ba23 e6a2 0328 cca8
000003d0: 1e99 18a7 9652 1da8 a2f5 3d27 1f71 ee23
000003e0: e93d eba3 8516 d419 7d77 201a 5f86 e899
000003f0: fbae 6414 b887 9f19 3bea 0c95 9c6c 5919

exp_avg_sq f4 [40, 10]
1.788469e-13 1.1739373e-17 2.7044334e-17 3.8945567e-15 1.9929016e-17 4.1588606e-14 2.5305688e-17 3.0492703e-19
6.9522163e-19 1.0793619e-30 5.629391e-06 1.1339461e-06 1.9394987e-11 4.9323233e-08 2.3479138e-10 1.3459673e-07
4.5073903e-06 3.2774908e-11 8.0445844e-10 2.0681828e-19 3.9100203e-23 1.1325179e-29 2.948682e-22 7.98067e-23
2.8621073e-27 3.065029e-22 9.215809e-28 4.9289077e-26 1.3264272e-24 8.891676e-31 8.2247036e-23 4.605225e-29
6.7715574e-23 8.4458705e-23 2.6115177e-27 9.626082e-23 2.4569218e-28 1.6990646e-26 9.424977e-25 1.5428674e-31
3.4887773e-11 3.3641696e-13 4.521054e-15 5.8955844e-14 1.3453857e-10 8.9997725e-14 2.2976026e-09 1.1370208e-14
1.2358331e-14 2.2074187e-25 3.137223e-26 4.2303846e-31 1.3024825e-24 1.3242408e-25 6.216787e-29 9.694657e-25
5.0358238e-29 2.8596583e-28 5.637364e-28 6.777096e-33 3.2622673e-05 2.2695103e-06 1.4468932e-07 2.371762e-06
7.0660484e-08 1.2261876e-05 7.779383e-06 1.0860616e-08 4.9847053e-08 8.161556e-13 7.54056e-05 1.1979621e-09
1.172973e-05 4.9583472e-05 1.5066416e-08 6.6779976e-05 1.0873647e-06 9.773818e-07 3.9651846e-07 1.2794368e-09
0.0002126459 8.255489e-10 2.238627e-05 0.00013163693 4.332269e-08 0.00019085272 1.8486796e-07 1.334264e-07
8.343938e-06 3.7617227e-08 3.88946e-07 9.378856e-19 3.86697e-08 2.3201504e-07 1.382637e-10 3.443962e-07
3.2799878e-13 3.8027304e-10 1.3609991e-08 1.7348962e-09 2.2470659e-11 2.403944e-14 1.8609318e-15 3.5274027e-13
1.6963532e-14 4.2230663e-12 8.294502e-14 4.3915548e-16 5.247554e-16 3.7798908e-28 4.77313e-08 1.02159925e-08
3.8718326e-13 3.9602632e-09 7.7331143e-13 2.3954971e-09 5.858696e-11 4.424343e-15 4.503874e-12 1.3097084e-23
2.724298e-23 4.4544484e-30 3.5302643e-23 8.0657486e-24 9.945785e-28 2.0804528e-23 1.4993383e-26 1.3800767e-26
1.149494e-25 1.0934147e-30 2.5401827e-19 2.2714246e-22 1.7663111e-19 1.6637602e-19 8.241179e-24 2.5047047e-19
1.660284e-23 6.6669324e-23 2.5627625e-21 6.110187e-27 2.9454638e-06 2.3378696e-08 1.2455557e-10 4.7917115e-09
1.6191896e-05 6.0642305e-09 3.5018395e-06 4.847212e-11 9.958067e-10 1.1263309e-24 3.1763402e-21 1.9690426e-28
3.1998258e-21 8.594968e-22 1.0765792e-25 1.1950691e-21 1.0496287e-25 1.1834028e-24 2.970204e-23 5.986053e-31
9.01664e-05 2.7984779e-05 1.7908218e-10 3.4700366e-07 7.558828e-12 1.08398615e-08 8.410998e-05 6.5442964e-15
1.8548023e-12 2.722887e-20 1.6282055e-06 2.5191294e-12 1.8228211e-09 6.488951e-08 2.9065843e-09 6.5926787e-07
1.6694063e-09 2.5372096e-08 2.7076548e-09 1.5294323e-12 8.159185e-06 6.103032e-11 9.2367355e-07 5.079291e-06
9.564748e-09 6.465278e-06 2.3922054e-12 1.0671922e-09 2.2431351e-07 1.3666033e-12 9.9267683e-20 4.925498e-30
1.6184703e-21 2.1844593e-20 3.6370195e-24 4.72671e-20 5.5271194e-25 1.3621092e-22 4.1428238e-22 9.295063e-22
3.2628975e-12 1.6300155e-16 4.790932e-16 6.7700375e-14 1.0487055e-16 7.412251e-13 2.7295806e-16 1.5903774e-18
6.8115126e-18 2.721006e-29 7.396397e-16 1.9916694e-17 1.15557705e-20 1.9753667e-18 8.669242e-19 1.0856537e-18
6.4734192e-15 2.9019643e-23 4.0601956e-22 1.8469366e-26 5.720096e-27 9.526068e-30 5.779389e-26 1.07840814e-26
7.901108e-30 5.5302404e-26 1.6298767e-28 1.8984165e-29 1.8293485e-28 1.5936999e-30 3.2388203e-24 3.316996e-29
2.7563494e-24 3.3731566e-24 1.6312968e-28 3.9178418e-24 1.0519042e-28 4.8995143e-28 4.2346016e-26 3.9689647e-30
2.646338e-13 3.0119512e-14 2.2773616e-19 7.0989658e-15 3.9596858e-16 2.2387053e-15 2.4814083e-14 8.761039e-20
1.6052558e-19 1.7246843e-28 7.146703e-27 8.865668e-31 8.957192e-27 1.3424789e-27 1.0183354e-30 3.1561657e-27
00000000: 1c5d 492a 9f8d 5823 a170 f923 f250 8c27
00000010: 0fd0 b723 664c 3b29 5e67 e923 45ff b320
00000020: 7631 4d21 f022 af0d 1ae4 bc36 1732 9835
00000030: a199 aa2d 78d7 5333 f313 812f ab85 1034
00000040: 303e 9736 4425 102e bb20 5d30 fd2a 7420
00000050: b513 3d1a b1b3 650f a53c b21b f4f5 c01a
00000060: 6fc2 6213 0745 b91b c307 9212 5411 7415
00000070: 3241 cd17 9446 900d 73dc c61a 3d83 6910
00000080: e9b9 a31a 6835 cc1a dfe7 4e13 90be e81a
00000090: d6b9 9b11 6844 a814 2ed8 9117 9046 480c
000000a0: 2470 192e cb62 bd2a 5de3 a227 bbc1 8429
000000b0: 3eed 132f 28a8 ca29 dae3 1d31 d4d3 4c28
000000c0: bea0 5e28 f2a1 8816 0759 1b15 a948 090d
000000d0: a68c c917 deee 2316 419d 9d10 7e04 9617
000000e0: bb58 7f10 9c40 b511 bba7 3212 39c1 0c0a
000000f0: 54d4 0838 e44d 1836 e65b 1b34 902a 1f36
00000100: 03be 9733 5bb8 4d37 3284 0237 7f95 3a32
00000110: 6a17 5633 35ba 652b 1323 9e38 8ba5 a430
00000120: cfca 4437 d9f7 4f38 666b 8132 3a0c 8c38
00000130: 91f1 9135 952e 8335 15e1 d434 2ed8 af30
00000140: b3f9 5e39 d7ec 6230 26ca bb37 0508 0a39
00000150: cd11 3a33 a31f 4839 1e80 4634 f843 0f34
00000160: f1fc 0b37 9490 2133 55d0 d034 5168 8a21
00000170: c915 2633 cf1f 7934 c605 182f 74e5 b834
00000180: 9ba5 b82a ac0e d12f 60d1 6932 3c71 ee30
00000190: 6da7 c52d 2d87 d828 2218 0627 3b93 c62a
000001a0: 3ecb 9828 0096 942c 8cc6 ba29 e927 fd25
000001b0: 1d40 1726 3c94 ef11 1f01 4d33 6982 2f32
000001c0: fdf6 d92a d812 8831 f6aa 592b 089e 2431
000001d0: 87d5 802e 5d67 9f27 4a77 9e2c 9e55 7d19
000001e0: 2dbd 031a a3b1 b40e 8eb6 2a1a a703 1c19
000001f0: e698 9d12 8435 c919 be7c 9414 1aad 8814
00000200: eb4c 0e16 ab6a b10d 28f2 9520 984c 891b
00000210: 7a87 5020 116c 4420 5868 1f19 07da 9320
00000220: a492 a019 5032 a11a 09a3 411d a80c f213
00000230: afaa 4536 4cd2 c832 47f3 082f 57a4 a431
00000240: d5d3 8737 895d d031 2501 6b36 c12e 552e
00000250: d5dc 8830 904a ae17 5bff 6f1d 169b 7911
00000260: a2c5 711d 2ce2 811c 2846 0516 ff97 b41c
00000270: 10f0 0116 6a1f b717 58a1 0f1a 2f42 420d
00000280: b817 bd38 dbc0 ea37 27e7 442f d24b ba34
00000290: eff9 042d 373a 3a32 3464 b038 7bc8 eb27
000002a0: 2685 022c af95 001f b788 da35 9a44 312c
000002b0: d186 fa30 6359 8b33 2cbd 4731 8bf8 3035
000002c0: 0371 e530 d4f1 d932 9111 3a31 9b3f d72b
000002d0: 6fe3 0837 0435 862e 5df2 7735 c76e aa36
000002e0: 3552 2432 51f0 d836 2456 282c 7dac 9230
000002f0: d4da 7034 1355 c02b a263 ea1f 4ccd c70e
00000300: 8993 f41c fc50 ce1e 4cb3 8c18 6b36 5f1f
00000310: 5a0e 2b17 3dab 241b 186b fa1b 8976 8c1c
00000320: 239b 652c 91ed 3b25 d716 0a26 9c72 9829
00000330: a5d0 f124 e6a2 502b 8059 9d25 c2b2 ea21
00000340: eb4c fb22 adf8 0910 c72f 5526 f7b2 b723
00000350: 4748 5a1e 9fc1 1122 f1de 7f21 d636 a021
00000360: c13a e927 9454 0c1a 7c6c f51b 68e9 b614
00000370: aa98 e213 2c36 410f 3b17 8f15 ca99 5514
00000380: e640 200f 10ec 8815 869c 4e11 b685 c00f
00000390: c1e5 6711 da4b 010e 7297 7a18 1231 2810
000003a0: 2043 5518 207e 8218 9cca 4e11 6d90 9718
000003b0: 3e58 0511 9545 1b12 f4af 5115 1600 a10e
000003c0: c0f9 942a 6fa5 0729 846e 8620 67c4 ff27
000003d0: a642 e425 d350 2127 6181 df28 3bdd ce1f
000003e0: e183 3d20 35a1 5a11 178e 0d14 8bda 8f0d
000003f0: 5c6a 3114 6ab9 d412 ff3b a50d a50e 7a13

exp_avg f4 [40]
-8.942446e-16 1.2484777e-09 4.3587087e-22 4.0820866e-20 -1.6142248e-12 8.386652e-21 1.37378875e-05 0.00057014043
0.0020758256 0.00021305638 -3.35158e-14 -8.135104e-12 -2.0975873e-22 -1.9849368e-19 -8.453731e-09 1.9518756e-21
3.9016608e-09 2.881814e-06 -0.00032743393 2.2351388e-11 1.6290413e-15 4.98256e-15 -3.096012e-23 -6.97053e-21
1.1015798e-13 -1.239741e-21 -3.9059814e-12 0.0001368661 -0.00071658357 -9.490223e-14 -0.0011251885 -2.7604696e-10
-0.012596903 -0.005493577 0.0021437407 -0.0008370887 1.6421684e-08 -8.716131e-06 -1.3558961e-06 0.0004260427
00000000: cddf 80a6 e796 ab30 e0bb 031c 66c5 401f
00000010: 942e e3ab 5c6b 1e1e c77b 6637 7a75 153a
00000020: 930a 083b e367 5f39 16f1 16a9 401d 0fad
00000030: 2f95 7d9b 0957 6aa0 e73b 11b2 c47a 131d
00000040: 5f0f 8631 3065 4136 70ab abb9 da9a c42d
00000050: 04c5 ea26 0184 b327 c6b6 159a 6aab 039e
00000060: c10d f829 2858 bb9c f46d 89ac b783 0f39
00000070: 1cd9 3bba 69b3 d5a9 107b 93ba 28c2 97af
00000080: 3e63 4ebc 7703 b4bb 007e 0c3b 1270 5bba
00000090: aa0f 8d32 7f3b 12b7 3cfc b5b5 7c5e df39

exp_avg_sq f4 [40]
2.7669468e-13 6.6237794e-06 1.9939452e-17 1.29998025e-20 7.621189e-10 2.9885347e-20 3.792487e-05 7.6871074e-05
0.00021800735 3.9411825e-07 2.9553533e-11 5.092717e-08 1.2794156e-23 3.9984861e-19 0.00051658985 1.5896303e-21
0.00011160178 1.7024282e-06 8.440921e-06 1.0320586e-19 4.9776407e-12 6.18178e-14 3.2797333e-20 7.3999697e-22
3.411609e-13 6.736199e-22 1.0188254e-10 1.1395612e-05 0.00010455629 1.1309315e-14 0.00028141215 6.1731926e-06
0.00370082 0.0025568048 0.00013660602 0.0027357358 1.851963e-06 4.665873e-06 6.9312946e-06 1.7596288e-06
00000000: e8c3 9b2a d541 de36 b3e8 b723 308f 751e
00000010: 5a7d 5130 2b21 0d1f 8511 1f38 d835 a138
00000020: e798 6439 3397 d334 52fa 012e 04bb 5a33
00000030: 9879 7719 6a07 ec20 c26b 073a d837 f01c
00000040: c00b ea38 fd7e e435 7b9d 0d37 1db0 f31f
00000050: 9a22 af2c 8933 8b29 8be1 1a1f 7ea6 5f1c
00000060: 780e c02a d196 4b1c c50a e02e c82f 3f37
00000070: 3b45 db38 03bb 4b28 808a 9339 5223 cf36
00000080: 7589 723b 1190 273b e63d 0f39 084a 333b
00000090: f790 f835 8b8f 9c36 5e93 e836 632c ec35

exp_avg f4 [40]
-8.942446e-16 1.2484785e-09 4.3587046e-22 4.0820866e-20 -1.6142229e-12 8.386652e-21 1.3737887e-05 0.0005701402
0.0020758263 0.00021305645 -3.3515766e-14 -8.1350985e-12 -2.0975868e-22 -1.9849376e-19 -8.453731e-09 1.9518756e-21
3.901658e-09 2.8818138e-06 -0.00032743378 2.235138e-11 1.6290404e-15 4.982559e-15 -3.096012e-23 -6.97053e-21
1.1015798e-13 -1.239741e-21 -3.9059814e-12 0.0001368661 -0.0007165832 -9.490223e-14 -0.001125189 -2.760469e-10
-0.012596901 -0.005493574 0.0021437416 -0.0008370887 1.6421701e-08 -8.716131e-06 -1.355892e-06 0.00042604277
00000000: cddf 80a6 ef96 ab30 d8bb 031c 66c5 401f
00000010: 822e e3ab 5c6b 1e1e c67b 6637 7675 153a
00000020: 960a 083b e867 5f39 0cf1 16a9 3a1d 0fad
00000030: 2b95 7d9b 0f57 6aa0 e73b 11b2 c47a 131d
00000040: 590f 8631 2f65 4136 6bab abb9 d59a c42d
00000050: fcc4 ea26 ff83 b327 c6b6 159a 6aab 039e
00000060: c10d f829 2858 bb9c f46d 89ac b783 0f39
00000070: 16d9 3bba 69b3 d5a9 147b 93ba 26c2 97af
00000080: 3b63 4ebc 7003 b4bb 047e 0c3b 1270 5bba
00000090: b40f 8d32 7f3b 12b7 18fc b5b5 7e5e df39

exp_avg_sq f4 [40]
2.7669468e-13 6.6237803e-06 1.9939452e-17 1.29998025e-20 7.621181e-10 2.9885347e-20 3.792487e-05 7.6871074e-05
0.00021800732 3.9411827e-07 2.9553533e-11 5.0927156e-08 1.2794156e-23 3.9984861e-19 0.00051658996 1.5896303e-21
0.00011160177 1.7024281e-06 8.44092e-06 1.0320587e-19 4.9776407e-12 6.1817786e-14 3.2797333e-20 7.3999697e-22
3.4116088e-13 6.736199e-22 1.0188254e-10 1.1395612e-05 0.00010455629 1.1309318e-14 0.00028141218 6.173192e-06
0.00370082 0.002556805 0.00013660602 0.0027357356 1.851963e-06 4.665874e-06 6.9312955e-06 1.7596288e-06
00000000: e8c3 9b2a d741 de36 b3e8 b723 308f 751e
00000010: 4b7d 5130 2b21 0d1f 8511 1f38 d835 a138
00000020: e598 6439 3497 d334 52fa 012e 00bb 5a33
00000030: 9879 7719 6a07 ec20 c46b 073a d837 f01c
00000040: be0b ea38 fc7e e435 7a9d 0d37 1fb0 f31f
00000050: 9a22 af2c 8733 8b29 8be1 1a1f 7ea6 5f1c
00000060: 770e c02a d196 4b1c c50a e02e c82f 3f37
00000070: 3b45 db38 06bb 4b28 818a 9339 5123 cf36
00000080: 7589 723b 1290 273b e63d 0f39 074a 333b
00000090: f790 f835 8d8f 9c36 6093 e836 632c ec35

exp_avg f4 [1, 10]
0.04551857 -2.2320732e-09 0.010594399 0.040891018 -0.00086926384 0.045393012 -6.872617e-05 0.00019669317
-0.0019425526 0.00026992653
00000000: ae71 3a3d 0c63 19b1 2194 2d3c 577d 273d
00000010: 4fdf 63ba 06ee 393d 1521 90b8 6c3f 4e39
00000020: 409d feba ed84 8d39

exp_avg_sq f4 [1, 10]
0.056737512 0.0005010025 0.0037975668 0.027287282 2.3812723e-05 0.043773018 0.0014538604 3.2260643e-05
0.00036189103 6.235619e-07
00000000: 9865 683d b555 033a 99e0 783b 9489 df3c
00000010: 6fc1 c737 564b 333d 768f be3a 9a4f 0738
00000020: 31bc bd39 d962 2735
