ckpt/ADAM_lstm_bs{32}_lr{1.0e-02}_eps{1.0e-04}_epoch{400}/ADAM_lstm_bs{32}_lr{1.0e-02}_eps{1.0e-04}_epoch{400}.pth (torch, 27327 bytes, 15 tensors)

lstm.weight_ih_l0 f4 [40, 33]
00000000: 657f a43e 91a9 813e 3763 ed3e 6832 013f
00000010: c4c3 a6be 3551 e6be 5ccb 813e 8aad 2abe
00000020: b00c 143f 187e cfbe 1413 e63e 997a 153e
00000030: 7706 ae3e 627f e0be 129b e43e 7b9e 473f
00000040: 9ccc 043f d3cf 843f 8b6b 053f 9144 393f
00000050: 95c2 cc3e e8b9 7d3f e32e 633f 4b55 eb3e
00000060: 89fa bdbe c916 b83f 0905 b03f 7782 1d3f
00000070: ba1b b8bc 603c a03e 26c4 c0be 59af 813f
00000080: 7452 3640 c326 b4bf 7d36 93be 7709 583f
00000090: 5387 043f 8f18 6dc0 1fd0 30c0 2c62 2cc0
000000a0: 04eb cbc0 5235 efbe 5ae9 81bf 14ac 1bbf
000000b0: f797 97c0 6a37 ba3f 24a5 81c0 170d 3a3f
000000c0: 3739 173f bc37 8ebf 1845 1a40 3232 20c1
000000d0: 0bd6 183e ef79 46bf 0475 6e40 fd39 65c0
000000e0: ac01 14be a50e 0fc0 f03b 95c0 b540 7b3f
000000f0: 66c3 d73f afec 1740 e660 ca3f fe49 733f
00000100: f660 9040 507c 2140 f1cb 3bbf 9ac2 2ac0
00000110: 160a 62bf a321 92bf b0de f6bf 58b2 99bf
00000120: abe1 6bbf 537e 2ac0 ba16 86bf 29f6 ecbf
00000130: f7cc a0bf 486b d7bf 8261 7dbf 3dd1 01c0
00000140: b91d d0bf 119e bbbf 2fa1 c2bf e185 b2bf
00000150: af7d e4bf 63c9 87bf 6467 a7bf b10c dbbf
00000160: 22b4 2dbf bd14 b9bf 99e8 cdbf facd 50bf
00000170: e4c5 62bf ec98 b6bf ce29 1dbf 299a 79bf
00000180: 7153 ed3d 8686 b6bc 7efa be3e 4dd6 843e
00000190: 3bb5 d43e ad99 da3e 4555 233f 0506 0a3e
000001a0: df13 d43d c59a e23e 7b95 8b3f 373b dc3e
000001b0: 1cf7 f53e b092 de3e 0cd7 443e e5d7 a63e
000001c0: 6ba6 013f 64a3 393f 8305 863d fe45 a73e
000001d0: b7c1 0f3e 8002 ce3e 7a98 f43e 78df 243f
000001e0: a3a3 803f 0675 ab3e b99c 19bf 6e40 58bf
000001f0: 432d 0b3e f23d 7c3e a000 58be 657b 343f
00000200: 8217 c5be 545f 5a3e 8e04 613e 6091 cb3f
00000210: a58a d43d 5dd9 4d3e 8121 033c a7f3 9dbd
00000220: 20b8 74be 8938 9dbe a1d8 ef3d 538e 183f
00000230: 3c7a 7b3e 06a1 d2be a91a 863d 549d 99be
00000240: 89d5 4a3f d959 463e 265f 8b3d c1e3 a83e
00000250: f75a f13e fd55 e0bd 8b6b 05be 2fc8 98bd
00000260: 2482 e5bd c88f 6040 5492 3b40 6f8d 73be
00000270: 4c51 38bf 1e60 e53e 4344 24bf ac8a 43bf
00000280: 1543 b8bf e37f 1f3f fc15 ec3e e9c1 ed3e
00000290: c3ab 5340 97ac 9e3f 655c 03bf d384 983f
000002a0: f027 aa3f e420 47bd 4ee9 f2be 36a3 9a3f
000002b0: 6c24 9c3e a019 f53f 5eaf c93e 3190 993f
000002c0: f4e5 14bf 3c47 cd3e 86c2 3d3d c423 053f
000002d0: 6610 b73e dc30 ba3f a648 333f a3ac 7b3f
000002e0: c5ad 8e3f 0189 7b3f 17d2 143f f218 e73d
000002f0: e5d2 2abf c389 c7bf b043 72bf 9094 32bc
00000300: 9dc1 183f f0a6 1840 da7e 1a40 9b11 e83e
00000310: 1af9 b43f 0f4e be3f 0f91 733f 9db2 fc3f
00000320: ea32 b9be 1e4f a0bd c069 0ac0 7c2c 06c0
00000330: cc6b 37bf 249c c9bf d84f b1be be1d 26c0
00000340: 4189 c13e bd87 06bf fe99 4a40 e38b 85bf
00000350: 5b41 353f 49e6 f0be 069a a8be 3b4f 293e
00000360: 3271 d8bf 849a 013e 1264 ca3e cf5b 58be
00000370: 073a d6bf 35d9 17bf 731a 0e40 edd9 5e40
00000380: a4f7 6240 267e 2d40 a3cf d43f 1346 083f
00000390: 6cba f43f 7dd5 723f 5322 933c 3c0f 0bc0
000003a0: 1d42 6e3f e33f e3bf 1531 20c0 3f47 a2bf
000003b0: 83c4 3ebf 3dcc dabf 0fff c5bf f4bf 4bc0
000003c0: d108 9dbf d176 a6c0 b9af acbf 09bc 4ebf
000003d0: 9865 adbf 598e e5be 1a4b e7bf 02df 40c0
000003e0: cccf 96bf 6a0a 38c0 3354 6abe dadf dabf
000003f0: 6d92 dc3f 7550 8fbf 5276 48c0 ea3b aec0
0.32128444 0.2532468 0.46364757 0.5046754 -0.32571232 -0.4498383 0.25350463 -0.16667762
0.5783186 -0.4052589 0.4493643 0.14597549 0.33989307 -0.43847185 0.4464956 0.77976197
0.5187471 1.0375923 0.5211722 0.7237025 0.39992204 0.99111795 0.8874342 0.4596351
-0.37105206 1.4381953 1.3751537 0.615272 -0.022474159 0.31296062 -0.3764965 1.0131637
2.8487825 -1.4074329 -0.2875251 0.8438944 0.5176899 -3.704624 -2.7627027 -2.693492
-6.3724384 -0.46720368 -1.0149338 -0.60809445 -4.7373004 1.4548161 -4.051409 0.72676224
0.5907168 -1.1110759 2.4104671 -10.012255 0.14925401 -0.77529806 3.725892 -3.5816643
-0.14453763 -2.2352688 -4.6635666 0.9814561 1.6856506 2.373821 1.5810821 0.9503478
4.511836 2.5232124 -0.73358065 -2.6681275 -0.8829664 -1.1416515 -1.9286709 -1.2007551
-0.92141217 -2.6639602 -1.0475686 -1.8512622 -1.256255 -1.6829615 -0.9897691 -2.028396
-1.6259071 -1.4657613 -1.5205439 -1.3947107 -1.7850856 -1.0608333 -1.3078427 -1.7113248
-0.67852986 -1.4459454 -1.6086608 -0.81564295 -0.8858321 -1.4265418 -0.61391914 -0.97500855
0.11588181 -0.022280943 0.37300485 0.2594475 0.41544518 0.4269537 0.63801986 0.13478859
0.103553526 0.44258705 1.0904993 0.43013927 0.48040092 0.4347129 0.19222659 0.3258659
0.5064456 0.7251494 0.0654402 0.32670587 0.1403874 0.40236282 0.4777258 0.64403486
1.0049938 0.3348772 -0.60004765 -0.8447331 0.13591485 0.24633005 -0.21093988 0.70500785
-0.38494498 0.21325427 0.21974394 1.590374 0.10378007 0.20102449 0.008003593 -0.077124886
-0.23898363 -0.30707195 0.117112406 0.5959217 0.24558347 -0.41138476 0.06548054 -0.30002844
0.7923208 0.19370212 0.068052575 0.32986262 0.47139713 -0.10953901 -0.13029306 -0.07460057
-0.11206463 3.5087757 2.9308062 -0.23784421 -0.7199905 0.44799894 -0.6416666 -0.7638347
-1.4395472 0.62304515 0.46110523 0.46437004 3.3073585 1.239642 -0.5131286 1.1915535
1.3293438 -0.04861535 -0.47443622 1.2081058 0.30496538 1.9148445 0.39391607 1.1997129
-0.5816338 0.4009341 0.04632809 0.520077 0.357547 1.4546161 0.7003273 0.983103
1.114678 0.98255926 0.5813307 0.11284055 -0.6672805 -1.5588917 -0.9463453 -0.010899678
0.5967043 2.385189 2.4139924 0.45325932 1.413852 1.4867572 0.95143217 1.9742008
-0.36171657 -0.078275904 -2.1627045 -2.096465 -0.7164886 -1.5750775 -0.34631228 -2.5955653
0.3780003 -0.5255087 3.165649 -1.0433315 0.7080285 -0.47050694 -0.3293001 0.1653413
-1.6909544 0.126566 0.39529473 -0.21128772 -1.6736459 -0.59315807 2.2203643 3.4820511
3.5463648 2.7108245 1.6625866 0.53231925 1.9119391 0.9485701 0.017960703 -2.1728048
0.9306963 -1.7753872 -2.5029957 -1.2677993 -0.74518603 -1.7093579 -1.5468463 -3.183591
-1.2268316 -5.202004 -1.3491126 -0.8075567 -1.3546629 -0.44835165 -1.8069794 -3.0136113
-1.1782165 -2.8756356 -0.22883682 -1.7099564 1.7232186 -1.1196429 -3.1322217 -5.4448137

lstm.weight_hh_l0 f4 [40, 10]
00000000: a241 8ebf 6a3b 6e3d 91ed f43e a95c 27bf
00000010: 0797 29be 6765 7cbf 9b91 bfbe 95b6 3d3f
00000020: 52d5 b4bf 7437 863f 5ff1 24c0 b123 2d40
00000030: 5f6c 953e f4e3 69c0 1d74 cfbf 60ba f9be
00000040: 945a a1bf 044e 1940 0066 56c0 dc2a 983f
00000050: 38c8 1a3c 8329 23be 9631 643f fc32 073d
00000060: 272f 353f 30c4 8b3f 0f34 533e 8e1e 25bf
00000070: b417 1f40 680f aabf 0ef6 95bf 4225 a4bd
00000080: 0284 e83e 0f07 dabf 9738 86bd 5dc8 c2be
00000090: f0ef 3dbf baf9 67bd cea9 043e 2177 ad3f
000000a0: 611a 6bbf efd9 93be c140 dcbd 6ace a0bf
000000b0: c113 9dbf 1080 f5bf c1f0 36bf 6a87 84be
000000c0: 3d13 593f 84d1 733f 9400 f4be ac73 01bf
000000d0: 337f 023f a336 37bf 0b15 87bf 5675 edbf
000000e0: 728f 4bbf 8ad4 d03c de67 28bf 8b8b 693f
000000f0: 62ef 883d ff6d 7abf bba4 333e f732 113f
00000100: 7c6d af3f 7634 b8bf 34a7 1340 1650 bebe
00000110: fd79 e83f b5f4 993f 1d62 2940 723d 23bf
00000120: 0c47 d0bf 5ca9 273f ded9 663f ee2a 1e40
00000130: 8cb9 833f 7dee 01bf aeb1 a03f a0f9 a6bf
00000140: 8060 44bf e232 6940 872a 6b3e bbfd 96be
00000150: c440 29be fca2 ed3f 5018 b3be d415 04bf
00000160: 9b73 2240 6dcc dabf 2183 8340 d1ce 9ebf
00000170: 51cd d4be 2f8b 08bf 526c b6c0 3cbc 58bf
00000180: a819 ca3f e056 90c0 6bf1 d73f 4ef8 92c0
00000190: 3b84 d3bf f151 73be 6746 243f ad88 49bf
000001a0: 8da8 edbe bc07 75bf 0cae 37be 480d 2d3e
000001b0: f155 2dbf 48bd bb3f 279e 1ac0 f073 f4bf
000001c0: ba60 bcbe 32a5 f53d 16f7 453e 47ad 04bf
000001d0: 390d 7cc0 9f5c d13c 0d5d d3bf e792 b03e
000001e0: bca1 b63e ed47 413e 8df0 d03e 5ad1 87be
000001f0: 4640 0f3f e0be e23e a2c7 23be 08df d1be
00000200: 1e92 b73f 99b2 01bf dddb 56bf e8fa 02bc
00000210: b736 46be d69c 42bf e05c bebe f794 59be
00000220: 74d1 35bf a97e 72be 26d9 99be a586 233f
00000230: f06c b2be e99f 52bc 81c6 c93e f8c9 0abf
00000240: 1918 61bf 57c2 aebf d86a f4be 3573 aabd
00000250: 7a63 f13e 6ef0 803f 601b b83f 95cf d4be
00000260: e2dc f63e 9d8d 773d fb54 82bf b137 a2bf
00000270: 6007 39bf 8b5d e63d 8577 adbe a605 36bf
00000280: 603b 473f 6119 623f 3774 89be 9bb2 1e3f
00000290: b33a f13f 16c2 733f 7a70 563f a3e2 67bd
000002a0: db44 8e3f 0043 9cbf fdf6 e13f aba9 a33d
000002b0: 0585 6cbf ee12 633f ab6a 7bbe 92b3 b73f
000002c0: da75 e53e 3dfb ce3e 45ad ae3d 6d02 febf
000002d0: d48a 973f 12a2 b03f 10e1 86bf 4624 833f
000002e0: 8765 14be 20cd ff3e 4602 073f 2aa1 a03f
000002f0: 394b 323f f3fa d4bf ccab 35bf c8ff 8a3e
00000300: 2813 8abf c2d2 6a40 b10a 923f 9af4 a03f
00000310: 7073 6dbf 32e7 1740 d2ba 343f 68b4 3dc0
00000320: e8cf 19be 1659 22be 78a4 b4be b47b 303f
00000330: 06bc 843f 6471 a03f 3953 303e 4831 62be
00000340: b7ce 833f 9791 3abf bf6b fe3f 122b 48bf
00000350: 0469 82bf 04bd 623f 7441 ac3f 7866 a93f
00000360: 1e80 a43f 7849 1dbf 5d68 1c40 e512 f7bf
00000370: e609 02bf 7aa6 e4bd 487e a8be 17c8 3bbf
00000380: cb27 48bf a548 93be 299b c5be ff94 e8bc
00000390: 0194 dbbe 2ca7 c53e 072c 433f c95b 4f3e
000003a0: dfb6 5abf ad28 a13d 1039 393f 6620 1a3f
000003b0: 703a 413f 544e af3d 8a03 b53d 01af 85bf
000003c0: 60f0 823f 5531 603e b6b9 39bf 9ab8 8f3f
000003d0: 5c6d 073e 2cb0 e43e fdc6 363f 5c16 06bc
000003e0: 695f 823e 4bcb afbf 832f 733f 4bbd dcbd
000003f0: 51bf a9be 8a32 153f 7a6a ee3e c0de c23e
-1.111378 0.05816213 0.478375 -0.65375763 -0.16561519 -0.9859223 -0.37415776 0.74106723
-1.41276 1.0485673 -2.5772321 2.7053034 0.29184243 -3.6545382 -1.620731 -0.48775005
-1.2605767 2.3953867 -3.3499756 1.188808 0.00944715 -0.15933804 0.8913816 0.033007607
0.70775074 1.0919247 0.20625328 -0.6449975 2.4858217 -1.3285952 -1.1715715 -0.08014919
0.45413214 -1.7033404 -0.065537624 -0.3804349 -0.7419424 -0.056634642 0.129554 1.355198
-0.91837126 -0.28877208 -0.10754538 -1.2562993 -1.2271653 -1.9179707 -0.7146111 -0.25884563
0.8479498 0.9524157 -0.4765669 -0.50567126 0.5097534 -0.71567744 -1.0553297 -1.8551433
-0.79515755 0.025491972 -0.6578349 0.9122855 0.06686284 -0.9782409 0.17543308 0.5671839
1.3705287 -1.439101 2.3070803 -0.37170476 1.8162228 1.2027804 2.6466134 -0.63765633
-1.6271682 0.65492797 0.9017619 2.4713702 1.0291 -0.5075453 1.2554224 -1.304493
-0.7670975 3.6437306 0.22965442 -0.29490456 -0.16528612 1.8565364 -0.34979486 -0.5159581
2.538306 -1.7093636 4.109757 -1.2406865 -0.41562894 -0.5333738 -5.7007227 -0.8466222
1.578908 -4.510605 1.687055 -4.5928106 -1.6524729 -0.23761727 0.64169925 -0.78724176
-0.46417657 -0.95714927 -0.17937487 0.16899598 -0.6770926 1.4667139 -2.4159029 -1.9097881
-0.36792547 0.11994399 0.19332537 -0.518269 -3.938307 0.02555686 -1.6512772 0.34487078
0.3567027 0.18875094 0.40808526 -0.2652691 0.5595745 0.4428625 -0.15994123 -0.40990472
1.4341466 -0.50663143 -0.83929235 -0.007994391 -0.1935681 -0.7602056 -0.37180233 -0.21248232
-0.71022725 -0.2368113 -0.30048484 0.63877326 -0.34848738 -0.012855508 0.3940926 -0.5421443
-0.87927395 -1.3653058 -0.47737765 -0.08322755 0.47146207 1.0073373 1.4383354 -0.41564623
0.48215395 0.060437787 -1.0182184 -1.2673246 -0.7227688 0.11248311 -0.3388025 -0.7110237
0.77824974 0.88319975 -0.26846477 0.6199128 1.8846039 0.95218027 0.83765376 -0.056612622
1.1114763 -1.2207947 1.76535 0.07991346 -0.9239047 0.8870076 -0.2455241 1.4351676
0.44816476 0.40426055 0.08529142 -1.984449 1.1839242 1.379946 -1.0537434 1.0245445
-0.14491855 0.49961185 0.52737844 1.2549183 0.6964603 -1.6639084 -0.70965266 0.2714827
-1.0787096 3.6691136 1.1409513 1.2574646 -0.9275427 2.373486 0.70597565 -2.9641361
-0.15020716 -0.15854296 -0.3528173 0.68938756 1.036988 1.2534604 0.17219247 -0.22089112
1.0297459 -0.728784 1.9876631 -0.7819072 -1.0188298 0.88569665 1.3457475 1.3234396
1.2851598 -0.6144023 2.4438698 -1.9302641 -0.50796354 -0.111645654 -0.32908845 -0.7335219
-0.7818572 -0.2876636 -0.3859494 -0.02839136 -0.42886356 0.38604105 0.76239055 0.20249857
-0.8543529 0.078690864 0.72352695 0.60205686 0.75479794 0.08559862 0.08838566 -1.0444032
1.0229607 0.21893819 -0.72549 1.1228211 0.13225311 0.44665658 0.7139738 -0.008184042
0.25463417 -1.3733915 0.9499437 -0.10778292 -0.33153775 0.5828024 0.4656561 0.3806057

lstm.bias_ih_l0 f4 [40]
00000000: 93a9 a03e 79c8 46bc 0701 dabf da76 663f
00000010: 669e 783e aaa8 163f 30af e9be 306e a7bf
00000020: 7244 893f 44e7 f9be 2291 ae3f ce67 cd3e
00000030: 1b53 7ebe 901f 643f e538 883f 8647 443f
00000040: f153 88bf 6ce9 51bf c821 43bf a5e6 26c0
00000050: 2849 c2be 8b86 22bf 93d0 0f3f 7da4 97be
00000060: 256d 20bf 69c5 18be 0f39 bbbe 583c 653f
00000070: 2e66 e3bf 21de bdbe f252 48c0 b0c3 19bf
00000080: add3 edbf 9097 7fc0 bf20 7cc0 035b 32c0
00000090: d4e9 61c0 d666 41be 38d0 3940 ed21 91bf
0.31379375 -0.012132757 -1.7031564 0.90025103 0.24279174 0.5885111 -0.4564147 -1.3080502
1.0724013 -0.48809254 1.3638041 0.4011826 -0.2483639 0.8911066 1.0642363 0.76671636
-1.0650617 -0.819968 -0.7622342 -2.6078274 -0.3794644 -0.63486546 0.56177634 -0.29617682
-0.6266654 -0.14919056 -0.3656697 0.895452 -1.7765558 -0.37083533 -3.1300626 -0.6006422
-1.8580223 -3.9936256 -3.9394987 -2.786805 -3.5298967 -0.18886885 2.9033337 -1.1338478

lstm.bias_hh_l0 f4 [40]
00000000: dc2a 493e 8519 f9bd 14d5 01c0 17b9 8c3e
00000010: 9bde 723d 8e31 823e 2ca6 07bf 9652 75bf
00000020: 1631 a03f bcc8 a8be b140 8f3f ad01 fe3e
00000030: 9f07 f9be dbf6 203f a013 1b3f c0c4 003f
00000040: a2bb 7fbf 41e0 33bf 76a0 70bf e507 3bc0
00000050: 40ee aabe 5536 7bbf 6682 1d3f 3a0f 0dbf
00000060: aabf 49be fa7e fabe 2eeb 95be aa5b 923f
00000070: 8eac b1bf 93ac cabe 893e 59c0 a670 04bf
00000080: 45bf e9bf 31e9 81c0 1b96 5cc0 3d77 2ec0
00000090: 3a70 80c0 81b1 bcbe 7116 1c40 20c8 84bf
0.19645256 -0.121630706 -2.0286303 0.27484962 0.059294324 0.25428432 -0.52987933 -0.9582914
1.251498 -0.32965648 1.1191617 0.49610654 -0.48638627 0.6287667 0.6057682 0.50300217
-0.9989568 -0.7026406 -0.93994844 -2.9223568 -0.33384895 -0.9812978 0.615271 -0.5510136
-0.1970202 -0.48925 -0.2928099 1.1434224 -1.3880785 -0.3958479 -3.3944418 -0.5173439
-1.8261496 -4.0597157 -3.4466617 -2.7260277 -4.0136995 -0.36854175 2.4388697 -1.0373573

fc.weight f4 [1, 10]
00000000: ea48 5ec0 7286 27bf 189a 0540 30a6 fcbf
00000010: 96a2 3cc0 df60 e9bf 16f6 e6bf e5be 0cbe
00000020: 6210 ae3f 6eed 6040
-3.4732003 -0.6543952 2.0875301 -1.9738216 -2.9474235 -1.8232688 -1.804385 -0.13744695
1.359875 3.5144916

exp_avg f4 [40, 33]
00000000: a37b bcb3 5fb6 a6b3 54b1 aeb3 88fb b3b3
00000010: 32a1 ceaf 82ee 46b0 4b24 79b3 34eb 8cb1
00000020: 5efe abb3 c08e 26b1 1387 a2b3 9c12 6eb2
00000030: 826e dbb2 ac55 9cb2 6c8e 97b3 86b3 c3b2
00000040: b948 abb3 56fb bcb3 a295 6eb3 12d0 adb3
00000050: 44dd b5b3 23fb b6b3 888a 282f 9b40 bab1
00000060: 809d d0b0 5b6b 05b1 204c 1cb1 6045 7d31
00000070: bc58 1232 51fb e8b0 884a 6130 f584 1031
00000080: ddca beb1 b14f 0fbc 4894 6cbb 5564 03bc
00000090: b835 0fbc f206 b1b7 72d7 86b8 a34f f5bb
000000a0: aa4a 3dba 9e28 0ebc e03b 70b6 cae2 14bc
000000b0: b729 b3ba 19c4 a7ba a87c 44bb 0a6f d6bb
000000c0: 1497 79ba 88b7 10bc a5fd 11bc 39d7 94bb
000000d0: 40e1 06bc a59f 0cbc f421 10ba 5059 0bb6
000000e0: cbb2 98b8 725f d5b7 a07f 36b6 de66 27bb
000000f0: 691d 79bb 8dc0 5cbb 0b99 83ba a31d 4b39
00000100: 6138 113b 3e1b 7039 16d1 0bad 7843 08ac
00000110: 8f09 efac 3df9 01ad 1cd9 c3a8 8db3 01a9
00000120: 2bd4 bcac 5608 01ab ec7a b8ac a35c ffaa
00000130: a0e5 e3ac c315 aeab 8918 3dab d2ab 6bac
00000140: 5c26 04ad 63b1 80ab b463 b8ac 14f9 15ad
00000150: 772b 2dac 1183 f6ac 2241 04ad a912 662a
00000160: f3e7 11aa 3345 19a8 36d9 8828 320a c7a9
00000170: c0ec 5aaa 786d d5aa f39e 3c2b ee0b db2a
00000180: a029 2bac 7f97 1bac 9aef 90ac d3ba 03b0
00000190: 34b4 ceaf 3c3e f4af 47e4 03b0 b6b4 beab
000001a0: 8c06 96ac 9d3f ceaf d2f2 14ae 5e2a f4af
000001b0: b427 8cad 9f50 f6af 3e51 b0ae a381 e5ae
000001c0: 0240 32af b3ee d9af 9e4d b7ae e947 f5af
000001d0: fee4 0bb0 d9f7 87af b4bd f2af 3ef8 fdaf
000001e0: 34ee 8baf 3294 802b 8972 38ae fefa 03ad
000001f0: cda4 70ad 681e 0eae 04e3 862b e24d c02b
00000200: 12a7 45ac 2b5c d628 e082 882c 5c38 34af
00000210: fc46 a7b5 be30 99b5 6f09 a2b5 706e aeb5
00000220: d7f5 93b0 886b edb1 9e1d 99b5 0941 e1b3
00000230: e6d0 b0b5 7a18 67b2 d073 a9b5 f615 60b4
00000240: 2e40 a0b4 cdf6 f6b4 d5b9 8db5 7e18 15b4
00000250: 7167 b1b5 bef7 b2b5 1834 54b5 10a4 9eb5
00000260: 53a9 a2b5 661e ceb4 8af0 7f2f ae9d 88b4
00000270: f6b7 3bb3 a7f9 34b4 da4e 17b5 0043 3433
00000280: 016f a333 e919 48b2 61c7 2430 63e0 d731
00000290: b784 e4b2 84c8 52ae f139 1bae 16f5 40ae
000002a0: fd34 4fae 1eb8 bdaa 0bfd dcaa 5115 0fae
000002b0: d17c 42ac d7fc 3dae dc00 54ac a26d 33ae
000002c0: a51f 06ad fe80 2aad 2e65 54ad 5adc 38ae
000002d0: ed94 5ead 307f 3aae ce0c 59ae cc1a 0eae
000002e0: 195f 41ae 14d9 4aae aaa9 05ae da6e e7a9
000002f0: c5c1 57ac 0619 14ab b14a 482b 4637 51ac
00000300: 2248 d4aa 27bd 9ba8 5162 50a8 a9fe edaa
00000310: 4e52 09ac a570 71ad 4b10 07bb 03f1 b5b9
00000320: 5d19 e2ba 5b4e 05bb 7668 8cb6 dedf 2fb7
00000330: d489 d4ba 003f 2cb9 58bb f7ba fea9 bdb7
00000340: 88f6 01bb fbd5 aeb9 92cc 28b9 f644 37ba
00000350: 6ff6 c8ba e5e3 b1b9 bd6e faba 5cbb 0abb
00000360: f1e1 89ba 7892 eaba e9ac fcba 9132 e7b9
00000370: f4c6 b035 2196 22b7 265f 20b6 be21 b835
00000380: 9590 90b6 a126 56b8 a01e 77b9 4237 88ba
00000390: 3a45 adb9 5c7a de35 bd06 f037 e1fa 66aa
000003a0: 23dc 0bac 7e7d 26ab 0d20 b3a9 581a c4ab
000003b0: 75da efab 3e1b 1faa 2cbc a9ab 2a92 06a9
000003c0: 271c 29ac 5cc7 80a8 f6d5 2cab d4dc fcab
000003d0: 7626 01ac 23e1 15ac 5294 1dab 37d5 c7a8
000003e0: 1a9b beaa 7b53 a7a9 d62a d8aa b859 90aa
000003f0: 023b 55ac 35f7 3a29 0e37 f3a8 eb49 db25
-8.7769216e-08 -7.7631505e-08 -8.134762e-08 -8.38109e-08 -3.7585718e-10 -7.237092e-10 -5.800784e-08 -4.1012758e-09
-8.009077e-08 -2.4237323e-09 -7.568283e-08 -1.3857655e-08 -2.5545209e-08 -1.819975e-08 -7.057392e-08 -2.2782626e-08
-7.976036e-08 -8.80015e-08 -5.5549783e-08 -8.093788e-08 -8.468717e-08 -8.520717e-08 1.5328727e-10 -5.4206573e-09
-1.5178756e-09 -1.9415072e-09 -2.274426e-09 3.685578e-09 8.518494e-09 -1.695165e-09 8.196044e-10 2.1030335e-09
-5.5527907e-09 -0.008747027 -0.0036099125 -0.0080195265 -0.008740835 -2.1103278e-05 -6.429748e-05 -0.0074863
-0.00072209036 -0.008676676 -3.5797639e-06 -0.009087274 -0.0013669048 -0.001279953 -0.0029981527 -0.0065439986
-0.00095211086 -0.00883282 -0.008910571 -0.004542258 -0.008232415 -0.008582984 -0.00054982235 -2.07646e-06
-7.2812276e-05 -2.5436024e-05 -2.71944e-06 -0.0025543491 -0.0038011915 -0.0033684105 -0.0010040117 0.00019370629
0.0022158849 0.00022898332 -7.947662e-12 -1.9364215e-12 -6.7938498e-12 -7.388143e-12 -2.1743505e-14 -2.879949e-14
-5.3668367e-12 -4.5841575e-13 -5.2432416e-12 -4.536138e-13 -6.4772215e-12 -1.2369484e-12 -6.718034e-13 -3.3490888e-12
-7.511849e-12 -9.144182e-13 -5.240664e-12 -8.524976e-12 -2.4608906e-12 -7.006292e-12 -7.517794e-12 2.0434578e-13
-1.295906e-13 -8.508211e-15 1.5193233e-14 -8.839144e-14 -1.9444429e-13 -3.791236e-13 6.7011604e-13 3.8910493e-13
-2.4323668e-12 -2.2110922e-12 -4.1193273e-12 -4.7923016e-10 -3.7599224e-10 -4.4427562e-10 -4.7981924e-10 -1.3550469e-12
-4.2639833e-12 -3.7516382e-10 -3.386697e-11 -4.4413445e-10 -1.5933789e-11 -4.4804424e-10 -8.017985e-11 -1.04367424e-10
-1.6211746e-10 -3.9641676e-10 -8.335664e-11 -4.4616336e-10 -5.0893323e-10 -2.4732463e-10 -4.4154336e-10 -4.6196819e-10
-2.5453206e-10 9.13608e-13 -4.1938484e-11 -7.502219e-12 -1.3679014e-11 -3.2314068e-11 9.584282e-13 1.3664037e-12
-2.8088126e-12 2.3798744e-14 3.8798825e-12 -1.6390928e-10 -1.2463129e-06 -1.1413574e-06 -1.2072686e-06 -1.2996152e-06
-1.076553e-09 -6.9098327e-09 -1.1408008e-06 -1.0489209e-07 -1.3173819e-06 -1.3451535e-08 -1.2625187e-06 -2.0869615e-07
-2.984902e-07 -4.6000642e-07 -1.0559403e-06 -1.3885617e-07 -1.3217633e-06 -1.3334136e-06 -7.905196e-07 -1.1819666e-06
-1.211922e-06 -3.8392608e-07 2.3277572e-10 -2.54467e-07 -4.3706642e-08 -1.685463e-07 -5.636663e-07 4.1970452e-08
7.6104705e-08 -1.16474235e-08 5.9946187e-10 6.2828334e-09 -2.6603045e-08 -4.7926565e-11 -3.5294382e-11 -4.3873426e-11
-4.7113414e-11 -3.37009e-13 -3.9255434e-13 -3.253337e-11 -2.7638345e-12 -4.319819e-11 -3.012749e-12 -4.079726e-11
-7.624045e-12 -9.692023e-12 -1.2073271e-11 -4.2032468e-11 -1.2652307e-11 -4.240447e-11 -4.935146e-11 -3.2310862e-11
-4.3967583e-11 -4.6122287e-11 -3.039139e-11 -1.02776904e-13 -3.0660901e-12 -5.261489e-13 7.115793e-13 -2.973137e-12
-3.7708817e-13 -1.7290489e-14 -1.15676384e-14 -4.2276363e-13 -1.951456e-12 -1.3724276e-11 -0.0020609077 -0.00034702578
-0.001724999 -0.0020340893 -4.184486e-06 -1.0482936e-05 -0.0016215392 -0.00016426668 -0.0018900437 -2.2609715e-05
-0.0019830782 -0.00033347294 -0.00016097937 -0.0006991172 -0.0015332232 -0.00033929865 -0.0019106489 -0.0021168804
-0.0010519606 -0.0017896434 -0.0019277605 -0.00044097428 1.3170925e-06 -9.690907e-06 -2.3897242e-06 1.3718889e-06
-4.308366e-06 -5.1057552e-05 -0.00023567164 -0.0010392445 -0.0003304871 1.65759e-06 2.8613367e-05 -2.0515145e-13
-1.9875288e-12 -5.91492e-13 -7.954757e-14 -1.393395e-12 -1.7042605e-12 -1.4131488e-13 -1.20604e-12 -2.9880754e-14
-2.4031972e-12 -1.4297313e-14 -6.1403606e-13 -1.7966969e-12 -1.8353353e-12 -2.129915e-12 -5.598344e-13 -2.2185905e-14
-3.3858403e-13 -7.4307714e-14 -3.839903e-13 -2.5641793e-13 -3.0301876e-12 4.1514714e-14 -2.7002296e-14 3.8040533e-16

exp_avg_sq f4 [40, 33]
00000000: f75d e82f b8b5 cc2f 3485 cf2f f398 8a2f
00000010: eadf bf2e 468b 5e2e 34e9 932e ed03 1c30
00000020: d5e1 1e2f 3f67 b32f 1b8a 882f f49d 602e
00000030: 9aab 7b2e d35e 4d30 0c28 5330 eacc 492f
00000040: d532 192f 3876 4f2f 8b98 cb30 053d ce2f
00000050: 61dc dd2f f0d6 c22f 8bec 0e2a 892b 782c
00000060: c7ac a029 2f90 0c2e 9f82 c02e 3896 b72e
00000070: 0f04 122e ab7a 432e c1aa 2c2d 27d2 302c
00000080: 69ea 462c 7ab5 2939 5b5c 7038 4a62 2139
00000090: 6631 3839 554f 1735 55ee 4235 6548 db38
000000a0: 5490 9435 02eb 3639 7d69 d636 89f6 0d39
000000b0: 34da c236 6e91 1537 3e7b 7837 4133 0839
000000c0: 77ad 8b37 9704 3039 4ce9 3339 5763 0739
000000d0: 7bcc 2039 68d5 2539 dd70 ce38 cd3f 6530
000000e0: a0cc 3835 7c53 f132 f6ca c32e 4c3f 2c36
000000f0: 9a02 2d37 932a bc36 ead5 0436 3016 3a34
00000100: 15ec 1438 ebcf 6c36 fcce 9a22 646b d221
00000110: c86f 8c22 cab5 8c22 c413 9f20 a6fa 6020
00000120: 30ea a121 d22e 6820 d8c0 4322 6f78 a321
00000130: 86eb 1a22 5ab9 a120 9d33 3321 73be 3021
00000140: 658e a722 4e8a 8121 afe9 1e22 b12f 8522
00000150: 3af5 d522 80ab 8a22 ae4b 9422 6755 7821
00000160: b131 a620 4389 2b1e a61d b01e c178 af1f
00000170: 0af8 c21f b611 6820 b893 cc21 7ac9 a721
00000180: 933e 9b21 e3e2 6e21 7069 8622 1808 aa23
00000190: 970d 2a23 0e7f a723 429e 9923 ad3e d91e
000001a0: ba79 b81f edb1 be22 f3a7 e31e 65d5 3423
000001b0: 8fdb aa20 1cfb 7023 194a ee20 c807 2322
000001c0: 9621 a121 f8d3 8d23 80bf fd21 2e84 3723
000001d0: 081e ca23 ed72 4122 cb09 a223 457b aa23
000001e0: 32f9 7323 f975 f11e 54bd a620 0cec 131f
000001f0: 678b 3220 88de ec1f e73e 5d1f 00aa 0420
00000200: 3c34 8c21 f62f 221b 22de 0620 83bc e022
00000210: 496c 132e 8d75 1a2d 7aff fc2d 02ad 0e2e
00000220: 9709 0527 be05 0e28 2e36 a32d 8266 242a
00000230: 8b7e c42d 5dc8 1c2a 9376 f22d e926 892b
00000240: 2478 902b af37 b62c b201 f32d e75d 682b
00000250: 7dea c52d aa56 2b2e 6cfd fa2c 3b4b fe2d
00000260: cdeb 0a2e a61e 832d cd40 e729 0acd 9f29
00000270: 534f a626 06fc 5129 9806 8729 ac21 072a
00000280: 3a75 5229 7ef5 4d2b 358e c428 70a2 9029
00000290: 2038 372e 4d1c 9728 93c4 7d28 bdcc 8328
000002a0: f962 8d28 ee6d 9626 e6e6 9e26 beaa 8027
000002b0: e607 7426 1dd8 4e28 7f12 a427 0090 1728
000002c0: 3698 ac26 3a86 6227 7434 c626 8c53 9b28
000002d0: 0a58 4327 2b7d 2628 0aba 6628 a2f0 fd28
000002e0: f581 8328 69d1 9028 c15c 7128 4d29 3129
000002f0: 1f8d a229 28da f928 2caa 3428 d85b 1c29
00000300: 778a f721 d831 561f 6391 fe20 1b69 5b24
00000310: fcc9 aa28 8078 0727 e4ab 1738 7758 0637
00000320: cf2b 0b38 3c66 1738 9623 5c32 07fe 1733
00000330: cd32 af37 9f7f 5034 bddb f737 fff5 c234
00000340: 6861 f937 ef8e b035 e352 1f36 05a1 8636
00000350: 85ea e637 6672 f935 52f0 f137 2f81 2f38
00000360: 5c97 7c37 d0b0 0938 dff7 1138 1bb6 e736
00000370: 60a3 4c35 29ed d335 84f8 b534 98b7 f633
00000380: 5c5f d734 b257 3235 6e1b c535 1ceb f036
00000390: 6faf f635 af20 3736 2fc6 3c37 4aa0 992d
000003a0: b916 eb30 1075 162f fa1d d82b 4834 5730
000003b0: e478 a130 64e4 f22c fafa 1730 fa0a bd24
000003c0: fd74 1c31 add1 4b2c 02e1 2d2f 4eb9 bc30
000003d0: d537 b330 4b24 f030 aed1 002f 0df9 0225
000003e0: a7fc 452e 4a1f ff27 32cb ab2e 98af 062e
000003f0: 5f33 4431 25fa 352f 0ec9 5e2a 860e 5528
4.226732e-10 3.7236503e-10 3.7747727e-10 2.521073e-10 8.7254495e-11 5.0600656e-11 6.726211e-11 5.675805e-10
1.4450248e-10 3.263327e-10 2.4836386e-10 5.1071994e-11 5.7223205e-11 7.471332e-10 7.6818263e-10 1.8353644e-10
1.3933328e-10 1.886854e-10 1.4813549e-09 3.751454e-10 4.0356254e-10 3.5441117e-10 1.2694201e-13 3.5267087e-12
7.1353994e-14 3.1960375e-11 8.754352e-11 8.348561e-11 3.320016e-11 4.4446818e-11 9.814983e-12 2.5127762e-12
2.8267616e-12 0.00016184701 5.730647e-05 0.00015390772 0.0001756601 5.6367327e-07 7.261745e-07 0.00010456218
1.1068864e-06 0.0001744442 6.3899774e-06 0.0001353865 5.8070527e-06 8.914953e-06 1.48106465e-05 0.00012989064
1.6650867e-05 0.00016786378 0.0001715768 0.0001291161 0.00015334964 0.00015815126 9.843868e-05 8.340038e-10
6.884311e-07 2.8094057e-08 8.9036264e-11 2.566684e-06 1.0312209e-05 5.607793e-06 1.9794047e-06 1.7330672e-07
3.550582e-05 3.5287765e-06 4.1960937e-18 1.425858e-18 3.806543e-18 3.8139553e-18 2.6948728e-19 1.905647e-19
1.0971773e-18 1.9666656e-19 2.6529519e-18 1.1077188e-18 2.0995577e-18 2.7397116e-19 6.071587e-19 5.9883177e-19
4.5416207e-18 8.777989e-19 2.1536704e-18 3.6100217e-18 5.799341e-18 3.7586558e-18 4.019561e-18 8.41387e-19
2.8154377e-19 9.08105e-21 1.8646987e-20 7.4315153e-20 8.257254e-20 1.9657024e-19 1.3862679e-18 1.1369691e-18
1.0519772e-18 8.093782e-19 3.643241e-18 1.8434865e-17 9.218596e-18 1.8159986e-17 1.6655318e-17 2.300169e-20
7.812841e-20 5.168799e-18 2.4104022e-20 9.803008e-18 2.8944412e-19 1.30636005e-17 4.0367802e-19 2.2094739e-18
1.0918674e-18 1.5377023e-17 1.7194636e-18 9.94844e-18 2.1913603e-17 2.6217219e-18 1.7568223e-17 1.8483644e-17
1.32258256e-17 2.556566e-20 2.824678e-19 3.1323714e-20 1.5123311e-19 1.00318035e-19 4.6850602e-20 1.1237083e-19
9.500595e-19 1.3415823e-22 1.1423739e-19 6.0914916e-18 3.3520107e-11 8.779988e-12 2.8762537e-11 3.2440724e-11
1.8462656e-15 7.883829e-15 1.8555015e-11 1.460169e-13 2.2338817e-11 1.3925098e-13 2.7564872e-11 9.745235e-13
1.0265161e-12 5.1789332e-12 2.7626654e-11 8.2553273e-13 2.250044e-11 3.895787e-11 7.133563e-12 2.8909866e-11
3.1587e-11 1.4906586e-11 1.0269702e-13 7.096587e-14 1.1540065e-15 4.6625918e-14 5.996348e-14 1.2002091e-13
4.6731045e-14 7.317132e-13 2.1822044e-14 6.423063e-14 4.165923e-11 1.6776641e-14 1.40869465e-14 1.4632713e-14
1.5697067e-14 1.0438137e-15 1.1026038e-15 3.5712256e-15 8.466521e-16 1.1482159e-14 4.5539198e-15 8.413409e-15
1.1976154e-15 3.1436565e-15 1.3753227e-15 1.724469e-14 2.7109412e-15 9.241993e-15 1.28079056e-14 2.8193e-14
1.4600282e-14 1.6078029e-14 1.33983e-14 3.9337718e-14 7.218726e-14 2.7739164e-14 1.0028907e-14 3.471862e-14
1.6774022e-18 4.5357492e-20 4.3125483e-19 4.7577083e-17 1.8961388e-14 1.8800337e-15 3.616129e-05 8.00762e-06
3.3180982e-05 3.609642e-05 1.2813777e-08 3.5388464e-08 2.0885282e-05 1.9417938e-07 2.9547018e-05 3.6314302e-07
2.9728471e-05 1.3154621e-06 2.3741093e-06 4.0122563e-06 2.7527343e-05 1.858524e-06 2.8841347e-05 4.1843563e-05
1.5055612e-05 3.2828015e-05 3.4801542e-05 6.9055363e-06 7.6233664e-07 1.5789748e-06 3.3894696e-07 1.1488663e-07
4.0116254e-07 6.643778e-07 1.4685627e-06 7.1799277e-06 1.8379486e-06 2.728815e-06 1.1251816e-05 1.7465269e-11
1.7104959e-09 1.368401e-10 1.5356043e-12 7.829084e-10 1.1748651e-09 6.90341e-12 5.529014e-10 8.198428e-17
2.2767488e-09 2.8964429e-12 1.5814197e-10 1.3731467e-09 1.3039833e-09 1.7472613e-09 1.1716025e-10 1.1360084e-16
4.5017014e-11 7.081064e-15 7.8122744e-11 3.062403e-11 2.8550955e-09 1.6550723e-10 1.9787316e-13 1.18270245e-14

exp_avg f4 [40, 10]
00000000: cd9a e42f e85d 862c feea 9ba2 3c72 b22b
00000010: 035d 5c2f 150b de2f 72c5 102e 4b83 8aa0
00000020: b316 0526 e445 e3af be23 0b3c 96db a83a
00000030: a27b 83ab 6f55 d434 b8d8 6938 d24b 0c3c
00000040: 8b44 313b 26a7 5029 c42b b22e 22d0 03bc
00000050: 3818 ab2c 53a1 0f2d 5ec2 089e 2f9c e7a1
00000060: 2771 ab24 46f7 e82c 4dd1 b22c 2b3c b29d
00000070: 2287 8923 a9f9 0fad b6f1 c627 69b8 4e24
00000080: 5a23 519a 2b1a bc23 9b3d 1827 944e c627
00000090: 3677 6426 81e4 7397 c36a 131c a2bb c6a7
000000a0: a60a 292d f668 a327 0c46 1e1f d4da f329
000000b0: 75df 0c2d 50aa 292d c552 632c 1f47 8e9a
000000c0: c36d 1ea2 0ae7 29ad b292 432a bbe5 02a8
000000d0: bd78 0f1e f9e7 0f24 20da b524 34bf 482a
000000e0: 85d0 bb27 67c0 221e cd5f 1ca3 d88a 3eaa
000000f0: 9b89 e83a 4dbc 9a3a eb57 3dab fe3e 9431
00000100: ecf8 6234 bb7f fe3a e4ca 503a e64c 0e27
00000110: 3672 efac ac34 f8ba 8dca 4ca9 7f4b 80a9
00000120: e80b 009c 9ec1 0f20 f968 e922 e249 7ca8
00000130: f350 b0a8 23ea 9ca7 0d3d e92b 8b36 d429
00000140: f221 1131 1dfa ec2d a91b a022 314e 3324
00000150: e159 682a a040 1a31 500e a82d 30f7 e12b
00000160: e5c9 8eb0 3959 eab0 6220 32b8 db6e 26b7
00000170: 5503 9c24 7e9e b7ac c0d4 08ae 5b46 26b8
00000180: 10ec 9433 af0a 8c2a eb70 1daf 3ce4 2038
00000190: 0379 5a28 0c00 5527 292d 039d 8412 8a21
000001a0: 3dfa 0122 a2c4 2728 4f5c df24 1387 4b9c
000001b0: 84ae 0d22 1360 aba8 96c7 74b9 5497 45b8
000001c0: 70c3 00a9 b18d d0ae 2ef3 0bb2 4c30 7cb9
000001d0: 3e91 80b7 0e6b f627 aa7d 7b2c 8b56 5739
000001e0: 06d1 452a 4584 b52a 355d cf9b 4ddf dfa0
000001f0: 8646 50a2 bf20 8b2a be0e 622a 6dd3 489b
00000200: d89a 1721 67a8 b2aa c320 1025 8b6a 2a22
00000210: 22ab 2b98 32b0 2521 95e3 4424 58c7 0e25
00000220: ec43 f223 b5ad 3696 cccc 2e1b 7e2a 10a5
00000230: 1098 f626 e9fe 3a22 a620 bc97 6109 a922
00000240: be16 9526 9229 f626 811d 0e25 77bf 9a95
00000250: 986d 7d99 f8dc f6a6 b85e 362f a33f 072d
00000260: be56 3022 2229 4829 c4f1 c62d 2337 242f
00000270: c026 232d f87c 3721 59db 4da6 18d7 2aaf
00000280: ca49 b030 5c26 c830 285e 49a1 d4a6 3628
00000290: 8816 e82a a4d4 e930 e168 ad30 3a7d a99b
000002a0: ffe7 c7a2 45d0 fdb0 a5f3 9a22 5698 94a5
000002b0: 2c8f 9a18 062a cc19 0589 ad1c 4905 55a5
000002c0: d474 6da0 e1a3 4823 8401 3ea7 a9ad a8a6
000002d0: 0047 23aa c54e a4ac e626 d920 c0c0 cd9f
000002e0: 1006 8c1d 2b23 2bad a2be bf20 1afd 55a9
000002f0: 6610 a5ae 1729 fcac d7a9 32bc 34da 16ba
00000300: 7006 2e29 b008 04b1 7d15 a535 1a3c 29bc
00000310: 1ca1 eb3a ba11 9027 773b 16af 6c76 193c
00000320: c8bc 4eaa 2a99 98a8 449d 921e 8d98 b1a6
00000330: 081a c8a8 fed0 40aa c5f6 84a9 c76a 011d
00000340: 4f3d 81a2 7ebd 582a df8e e61c e703 061e
00000350: f112 9b93 1158 7310 a41d 6508 6dbc b41f
00000360: 867d d30e d719 af9a ab76 051f c3fd 7ba1
00000370: 77c2 02a6 16e7 f8a5 8f75 3918 d14a a99a
00000380: c3a8 ea9d a162 11a6 13dd 7ea5 3427 7998
00000390: 744c a61f 3133 1726 afe5 dba4 5330 07a2
000003a0: 41f8 1118 b822 19a1 001a 02a4 63b1 daa4
000003b0: 42f5 e4a3 f63e 4915 fca2 3d9a b84a dc24
000003c0: a8cc c6a7 4bd4 78a2 2bd0 1498 9741 bda3
000003d0: b2f4 30a7 26b1 c6a7 663f b3a5 caf7 7a15
000003e0: 179d 919a b8b0 c627 bec2 74a7 426b 2d26
000003f0: 64f7 719c d959 b2a3 93a6 18a7 e8f2 91a7
4.158295e-10 3.8189348e-12 -4.226164e-18 1.2679367e-12 2.0041928e-10 4.038944e-10 3.2917176e-11 -2.3464992e-19
4.617441e-16 -4.134072e-10 0.008492408 0.0012882825 -9.342425e-13 3.9550238e-07 5.5753364e-05 0.008562999
0.0027048911 4.6330256e-14 8.102277e-11 -0.008045228 4.862801e-12 8.16443e-12 -7.239974e-21 -1.569451e-18
7.4351116e-17 6.6212895e-12 5.0823013e-12 -4.717842e-21 1.49108e-17 -8.184045e-12 5.5218103e-15 4.482533e-17
-4.3248744e-23 2.0394083e-17 2.1127634e-15 5.5041234e-15 7.926495e-16 -7.8805947e-25 4.8776206e-22 -5.515947e-15
9.608902e-12 4.5355387e-15 3.3515743e-20 1.08293284e-13 8.007696e-12 9.644355e-12 3.2304587e-12 -5.8844726e-23
-2.14711e-18 -9.657839e-12 1.7370374e-13 -7.2662645e-15 7.595325e-21 3.120467e-17 7.8865755e-17 1.7829905e-13
5.2129004e-15 8.6159965e-21 -8.4770635e-18 -1.6923561e-13 0.0017741205 0.0011805386 -6.72683e-13 4.3145283e-09
2.1138447e-07 0.0019416729 0.00079648034 1.9748145e-15 -6.8054685e-12 -0.0018936596 -4.5472784e-14 -5.6974384e-14
-4.2367036e-22 1.2176634e-19 6.326592e-18 -1.4004831e-14 -1.9575031e-14 -4.355255e-15 1.6572591e-12 9.424153e-14
2.1119573e-09 2.6941166e-11 4.3397373e-18 3.888067e-17 2.0636922e-13 2.2446685e-09 1.9105745e-11 1.605582e-12
-1.0389242e-09 -1.7051099e-09 -4.2468666e-05 -9.920182e-06 6.765986e-17 -5.218769e-12 -3.111178e-11 -3.9643008e-05
6.9347266e-08 2.487641e-13 -1.4319183e-10 3.8359532e-05 1.2127671e-14 2.9559713e-15 -1.7361053e-21 9.356145e-19
1.7615235e-18 9.313e-15 9.686721e-17 -6.7341645e-22 1.9201451e-18 -1.902648e-14 -0.00023344005 -4.7109395e-05
-2.8591224e-14 -9.4839143e-11 -8.1461575e-09 -0.00024050585 -1.5326423e-05 6.8394785e-15 3.5739003e-12 0.00020536238
1.7569634e-13 3.224384e-13 -3.430551e-22 -3.7925438e-19 -2.8226591e-18 2.4714082e-13 2.0077947e-13 -1.6611928e-22
5.1365724e-19 -3.1736004e-13 1.2501109e-16 2.30957e-18 -2.2187632e-24 5.6137367e-19 4.2693495e-17 1.2384077e-16
2.6266459e-17 -1.4756655e-25 1.4459116e-22 -1.2504406e-16 1.7110896e-15 2.5342649e-18 -1.2157457e-24 4.5817472e-18
1.0345116e-15 1.7080947e-15 1.2326533e-16 -6.250218e-26 -1.3101926e-23 -1.7129573e-15 1.6586454e-10 7.687992e-12
2.3898369e-18 4.4444598e-14 2.261736e-11 1.4935302e-10 9.2740815e-12 6.2168207e-19 -7.1420934e-16 -1.5537827e-10
1.2826658e-09 1.4562818e-09 -6.8226064e-19 1.0139205e-14 4.1227113e-13 1.7013417e-09 1.2617215e-09 -2.803963e-22
-5.4184693e-18 -1.8467367e-09 4.1999752e-18 -2.5777134e-16 3.9952634e-24 2.1110079e-23 1.1483598e-21 -1.8476596e-16
-2.0113336e-19 1.08767244e-17 -2.6368618e-15 -1.1704412e-15 -1.4501941e-13 -4.6699055e-12 3.678697e-19 -8.7139755e-20
3.706396e-21 -9.7280335e-12 3.248281e-19 -4.751503e-14 -7.506244e-11 -7.1668327e-12 -0.010904751 -0.00057545607
3.8641345e-14 -1.9213466e-09 1.2299712e-06 -0.010329271 0.0017977091 3.998725e-15 -1.3663547e-10 0.009366613
-1.8361972e-13 -1.6941814e-14 1.5523395e-20 -1.2323191e-15 -2.221575e-14 -1.7125534e-13 -5.904785e-14 1.712821e-21
-3.5030433e-18 1.9250397e-13 1.5257055e-21 7.094708e-21 -3.914618e-27 4.7991144e-29 6.8947023e-34 7.654469e-20
5.213639e-30 -7.242005e-23 2.8262005e-20 -8.537796e-19 -4.536636e-16 -4.3177732e-16 2.3970042e-24 -7.0017634e-23
-6.211378e-21 -5.044065e-16 -2.2105891e-16 -3.2202288e-24 7.0430216e-20 5.2458026e-16 -9.536521e-17 -1.8321494e-18
1.8866147e-24 -5.1884366e-19 -2.821128e-17 -9.4842934e-17 -2.482368e-17 4.0641294e-26 -3.9215942e-23 9.553637e-17
-5.517793e-15 -3.3722654e-18 -1.923365e-24 -2.05192e-17 -2.4557556e-15 -5.5148104e-15 -3.109451e-16 5.068257e-26
-6.0224387e-23 5.514764e-15 -3.3967372e-15 6.0166794e-16 -8.0059956e-22 -1.933685e-17 -2.1184538e-15 -4.0508944e-15

exp_avg_sq f4 [40, 10]
00000000: 2f1c 282d b129 4528 929d 8d1d db46 9727
00000010: 5365 ed26 3bf2 fe2d 8fea b723 413f 641d
00000020: e049 bd26 3259 4330 2679 2d39 fc5d a437
00000030: 1c49 071f 5932 1e2c fc91 9e35 504c 1b39
00000040: 48c4 0f36 22fa 1b2c 698d 1e34 7b3d 2439
00000050: de18 3222 5bc1 3022 d6d6 da1e 22b0 811f
00000060: a332 421d 59c9 f521 2cae 841f 28ca e517
00000070: 6163 8d1c 31df f722 9c23 8b21 0669 9416
00000080: a463 071d 2731 561e d607 2520 d58b 9121
00000090: cc8a ac1c 7763 970e bb9b a912 8d46 6221
000000a0: 8c5a b62c 48ef a227 a7ec f219 39b9 1e24
000000b0: d1a6 3a25 3b38 b62c 3324 0824 47eb 5b0d
000000c0: 5468 5b16 6bc6 942c b2f6 3d23 ac1a 8321
000000d0: 4c24 d416 35e6 4620 9bcb db19 8551 a326
000000e0: b67e 9a18 cf72 cd1b f854 6c1c d9a8 0627
000000f0: 2a10 fb37 8ecc c437 7467 b61e ad21 832d
00000100: 0677 5c2e 3b9d 1938 018b b436 40a2 0018
00000110: 5722 8324 685b 1138 0767 7624 c82d 8e2b
00000120: 6251 e517 5acb cf15 73b7 2911 de63 9a29
00000130: 9114 cb1a e853 3030 d7c1 f02f b318 d42c
00000140: aac2 df2f 7498 d933 9b43 1b1b e830 6320
00000150: b582 9e23 c76b ab2f a22e 9b25 63d8 b130
00000160: ca57 2736 f848 1734 48ae 0c37 0120 d136
00000170: 0c6f 5e1e 113a 2224 7760 b230 c204 6237
00000180: 5c02 a92f 47b2 222d f6ee e633 ff70 7b37
00000190: 7e65 1b29 de59 5f1c 6a7c 571a b4b4 5221
000001a0: 7edb 861c 26e9 9c29 dada 8819 2c94 9e18
000001b0: 83cd 5923 f0b1 f02b 02fb f236 5b65 ee36
000001c0: e791 6f1c 5c25 8b28 5854 a52c 8451 5736
000001d0: 0ead cb31 c7ae 012c fa69 b132 908f 8c37
000001e0: 613e 841f 6b8e e51d 419c 8b1e 2fd1 321f
000001f0: 260a 7e1c d7cf 8f1f 627e 3c1e d63b 0115
00000200: 66cc bf18 1dec 931f 0e1c 201e 1931 5d15
00000210: e2f1 7f1c 9053 2e1d 54fd a81c 6401 2a1e
00000220: dfa9 321c fc7c 3b0f 8f36 7f0f 383a ea1d
00000230: 5ccc 891f 482e 591b b6b4 c711 17c0 9d1a
00000240: 7f65 8e1b ffe9 b91f eb51 0e17 bffd 570e
00000250: ba77 420e ea82 911f ecca 7b25 d9b9 7f25
00000260: 76b4 5512 c1e1 5119 a0b6 a521 0a9e 1226
00000270: 7353 381d 8139 2013 ae94 0b1d 2de4 d726
00000280: 726b 8828 06b0 ca27 416e bd1d 697c 3e20
00000290: e33c bb20 54f5 c729 f9ab 8d27 4950 4d10
000002a0: 4cec 661c 468a 9a29 b691 d922 2115 8e2c
000002b0: d1e5 ef15 3657 9e14 9922 c310 f0ba dd28
000002c0: 0975 9510 1ac0 8730 c2dc 912f 497a 9928
000002d0: 94ff 9c2a 04be f031 b718 c719 05ce 5716
000002e0: 2672 1916 1210 8f30 4693 6b18 f446 e12f
000002f0: af7c 1535 26d6 8432 d5cf e539 c466 e437
00000300: 2fb6 bb1d c885 892e d5dc e835 f8f0 eb39
00000310: 281b 8136 3ec6 ef25 5e03 6e2c a8e8 c639
00000320: 1882 0629 f1d4 a41f 48f8 e01c c653 8925
00000330: f139 3b23 c975 ba2a 0314 901e 8054 b91a
00000340: 2f93 b41e 0989 7c2a f64c 7b18 05a6 d422
00000350: abb8 091a fa6b b015 d5a2 990f 176f 8021
00000360: f94f f811 a195 f022 50bf 5623 ba31 4d21
00000370: 0eda c921 5915 371a 910c eb20 55f5 a421
00000380: 26bd e71e e8b5 ef21 9688 a720 794f 8811
00000390: 1b35 0917 74a6 8021 37fe 6e1f dea4 a717
000003a0: 1cce fb1e 7c90 0c1f bf26 941c cf20 8d1f
000003b0: e134 511e e1d0 190f 0987 af0e 0abc 1d1f
000003c0: 6eea 9125 3146 0b19 94a5 2c1a 9ea0 f522
000003d0: 9177 3b22 e090 9825 a84c c719 9735 350e
000003e0: d014 4d16 dc72 8b25 cb29 9e26 f6e0 9d1d
000003f0: a1d1 9e16 873a 7a1f 4bd9 6f1e f8de 2927
9.555952e-12 1.0944737e-14 3.7485313e-21 4.198774e-15 1.6472643e-15 2.8984029e-11 1.994024e-17 3.020825e-21
1.3134533e-15 7.106734e-10 0.00016543697 1.9594088e-05 2.8647837e-20 2.24811e-12 1.1814404e-06 0.0001481038
2.1422911e-06 2.2165676e-12 1.4766341e-07 0.00015663162 2.4136663e-18 2.395481e-18 2.3170502e-20 5.492501e-20
2.5701865e-21 1.6655142e-18 5.619232e-20 1.484981e-24 9.356286e-22 6.7185797e-18 9.428432e-19 2.3976969e-25
1.7918614e-21 1.133923e-20 1.3978636e-19 9.862595e-19 1.1417883e-21 3.7320155e-30 1.070379e-27 7.666515e-19
5.182804e-12 4.522346e-15 2.5117797e-23 3.4417678e-17 1.6189448e-16 5.178994e-12 2.952096e-17 6.776779e-31
1.7723599e-25 4.228442e-12 1.029795e-17 8.883965e-19 3.4273354e-25 1.6847421e-19 2.2726305e-23 1.1332493e-15
3.9936012e-24 3.3988598e-22 7.819567e-22 1.8687768e-15 2.9929059e-05 2.3460274e-05 1.9312787e-20 1.490793e-11
5.0127923e-11 3.6624475e-05 5.3806e-06 1.6625528e-24 5.687037e-17 3.4655823e-05 5.3430014e-17 1.0102414e-12
1.4819322e-24 8.3927466e-26 1.3388279e-28 6.856298e-14 8.399206e-23 6.4147665e-10 4.3793477e-10 6.0281446e-12
4.070178e-10 1.0132581e-07 1.2843144e-22 1.924383e-19 1.7185751e-17 3.11813e-10 2.6919814e-16 1.2939946e-09
2.493604e-06 1.4089517e-07 8.385228e-06 6.232411e-06 1.1775546e-20 3.5177335e-17 1.2978622e-09 1.34717575e-05
3.0742597e-10 9.248219e-12 1.0753676e-07 1.4987075e-05 3.4504944e-14 7.390066e-22 4.456146e-23 7.1389926e-19
8.924114e-22 6.9682365e-14 1.4150464e-23 4.099166e-24 1.1807112e-17 1.7102413e-12 7.241383e-06 7.104752e-06
7.926704e-22 1.5448302e-14 4.698946e-12 3.2084945e-06 5.9277516e-09 1.8429023e-12 2.0653705e-08 1.6756152e-05
5.600737e-20 6.076305e-21 1.4781823e-20 3.7866e-20 8.4054667e-22 6.09067e-20 9.9787725e-21 2.6098545e-26
4.9578732e-24 6.264754e-20 8.476131e-21 4.4669326e-26 8.468505e-22 2.307191e-21 1.1182791e-21 9.000013e-21
5.9114813e-22 9.243883e-30 1.2582978e-29 6.199948e-21 5.835984e-20 1.7964774e-22 3.1508036e-28 6.5244016e-23
2.355752e-22 7.873766e-20 4.598607e-25 2.662297e-30 2.3969992e-30 6.162647e-20 2.1839532e-16 2.2180692e-16
6.7433384e-28 1.0850637e-23 1.1229175e-18 5.086811e-16 2.439534e-21 2.022319e-27 1.8473362e-21 1.4980469e-15
1.514563e-14 5.6257108e-15 5.0141883e-21 1.613479e-19 3.1719324e-19 8.879933e-14 3.9321815e-15 4.049097e-29
7.6406023e-22 6.8629604e-14 5.8972245e-18 4.0382285e-12 9.689392e-26 1.5988322e-26 7.6967244e-29 2.4617e-14
5.895046e-29 9.877141e-10 2.6532204e-10 1.7039445e-14 2.788851e-13 7.0065216e-09 2.05861e-23 1.743257e-25
1.239526e-25 1.0409187e-09 3.0447392e-24 4.0977677e-10 5.5688264e-07 1.5464206e-08 0.0004383313 2.7227572e-05
4.968686e-21 6.253803e-11 1.7349618e-06 0.0004500223 3.847661e-06 4.1594225e-16 3.3823703e-12 0.00037938845
2.9866815e-14 6.9808984e-20 1.4887256e-21 2.382248e-16 1.014956e-17 3.3121967e-13 1.525487e-20 7.6650724e-23
1.9119115e-20 2.242964e-13 3.2479845e-24 5.7638495e-18 2.848011e-23 7.125619e-26 1.5149685e-29 8.703023e-19
3.9176788e-28 6.5210556e-18 1.1641475e-17 6.9522514e-19 1.3678008e-18 3.7860758e-23 3.9818864e-19 1.1178011e-18
2.4536306e-20 1.624342e-18 2.8381285e-19 2.1505995e-28 4.4334116e-25 8.717677e-19 5.0608742e-20 1.083374e-24
2.6660904e-20 2.9765668e-20 9.803834e-22 5.97701e-20 1.1075303e-20 7.583711e-30 4.3270865e-30 3.3401585e-20
2.5312346e-16 7.200307e-24 3.570252e-23 6.6577443e-18 2.5406524e-18 2.6465968e-16 2.0607079e-23 2.2335775e-30
1.6566335e-25 2.4190488e-16 1.097478e-15 4.179016e-21 2.565857e-25 5.2987972e-20 1.269749e-20 2.3574333e-15

exp_avg f4 [40]
00000000: bcaf bdb3 af3b 0fbc 32bc 11ad d00f 0cb0
00000010: 2a28 b2b5 8672 68ae 1b5f 08bb 13a3 55ac
00000020: 4121 2db0 d354 4738 cebb eda8 b2fe 7739
00000030: c31f aeaa 52eb 3ca5 c454 21a7 ba72 5caf
00000040: 7cf9 f5b0 ae07 4328 e5de 0730 db62 453c
00000050: 4463 bc2e c81b 19a2 c3d2 0026 3451 9d2e
00000060: ef52 0731 b3ce 2d2d 3423 8d35 62f2 b522
00000070: b4d3 fba6 3f47 08b0 40cf b53c 640a c035
00000080: a9eb f2ac b733 b7b5 a2bd 84b8 aa83 fe3b
00000090: f0b1 17bc 33c8 20a9 fd49 4d28 8efd 5238
-8.832964e-08 -0.008742257 -8.2840835e-12 -5.0954174e-10 -1.3273723e-06 -5.285241e-11 -0.002080864 -3.0359645e-12
-6.298429e-10 4.7524296e-05 -2.6393733e-14 0.00023650637 -3.0930648e-13 -1.638613e-16 -2.238919e-15 -2.0049643e-10
-1.7897004e-09 1.082634e-14 4.9429466e-10 0.012047495 8.566883e-11 -2.0750074e-18 4.4694556e-16 7.153958e-11
1.9692228e-09 9.879808e-12 1.0515564e-06 4.931678e-18 -1.7474006e-15 -4.957776e-10 0.022193551 1.4308139e-06
-6.904217e-12 -1.3649613e-06 -6.329572e-05 0.0077671604 -0.009258732 -3.5700782e-14 1.139583e-14 5.0304043e-05

exp_avg_sq f4 [40]
00000000: ba8f ed30 70e7 8639 fb47 6623 b462 d823
00000010: 57a6 2e2e 9310 7929 9acb 3d38 7e53 7331
00000020: 9324 2037 3927 8838 46c0 642c 2313 0638
00000030: 44ce 1b20 115d 2a1e ec70 d21f b83f 4827
00000040: da85 002a e544 4331 a660 cc36 99e9 023a
00000050: 5e50 e62a 48e9 8126 912b f221 8ccc 5420
00000060: aa26 032a 2531 0d2c 62e8 0a37 d5c2 2624
00000070: 56b1 a622 9c86 b039 4b0d 8e3c 3500 c938
00000080: e44b 1023 74b7 dd31 0abe 5c3a 32ea dd3a
00000090: 7b93 4a39 5a77 b52b 4c11 7b25 9bda a73a
1.7284869e-09 0.00025730906 1.24835674e-17 2.346057e-17 3.971076e-11 5.5303482e-14 4.525073e-05 3.5408614e-09
9.545259e-06 6.492291e-05 3.2507482e-12 3.1965912e-05 1.3197258e-19 9.018971e-21 8.912527e-20 2.7790118e-15
1.1415123e-13 2.8415397e-09 6.090925e-06 0.0004993915 4.0911973e-13 9.014404e-16 1.641009e-18 1.8024777e-19
1.1648552e-13 2.0064586e-12 8.279547e-06 3.616054e-17 4.518215e-18 0.00033669628 0.017340323 9.5844654e-05
7.822326e-18 6.4528027e-09 0.0008420652 0.0016930758 0.00019319162 1.289395e-12 2.177664e-16 0.0012806238

exp_avg f4 [40]
00000000: bfaf bdb3 b03b 0fbc 34bc 11ad d10f 0cb0
00000010: 2a28 b2b5 8872 68ae 185f 08bb 13a3 55ac
00000020: 2d21 2db0 d254 4738 cebb eda8 acfe 7739
00000030: c61f aeaa 54eb 3ca5 c754 21a7 af72 5caf
00000040: 7df9 f5b0 a607 4328 e3de 0730 d862 453c
00000050: 4563 bc2e c81b 19a2 c3d2 0026 3451 9d2e
00000060: ef52 0731 b3ce 2d2d 3123 8d35 57f2 b522
00000070: b4d3 fba6 4747 08b0 42cf b53c 640a c035
00000080: b2eb f2ac b633 b7b5 a4bd 84b8 a383 fe3b
00000090: ebb1 17bc 3ac8 20a9 fd49 4d28 92fd 5238
-8.8329664e-08 -0.008742258 -8.284085e-12 -5.095418e-10 -1.3273723e-06 -5.2852417e-11 -0.0020808633 -3.0359645e-12
-6.298418e-10 4.7524292e-05 -2.6393733e-14 0.00023650628 -3.0930656e-13 -1.6386133e-16 -2.2389196e-15 -2.0049627e-10
-1.7897005e-09 1.0826333e-14 4.9429455e-10 0.012047492 8.566884e-11 -2.0750074e-18 4.4694556e-16 7.153958e-11
1.9692228e-09 9.879808e-12 1.0515561e-06 4.9316736e-18 -1.7474006e-15 -4.9577803e-10 0.022193555 1.4308139e-06
-6.904221e-12 -1.3649612e-06 -6.329574e-05 0.007767157 -0.009258728 -3.5700806e-14 1.139583e-14 5.0304057e-05

exp_avg_sq f4 [40]
00000000: ba8f ed30 72e7 8639 f947 6623 b462 d823
00000010: 57a6 2e2e 9110 7929 9acb 3d38 7e53 7331
00000020: 9224 2037 3827 8838 46c0 642c 2413 0638
00000030: 45ce 1b20 115d 2a1e ec70 d21f b83f 4827
00000040: da85 002a e544 4331 a160 cc36 99e9 023a
00000050: 5c50 e62a 48e9 8126 912b f221 8ccc 5420
00000060: a926 032a 2531 0d2c 61e8 0a37 d8c2 2624
00000070: 56b1 a622 a186 b039 4a0d 8e3c 4300 c938
00000080: e44b 1023 74b7 dd31 0abe 5c3a 32ea dd3a
00000090: 7e93 4a39 5a77 b52b 4c11 7b25 97da a73a
1.7284869e-09 0.00025730912 1.2483566e-17 2.346057e-17 3.971076e-11 5.5303476e-14 4.525073e-05 3.5408614e-09
9.545258e-06 6.4922904e-05 3.2507482e-12 3.1965916e-05 1.319726e-19 9.018971e-21 8.912527e-20 2.7790118e-15
1.1415123e-13 2.8415397e-09 6.090923e-06 0.0004993915 4.0911968e-13 9.014404e-16 1.641009e-18 1.8024777e-19
1.164855e-13 2.0064586e-12 8.279546e-06 3.616055e-17 4.518215e-18 0.00033669642 0.017340321 9.5844756e-05
7.822326e-18 6.4528027e-09 0.0008420652 0.0016930758 0.00019319166 1.289395e-12 2.177664e-16 0.0012806234

exp_avg f4 [1, 10]
00000000: 66e6 9abd 8582 bb3c 9ed4 e7ac e81f fbb2
00000010: db4d 9436 b35b 90bd 4214 8a3c 9056 5aad
00000020: 50f2 6c32 be5f 843d
-0.07563476 0.022889385 -6.58902e-12 -2.9234755e-08 4.4198073e-06 -0.0704874 0.016855363 -1.2411086e-11
1.37921035e-08 0.06463574

exp_avg_sq f4 [1, 10]
00000000: 9df1 993d 1270 df3c ba17 4723 7b08 9a31
00000010: d551 4036 4085 883d 8aa2 103b 24a2 2233
00000020: 6bd2 203a 0964 aa3d
0.07516787 0.027275119 1.0792836e-17 4.482954e-09 2.8657862e-06 0.066660404 0.0022069537 3.786603e-08
0.00061348703 0.083198614
