ckpt/ADAM_lstm_bs{32}_lr{1.0e-02}_eps{1.0e-04}_epoch{20}/ADAM_lstm_bs{32}_lr{1.0e-02}_eps{1.0e-04}_epoch{20}.pth (torch, 30847 bytes, 39 tensors)

lstm.weight_ih_l0 f4 [24, 28]
000000 74 b0 99 bf 90 ba 9a be 53 cb cc bf 3e 4e a4 bf
       -1.2006974 -0.3022046 -1.599955 -1.2836378
000010 d5 81 2e 3f bb 3f 87 3e a1 92 26 bf 09 84 c8 3e
       0.6816686 0.2641581 -0.6506749 0.39163235
000020 5e 08 98 be 8f 86 9c 3f 71 94 b9 3e 65 2d 06 3e
       -0.29693884 1.2228564 0.36246064 0.13103254
000030 80 c5 04 3e bb e7 ba be 72 55 1d be d5 c6 05 bf
       0.12965965 -0.3650492 -0.15364626 -0.5225652
000040 50 c6 63 3d fc 47 65 3e 65 ad a9 bf 6c 55 cd bd
       0.055609047 0.22390741 -1.3256041 -0.100260586
000050 95 70 3f bf 8e 4a 5d 3f a0 ec 1d 3f a2 d0 9e bf
       -0.7478116 0.86441886 0.61689186 -1.240742
000060 e9 f1 29 3f 46 ac ae 3e 7f 61 2a bd ec f2 59 3f
       0.6638475 0.3411581 -0.041596886 0.85136294
000070 67 34 57 be 23 54 3b bf b0 a2 98 bc 3b c3 8f be
       -0.21016084 -0.7317526 -0.018632263 -0.28078637
000080 a3 e6 b1 3d 10 29 01 bf 7d b2 22 bf dc d7 d6 3e
       0.086865686 -0.5045328 -0.635536 0.41961563
000090 c0 ff da be b3 c8 d2 be cb 3f 8a be fa b2 f0 bc
       -0.42773247 -0.41168746 -0.27001795 -0.029382218
0000a0 a7 0d 9d 3b 1d fe 4d bf 33 6f 48 3e 10 83 1e bf
       0.0047928873 -0.8046587 0.19573669 -0.61918736
0000b0 8a 76 a5 3d 9b 2b 83 be 51 33 e7 3d 35 df 0c bf
       0.0807925 -0.25619206 0.11289085 -0.55028087
0000c0 d2 ee 50 bf b8 df 09 bd 60 e4 9d bd 52 e1 89 3e
       -0.8161441 -0.03366062 -0.07709575 0.26929718
0000d0 d9 a3 b9 bd fb f1 11 be 79 a6 1f 3e 54 84 42 be
       -0.090644546 -0.14252464 0.15590848 -0.18995792
0000e0 fc 06 f2 3d 89 b2 d2 bb 56 d8 b8 3e bc 9f 19 3e
       0.118177384 -0.0064299745 0.3610255 0.1500234
0000f0 02 ee d5 3e d1 f3 7a 3e ea 23 0e bf da a6 6d 3e
       0.41783148 0.24507071 -0.5552355 0.2320818
000100 7d b4 3f 3f 0c 37 0b be 82 68 5d 3e ad 87 fd 3e
       0.7488478 -0.13595217 0.21621898 0.49517575
000110 dc 00 48 bf da 15 98 bc 77 db 6f be 51 c5 97 bd
       -0.7812631 -0.018565107 -0.23423563 -0.07410682
000120 bb 33 cb 3e b5 5e ba be a7 e0 90 bf ab fb e5 bd
       0.39687905 -0.3640038 -1.1318558 -0.112296425
000130 4f 8f 89 3e 6d 58 06 3f bc de f4 be 62 b5 b0 3e
       0.26867148 0.5247868 -0.47826183 0.34513384
000140 21 e2 c3 bf 2b 74 52 3e 9b 7c 81 3f 03 46 29 bf
       -1.5303384 0.20552127 1.0116152 -0.66122454
000150 65 2f 1b 3f 1c fd 29 bd a6 e0 9d 3d a7 3f 9e 3d
       0.60619193 -0.04150115 0.07708864 0.077269845
000160 76 29 0f bf 11 c8 8c bd e6 af b6 3e 9f 43 0c bf
       -0.5592264 -0.06874097 0.35681075 -0.5479068
000170 49 97 8e 3e 62 5d c2 be 90 3f a5 bc 16 67 35 be
       0.27849796 -0.3796187 -0.02017191 -0.17715105
000180 94 a7 af bf 39 9d b8 3e 53 7c ab 3f de 90 3d bf
       -1.3723016 0.3605745 1.3397316 -0.74049175
000190 5e da a3 be 37 93 6c bf 60 a6 87 be 46 00 d9 be
       -0.32002538 -0.9241213 -0.26494122 -0.4238302
0001a0 06 4f ba 3c 56 76 3a bf a2 d3 3a bf 22 13 8c be
       0.02274276 -0.72836816 -0.72979176 -0.27358347
0001b0 bc 2c 93 be b0 a2 37 be 35 33 b3 bd bb a9 09 3d
       -0.28745067 -0.17933154 -0.08750001 0.033609133
0001c0 2f d5 30 bf 5e 37 c4 be 63 05 8d 3c 72 6a 6d be
       -0.6907529 -0.38323492 0.017214483 -0.23185137
0001d0 ea 84 68 3f 0e 55 3d 3e 08 d8 a2 be de 0a bc 3e
       0.9082781 0.18489477 -0.31805444 0.3672704
0001e0 97 85 0b bf 6f 59 40 3e cb 72 24 3e 26 9f ab 3e
       -0.54500717 0.18784116 0.16059415 0.33519858
0001f0 f9 0a eb 3c 99 04 11 bf c9 92 0c bf 02 3c da be
       0.028691756 -0.5664764 -0.54911476 -0.42623907
000200 e7 ae 25 3e 66 08 52 be 94 d1 8b be fd 05 a9 bf
       0.16180001 -0.20511016 -0.27308333 -1.3204952
000210 12 89 93 bf 3c 04 e7 3e e5 2a cf 3d b5 7d 91 bc
       -1.1526206 0.45120418 0.10115603 -0.017760137
000220 49 cb b2 be b3 ec 79 be bb 9e 25 be 7f 66 7f bd
       -0.3492072 -0.244067 -0.16173832 -0.062353607
000230 f8 0e 0a bf a1 49 12 3f fb 51 98 be 41 3c 43 3d
       -0.5392909 0.571436 -0.29750046 0.047664884
000240 e7 c1 1f bf fc 61 ef bf 7f 69 33 3f 64 a4 e2 be
       -0.62405246 -1.8701777 0.7008285 -0.44266045
000250 b3 61 6e 3f 38 cc c4 be bc 4a c6 be a6 11 a1 3e
       0.9311783 -0.38437057 -0.38728893 0.31458777
000260 2f 92 a4 3e ee c7 05 3f 39 d1 f6 3f 59 29 c3 bf
       0.3214278 0.52258193 1.92826 -1.5246993
000270 86 9c 9b be b3 a3 e5 3e 9d 46 49 3f 70 f3 05 bf
       -0.30392855 0.44851455 0.7862337 -0.5232458
000280 e4 32 69 3e b2 48 40 bf e6 c5 20 3f 2e 02 80 be
       0.2277332 -0.75110924 0.6280197 -0.25001663
000290 f5 43 97 be 70 9f 20 bf 9d 13 af 3e 8f 90 13 3f
       -0.29544035 -0.6274328 0.3419465 0.57642454
0002a0 d4 50 b5 be 7b 35 d7 3e b4 7a eb 3d 91 d7 69 bf
       -0.3541323 0.4203299 0.11498013 -0.91344553
0002b0 45 0e 8c 3f f4 b3 8c 3f a9 ad 54 bf 5d f1 56 3f
       1.0941855 1.0992417 -0.83077484 0.8396204
0002c0 a8 5b b9 be a0 a1 a8 3f 1b 3c a0 3d d2 e5 4a be
       -0.3620274 1.3174324 0.07823964 -0.19814232
0002d0 25 ed a8 be d6 2a c1 bf 68 99 1c bf 77 40 0e bf
       -0.32993427 -1.5091197 -0.6117158 -0.55567116
0002e0 9a 1b 2f be b2 ac d6 bd f2 ae f6 be 73 d0 2b 3f
       -0.17100373 -0.10482158 -0.48180348 0.67114943
0002f0 d5 2b c7 3e 14 62 ec 3e a5 fc 02 3f 1e e8 95 be
       0.3890063 0.46168578 0.51166755 -0.29278654
000300 6c 88 85 bf fd 5b 7f 3d 31 46 ab 3e 89 f8 b6 be
       -1.0432258 0.062343586 0.3345199 -0.35736492
000310 12 1b 0a bf ab 1f 66 bf 6e f2 e9 3d 8b ac 33 be
       -0.53947556 -0.8989207 0.11423193 -0.17546289
000320 8c e9 ca 3d 2c 6d dc be 42 51 a3 3d 79 ee 11 be
       0.09907827 -0.43052042 0.07974483 -0.14251126
000330 6f e9 7c be b8 30 ad be 26 a5 85 3d e3 fd 30 be
       -0.24698423 -0.33826232 0.0652564 -0.1728435
000340 3d 95 2b 3e 42 60 d9 bd 3f 3b dc 3e 67 8c 6f bf
       0.16756149 -0.10614063 0.4301395 -0.9357361
000350 50 7e d3 be 14 75 22 bf 3c e4 90 be 94 5f 28 bf
       -0.41307306 -0.634599 -0.2829913 -0.6577084
000360 03 bc 04 bf 8d 98 5a bf 3a df 17 be 99 df 85 be
       -0.51849383 -0.85389024 -0.14831248 -0.26147154
000370 a6 a5 bd 3d 23 64 55 3e 6f d7 d7 3d 08 47 42 bf
       0.092601106 0.2083898 0.105391376 -0.75889635
000380 e8 c1 b2 3e ad 4f c2 be a3 ff 92 3e 5b fa bf bf
       0.34913564 -0.37951413 0.2871066 -1.4998277
000390 16 f7 d5 3f 90 3a d0 3f 8c 74 df bf c1 e5 96 3f
       1.671603 1.6267872 -1.7457442 1.1788865
0003a0 e2 29 4a bf 4c 1d 9e 3f 0f dd aa bd fd 3f 7e bf
       -0.7897016 1.2352691 -0.08342945 -0.9931639
0003b0 e6 ec a0 bf b4 21 da bf 76 3b b4 bf c5 91 a6 3e
       -1.2572296 -1.7041535 -1.4080646 0.32533088
0003c0 3d ce df be 18 45 5d bf 45 ca 84 bf 2b a6 b3 bd
       -0.43712035 -0.86433554 -1.0374228 -0.087719284
0003d0 6b 67 87 3e 0e e7 ae 3e cb 07 f1 bd b0 ef b0 be
       0.2644609 0.34160656 -0.117690645 -0.34557867
0003e0 46 ea 19 bf ff 7d 92 be fa 4d 09 bf 92 2b 1a bf
       -0.601231 -0.28611752 -0.5363461 -0.60222733
0003f0 72 86 d3 be 5e b7 f0 3e 5d 54 45 be c4 ec 45 3c
       -0.4131351 0.47014898 -0.19270463 0.012080375

lstm.weight_hh_l0 f4 [24, 6]
000000 ad 17 13 bd e7 94 53 bf 6f ce 72 bd 2f 86 3c be
       -0.03591125 -0.8264908 -0.0592789 -0.18410562
000010 7e 1c c4 be 9b ea 91 3e cb 0d bd be 22 be b1 be
       -0.38302988 0.28499302 -0.36924586 -0.34715372
000020 96 d3 e9 bd e2 71 10 3e 61 30 21 3f 4c 97 12 bf
       -0.1141731 0.14105943 0.62964445 -0.5726211
000030 b7 8f 94 bd a9 a2 de 3d 57 73 76 3f 94 11 af bf
       -0.07253974 0.10870869 0.96269745 -1.367724
000040 3c 58 c4 be 69 50 2b bf e7 a1 26 bf f0 8b 11 3d
       -0.38348567 -0.6691957 -0.65090793 0.035533845
000050 d0 cd 93 3e 8a ac 3a 3e 91 fa 77 bf f0 d6 84 bf
       0.2886796 0.18229881 -0.9686671 -1.0378094
000060 69 0b e2 bf 53 9e dd bf 1e 7d 02 3f d7 f4 16 bf
       -1.7659732 -1.7313942 0.50972164 -0.58967346
000070 33 81 01 be 86 c9 ca bf 31 52 b5 3e d7 11 45 3e
       -0.12646942 -1.584275 0.3541427 0.19245087
000080 60 87 7c 3e bc a8 34 3e 3d 67 c2 bf bc 3b c1 bf
       0.24661016 0.17642492 -1.5187756 -1.5096354
000090 bd 9f 10 bf 79 4c a6 be ba f3 0b be 64 7d da be
       -0.5649374 -0.3248022 -0.13667193 -0.4267379
0000a0 e3 67 88 3e d5 b7 6a bd aa b7 95 be cc 25 e6 be
       0.2664176 -0.057304222 -0.29241687 -0.44950712
0000b0 a3 34 97 be 35 a5 4c be e6 6c 1b 3d f4 62 cf bf
       -0.29532346 -0.19984896 0.03794565 -1.6202073
0000c0 ac 77 52 3e 28 04 8f 3d 57 2c b7 be dc 4b 21 3e
       0.20553464 0.069832146 -0.35776016 0.15751594
0000d0 cb c6 b3 3f 81 61 04 3e c8 36 d4 3c 1b c3 b9 3e
       1.4045042 0.1292782 0.025905028 0.36281666
0000e0 7a 9b ac 3d 4a 8c b3 be d4 a2 fd be ec 01 2e bc
       0.08428092 -0.3506797 -0.4953829 -0.010620575
0000f0 63 ec 06 bf 2c 24 49 bf 19 26 cb bd 18 88 1b bf
       -0.5270445 -0.7857082 -0.09919376 -0.6075454
000100 ce 87 c5 bd 33 3e d1 bf 4f f6 13 3f 24 dd 83 3d
       -0.09645043 -1.6347107 0.5779771 0.064386636
000110 99 e3 13 bf 4b b1 25 bd 1f 88 85 bf 6d 24 52 bf
       -0.5776916 -0.040452283 -1.0432166 -0.8208683
000120 db 5d a9 3e 0a b2 8c 3f 5f 80 b7 3e f7 c5 98 3d
       0.3307942 1.0991833 0.35840127 0.07459634
000130 fe db f8 be a1 7a e2 3e d5 f9 5f 3e 16 cb 4a 3f
       -0.4860534 0.44234183 0.21872647 0.79216135
000140 f3 7b 9f 3e b3 8c 4b 3f a3 61 24 bf ab 10 23 3f
       0.31149253 0.79511565 -0.6421148 0.6369731
000150 f9 bd 0e 3f d9 ea 9a 3f b0 e7 96 3e a1 39 04 3e
       0.55758625 1.210292 0.2947364 0.12912609
000160 e6 e6 ff be 98 22 27 3e 49 ad 47 3f 20 0e 33 3f
       -0.4998085 0.1632179 0.7799879 0.6994343
000170 e8 29 74 3f 72 1d 66 be 09 2e bc be 4a a5 91 3f
       0.95376444 -0.2247217 -0.36753872 1.1378567
000180 0d 6c 29 be a2 25 43 bf 24 c3 39 bf e7 66 83 3d
       -0.16545124 -0.762293 -0.72563386 0.064161114
000190 a4 eb 59 3f de 91 13 bf 19 43 70 3f 5a 55 8b 3f
       0.85125184 -0.5764445 0.9385238 1.0885422
0001a0 48 81 7e 3f ef da 05 be a7 fa 06 bf 6f 62 57 be
       0.9941602 -0.13071798 -0.52726215 -0.21033643
0001b0 1f aa ba be 6d c4 e3 3d ac 63 6e be ba 4c 94 3f
       -0.36457917 0.111214496 -0.2328021 1.1585915
0001c0 f4 b0 49 3f 81 ab 84 bf 36 5c fe be ee 7b 83 bf
       0.78785634 -1.0364839 -0.49679726 -1.0272195
0001d0 56 9b 67 3f c6 d0 2d be b8 c3 b8 bd 75 4e 2f c0
       0.904714 -0.16974172 -0.090217054 -2.7391636
0001e0 da fb 88 bf e2 d4 31 bf 41 fe 6b be 0c ce 3f be
       -1.0701859 -0.6946546 -0.23046209 -0.18730944
0001f0 40 28 cc 3d bf 5d 1a c0 43 aa f3 be 3d b5 5b 3d
       0.099686146 -2.4119718 -0.47590837 0.05363964
000200 6e b9 ca 3c 20 c7 1d 3d c9 c5 e2 bf 22 f4 d1 bf
       0.024746623 0.03851998 -1.7716609 -1.6402628
000210 3f 58 ba bf bb e8 90 bf 47 11 2e bf f4 fb 94 bf
       -1.455818 -1.1321024 -0.67995113 -1.163939
000220 63 61 90 3e 0c 44 03 c0 96 41 22 bf 63 d3 21 3f
       0.281993 -2.0510283 -0.63381326 0.63213176
000230 c9 c8 1b 3f 21 01 1a 3f d1 57 12 bf 21 17 36 bf
       0.6085325 0.6015797 -0.5716525 -0.7112904

lstm.bias_ih_l0 f4 [24]
000000 f3 df 9f 3e e7 17 18 3f aa e3 58 3f 9e 90 af 3f
       0.31225547 0.5941147 0.8472239 1.3716009
000010 26 4e 61 3f 40 60 d7 be 37 03 66 3f ea ef 63 3f
       0.8800987 -0.4206562 0.89848655 0.89037955
000020 b2 04 77 3f 92 54 49 3f c5 f5 b0 3e 2e e7 b0 bd
       0.9649154 0.7864467 0.34562507 -0.08637844
000030 c4 51 0f bf b9 78 6e bf a0 f0 92 3c 98 bf fe bd
       -0.5598414 -0.9315296 0.017937005 -0.12438887
000040 c6 18 0b 3f 3a be 96 bb 48 f2 89 3e d3 e4 86 3f
       0.54334676 -0.0046003135 0.26942658 1.0538582
000050 19 7b 99 3f 23 17 c4 be fa 26 98 3f 6c b3 8a 3f
       1.1990691 -0.38298902 1.1886895 1.0836005

lstm.bias_hh_l0 f4 [24]
000000 16 eb 2c 3e 2f 55 76 3f 99 1d 87 3f 3b de a8 3f
       0.16886553 0.9622373 1.0555907 1.3192819
000010 2b 1b 89 3f c7 b0 e0 be 74 bc 80 3f 2d 1a 6d 3f
       1.0711416 -0.4388487 1.0057511 0.92618066
000020 28 9a c9 3f 0e 83 11 3f 8c 4d 73 bc 13 e2 05 3e
       1.575017 0.568406 -0.014850032 0.13074522
000030 92 0b 34 bc e7 eb d2 be d2 a7 29 bf 1e 13 1f be
       -0.010989087 -0.41195604 -0.662717 -0.15534636
000040 07 d3 91 3f 0e 4d 4c be 86 b0 f4 3e 36 24 85 3f
       1.1392525 -0.19951269 0.47790927 1.0401676
000050 fc 50 94 3f 93 eb a9 be 0c 72 6b 3f 29 7c 7c 3f
       1.1587214 -0.3318754 0.91970897 0.98626953

lstm.weight_ih_l1 f4 [24, 6]
000000 45 3d a1 be 93 47 da be 49 f6 67 bf 04 c0 3d be
       -0.31492057 -0.42632732 -0.90610176 -0.1853028
000010 95 01 01 3f 93 bd b1 be 56 9d 3c 3b 9e 20 9e 3e
       0.5039304 -0.34714946 0.0028780303 0.3088426
000020 15 6d f6 bd 78 76 62 3e 3d 9c d4 3e d9 93 04 3e
       -0.120325245 0.22115505 0.4152545 0.12947024
000030 d5 a2 d9 3f f3 29 1e 3f 23 59 71 bd c1 db 4d bf
       1.7002817 0.6178276 -0.058922898 -0.8041344
000040 47 cb 92 bf 05 cb e8 be 28 77 82 be be 6a 91 bd
       -1.1468285 -0.45467392 -0.25481534 -0.071004376
000050 9c 78 fe 3d 77 c1 56 3f af de 07 be 73 09 0a bf
       0.12425348 0.83888954 -0.13268541 -0.5392067
000060 86 8c bc be f6 8b 17 bf 69 3d 60 3d 16 28 f3 be
       -0.3682596 -0.5919794 0.054746065 -0.4749152
000070 a3 dd ce 3e 74 17 61 bf b0 b6 07 c0 fd ff 37 bf
       0.4040347 -0.8792641 -2.1205254 -0.7187498
000080 90 14 44 3e 9f db c9 bf a5 c3 19 bf 22 ef ef bf
       0.19148469 -1.5770148 -0.60064155 -1.8744853
000090 22 bb 2d bf 90 76 b4 bf 39 ee 1c be 84 4c 28 bc
       -0.67863667 -1.4098682 -0.1532525 -0.010272149
0000a0 60 b6 8f 3e 2e ab 9f bc 27 cd 9a be 57 1d 08 3f
       0.2806883 -0.019490805 -0.30234644 0.5316977
0000b0 a0 82 90 3e 54 b8 8a 3e 96 1b 5b be 5b 7c 7c 3e
       0.2822466 0.27093756 -0.21397242 0.24656813
0000c0 36 29 e1 3e 5a fb e6 3e 75 d0 ef be ae 82 ad bf
       0.43976754 0.4511364 -0.46838728 -1.3555505
0000d0 b2 57 cc be 54 2d 4e bf 35 c2 9b bd 17 28 e3 3d
       -0.39910656 -0.80537915 -0.076054014 0.11091631
0000e0 73 2f a6 3e e6 20 3c bd b6 0e 0f 3d 38 56 fa bb
       0.32458076 -0.045929812 0.03492614 -0.0076396726
0000f0 01 43 bf be 09 e8 a7 be 57 fa fd 3c d6 f2 cb 3d
       -0.37355807 -0.32794216 0.03100316 0.09958427
000100 e0 32 35 be d4 82 1b bf cf 6d e2 bf e0 cd cc be
       -0.17695189 -0.607465 -1.7689761 -0.4000082
000110 ec 56 35 bd ff 23 0c bf 3f 3d 49 be 71 04 8c bf
       -0.04427235 -0.54742426 -0.1965227 -1.0938855
000120 4a bf bc 3d f4 04 51 be 51 f7 5c 3d 59 e8 ed 3c
       0.09216173 -0.20412046 0.053946797 0.029041456
000130 9f 77 ed be f6 32 26 3e 10 e7 0f 3f 89 dd 62 3e
       -0.46380326 0.16230378 0.5621195 0.22154821
000140 32 e7 ca be 49 fc 43 bf 49 0c 6c be 7f b1 91 be
       -0.39629513 -0.7655683 -0.23051561 -0.2845573
000150 fd ac f3 3e ac 18 8b 3f 63 48 d0 3e d9 bb 91 3f
       0.47592917 1.0866904 0.40680227 1.1385452
000160 9a 8a 21 3f f2 3e 4b 3f 66 61 17 bf 95 d5 be bc
       0.63102114 0.7939292 -0.59132993 -0.023295203
000170 62 be 85 be 95 10 31 3f 99 4b 9e 3e 6f 2c fd be
       -0.26121813 0.6916593 0.3091705 -0.49447963
000180 fd 2b 81 3e a3 16 73 be 10 9e d0 bd d3 63 9a be
       0.25228873 -0.23739104 -0.10186398 -0.30154285
000190 b8 12 59 be 3b 96 a8 be 4a ae 02 3f 37 3f fb b9
       -0.21198547 -0.32927117 0.51047194 -0.0004792155
0001a0 f5 e2 bd be 02 25 5c 3e f9 ce 83 3d 22 cb 99 3d
       -0.37087217 0.21498492 0.06435961 0.07509448
0001b0 65 60 02 bf 6b a8 f2 bf 37 1b 23 c0 40 df 4e bf
       -0.50928336 -1.8957647 -2.548536 -0.808094
0001c0 44 b0 98 bf 5d d2 81 bf 60 fa 8f bf 25 ef df 3d
       -1.1928792 -1.0142323 -1.1248283 0.10934285
0001d0 4e b3 3a 3f 7b b1 ef 3f 9a 00 fc 3f 46 e6 ea 3f
       0.7292985 1.8726038 1.9687684 1.8351524
0001e0 a0 e0 f1 3f 98 c3 f0 3e 98 c9 d1 be 86 31 49 bf
       1.8896675 0.47024226 -0.40974116 -0.7859119
0001f0 47 93 a8 bf 8a e3 d3 bf 82 2e 79 be c6 18 8e 3e
       -1.3169945 -1.6553814 -0.24334148 0.27753276
000200 86 d3 3c 3e 97 05 b5 3f 1e 9e 0e 40 44 10 f8 3f
       0.18440065 1.4142331 2.2284007 1.9379964
000210 10 2a 3c bf 4a cb 84 bf 97 ff c8 bf a9 44 ac bf
       -0.7350168 -1.0374539 -1.5703 -1.3458453
000220 58 ba 94 bf 9f 4a 30 c0 f2 4b f5 bf ac 7a 49 bf
       -1.1619368 -2.7545545 -1.9163802 -0.7870281
000230 04 00 32 bf 1c d0 81 bf e9 a2 38 3c 20 6c ba bf
       -0.69531274 -1.0141635 0.01126931 -1.4564247

lstm.weight_hh_l1 f4 [24, 6]
000000 d8 06 8d bf a5 da 27 3e c9 e5 99 3e a8 60 3e 3e
       -1.1017714 0.16392 0.30058125 0.18591559
000010 2c 21 43 bd 47 7b 0a 3d af bb 5e bf 98 b9 63 bf
       -0.047639057 0.033808973 -0.8700513 -0.8895507
000020 6e 70 dd be 36 b2 34 3f 97 82 89 bd 39 f6 dc be
       -0.4324984 0.7058443 -0.06714361 -0.43156603
000030 68 17 f8 3b 91 b7 05 3f a0 19 3d 3d b0 bf 4f be
       0.0075711496 0.52233225 0.046167016 -0.20287967
000040 f6 45 ba be b0 fc 24 3f d4 d3 b6 be 82 33 7b bf
       -0.363815 0.6444807 -0.35708487 -0.9812547
000050 36 76 a4 3e 4e df ed 3e 28 85 fb 3e 41 dd c6 be
       0.32121438 0.4645943 0.49125028 -0.38840678
000060 fe 89 1b 3d 18 06 eb be 08 f4 c6 bd 5b 07 e9 3e
       0.037973396 -0.45903087 -0.09714514 0.45513424
000070 71 57 0b 3f 2e 44 44 bf f0 57 6e be b9 3a 2c 3f
       0.544303 -0.76666534 -0.23275733 0.67277104
000080 6d 7f d8 bd 91 80 13 bf b4 99 bd bd 7b db 9b be
       -0.105711795 -0.5761805 -0.09257832 -0.30440888
000090 fd 9f 2f bf 10 13 0f 3e 3b a0 c0 3e 2f 6c 9f 3e
       -0.686035 0.13972116 0.37622246 0.31137225
0000a0 9a 96 b4 3e 59 e8 ac be d2 31 ab bf 76 15 54 bf
       0.3527115 -0.33771017 -1.3374579 -0.82845247
0000b0 63 a2 95 3d 42 f8 22 3f d5 9a 75 3e 03 6a 0b bf
       0.073063634 0.6366006 0.23984845 -0.54458636
0000c0 fc 1d 03 3e a9 4a 36 3e d4 cc f1 bd eb 4a 8e be
       0.12804407 0.17801918 -0.11806646 -0.27791533
0000d0 74 10 18 bd 54 16 f6 3d c1 ec 70 bf 72 ca 00 bf
       -0.037125066 0.120159775 -0.9411126 -0.5030891
0000e0 dd 07 4a be 45 c4 4d 3f 9d 18 c8 3e 17 1c 40 bf
       -0.19729562 0.8037761 0.39081278 -0.7504286
0000f0 10 d2 44 3e 7f 54 6e bf 03 f2 13 bf 10 7d 4a 3f
       0.19220757 -0.9309768 -0.57791156 0.7909708
000100 fa 37 f5 3e 59 f8 19 bf 86 14 f5 be ab 39 c9 be
       0.4789427 -0.60144573 -0.4786722 -0.3930181
000110 2d 39 64 bf fd 82 8d 3f 95 2f 8e 3f 6d be ce bf
       -0.89149743 1.10556 1.1108271 -1.6151863
000120 9d 5d 87 3e 32 b9 4c 3f e6 ef d3 3e af c0 21 bf
       0.2643861 0.79970086 0.41393965 -0.63184637
000130 a5 cc 33 bf a2 df 2e 3f 99 fe aa 3f 2a 30 22 3f
       -0.7023414 0.68309987 1.3358947 0.6335474
000140 c2 91 89 3d 05 32 6a be 3a 67 0e 3d 0f 77 0e 3e
       0.06717254 -0.22870643 0.034766413 0.13912605
000150 4b 0a 6d 3e a1 6c 84 bd cb 3b 4e be 50 30 2a be
       0.23148458 -0.06466032 -0.20139997 -0.16619992
000160 e0 96 86 be 39 44 77 3e 08 e5 f0 be ce b2 21 bf
       -0.26286983 0.24147119 -0.47049737 -0.6316346
000170 3d 7b bb be 05 72 a6 3e 96 81 22 3e 63 f9 25 bf
       -0.3661746 0.32508865 0.15869746 -0.6483366
000180 69 3b 0e 3d f3 20 54 be d5 7b 10 bf fe af 0d 3f
       0.034724627 -0.20715694 -0.5643895 0.5534667
000190 e0 19 2c 3f 14 cd 13 bf 74 37 3d 3f f9 c5 e9 3e
       0.6722698 -0.577348 0.7391274 0.45658854
0001a0 3f a8 76 bd be ba ae be 1b ba 3c bf 77 42 a6 3e
       -0.060219046 -0.34126848 -0.73721474 0.32472584
0001b0 1d 76 26 bf 9a e1 5e 3e 46 7c 42 bd b6 fc 3d 3c
       -0.65023977 0.21765748 -0.047481798 0.0115958955
0001c0 00 dc 9c 3e a2 24 d8 bd 45 e1 5c bf db 41 aa bf
       0.30636597 -0.10553862 -0.86281234 -1.3301347
0001d0 13 a0 6a 3f 57 f7 b5 3f 28 1a 15 be 34 2a b5 3e
       0.91650504 1.4216107 -0.14560759 0.3538376
0001e0 20 29 3d 3e 5e 29 cc 3e 6f 25 a1 bf 95 ae 08 be
       0.18472719 0.3987531 -1.2589549 -0.13347848
0001f0 9d 06 09 3d 65 4c 44 3e fa 06 3b be 57 49 8e bf
       0.033453573 0.19169767 -0.1826438 -1.1116132
000200 c3 ef 92 3f 63 5d e0 3f 88 74 f9 3b 07 e7 a7 3e
       1.147942 1.7528499 0.0076127686 0.32793447
000210 e6 87 84 bd 96 84 92 3f 89 71 e3 be e6 4e 25 bf
       -0.06471233 1.1446712 -0.44422558 -0.64573514
000220 f0 00 07 3d e6 fb 96 3e 28 c7 12 bf d8 6c 10 bf
       0.03295988 0.29489058 -0.5733514 -0.5641608
000230 36 73 07 bf 2a 5e 08 3f 19 7a 0e 3f d4 31 52 bf
       -0.5291017 0.5326868 0.55655056 -0.8210728

lstm.bias_ih_l1 f4 [24]
000000 be ce 98 3e e5 c5 b0 3e 28 b9 ca 3d c5 a0 19 3f
       0.29845232 0.34525982 0.09898597 0.6001094
000010 c7 dc 04 3f 33 af 02 bf 78 61 7f 3c 68 e2 db 3e
       0.5189938 -0.5104858 0.015587203 0.42946172
000020 d4 13 84 be b5 1b e4 3e 0e fc 06 3f 5b a0 1e 3f
       -0.25796378 0.4455239 0.52728355 0.61963433
000030 41 17 e9 bd 8c e1 31 be b0 8b 07 3c 45 4d 4e 3f
       -0.113813885 -0.17371196 0.00827305 0.80586654
000040 71 23 05 3f a8 34 07 bf 02 8b b8 be 1c 71 39 3f
       0.52007204 -0.5281472 -0.36043555 0.72438216
000050 a9 22 1d 3e da f4 13 3f f3 5e 4a bf b0 0b 26 3f
       0.15345253 0.5779549 -0.7905113 0.64861584

lstm.bias_hh_l1 f4 [24]
000000 8e 75 5c 3e 08 ff 60 3e b6 74 ed be 62 d9 b4 3e
       0.21529219 0.21972287 -0.46378106 0.353221
000010 76 ca b0 3e a7 6e c0 be 43 06 8a 3e c4 2b 4b 3f
       0.34529465 -0.3758442 0.26957902 0.79363656
000020 44 b3 c3 be 8e 0f ea 3e ec cc 46 3f 80 4d e7 3e
       -0.38222706 0.45714992 0.77656436 0.45176315
000030 a5 af 23 be ad 5f 48 bf cd 16 02 3f 35 cd 39 3f
       -0.15984972 -0.7827099 0.5081604 0.72578746
000040 fc 6d ad 3e b0 9c 26 bf e2 c4 e7 be c5 3a 66 3e
       0.33872974 -0.65082836 -0.45267397 0.22483356
000050 82 d1 36 3e 48 8b d2 3e e8 52 43 bf 44 c4 84 3f
       0.17853358 0.41121888 -0.7629838 1.0372396

lstm.weight_ih_l2 f4 [24, 6]
000000 a1 4d 90 3c 42 52 32 bf ad 05 0e bf 65 f1 38 3f
       0.017615141 -0.69656765 -0.5547741 0.7224334
000010 7d 2f 3b 3f bc 12 5e bf f7 de eb bf 9a 27 cc be
       0.73119336 -0.86747336 -1.8427418 -0.39873964
000020 9c 20 4d bf b0 da 93 bc 20 35 c0 3f 0a ef 5d bf
       -0.8012788 -0.018048614 1.5016212 -0.8669287
000030 df 6e 46 3f 2d f3 4a bf 3f b4 0c 40 fa 60 bc 3f
       0.77512926 -0.79277307 2.1985013 1.4717095
000040 d6 b7 7e bf de 25 8f 3f ae bb 28 3f 6e 39 41 bf
       -0.9949926 1.1183431 0.65911376 -0.75478256
000050 11 3b 00 3e a5 7c 22 3f f8 21 83 3e 4f 8b 25 3f
       0.12522532 0.6347144 0.25611854 0.64665693
000060 a0 99 1b 40 1a 16 20 3f 85 7e 2a 3f af 10 9e be
       2.4312515 0.62533724 0.66599303 -0.30872104
000070 cd 04 79 bf 92 e1 b1 3f d7 72 b1 3f 6f b4 2e 3e
       -0.9727295 1.3896964 1.3863171 0.17061017
000080 e7 7e 88 3f 74 8d 4b be b9 19 91 bf 67 e9 eb 3f
       1.0663728 -0.19878179 -1.1335975 1.8430604
000090 ce 2c d0 be 5d 6b 58 be 25 7a 3b bf 1d b4 ea 3d
       -0.40659183 -0.21134706 -0.7323325 0.11460135
0000a0 2b 9a a3 3e cd e8 ab 3d 0a a4 79 be 0f 21 d4 be
       0.31953558 0.083940126 -0.24378982 -0.41431472
0000b0 35 5e 94 bf 11 a0 a4 3d 3b 90 9a 3f 47 61 19 bf
       -1.159125 0.08038343 1.2075266 -0.5991406
0000c0 57 71 c3 bf c3 d4 9e bf d5 c5 29 3e 24 d7 bd 3f
       -1.5268964 -1.240868 0.16579373 1.4831281
0000d0 18 19 07 3f ab 77 2e bf b3 68 ef 3e d1 b1 22 bf
       0.52772665 -0.6815135 0.46759567 -0.63552576
0000e0 b9 80 08 be 31 64 5d 3f 05 4c 57 be df 5d 37 bf
       -0.13330354 0.86481005 -0.21025093 -0.7162761
0000f0 67 33 76 3f 5e 9b 8b be 5a e9 1b 3f 82 d5 6a 3f
       0.96172184 -0.27266973 0.6090294 0.9173204
000100 59 4f 7b be bb 9c a5 be a9 f4 70 3f 7b f8 40 3f
       -0.24541987 -0.32346138 0.9412332 0.7537915
000110 f6 3c a8 bd 69 a0 af be 1e b1 0b bf 48 98 a5 3e
       -0.082147524 -0.3430207 -0.54567134 0.32342744
000120 f9 9e f4 3d 4a c2 6a bf f4 de e0 bd 10 c2 90 3f
       0.11944384 -0.9170271 -0.10980025 1.1309223
000130 ea b8 72 be c9 bd 65 3e 01 48 ef 3f d2 81 fa be
       -0.23703352 0.22435679 1.8693849 -0.4892717
000140 d3 2d b5 3f c3 ec 9f 3e 1c 39 07 c0 8c 7c ad 3f
       1.415461 0.31235322 -2.1128607 1.3553634
000150 57 69 64 3f 13 29 5f bf 90 c3 ab 3e 7f 4b 38 3f
       0.89223236 -0.8717205 0.3354764 0.719902
000160 0d b6 be be 22 ba 7a be 6d cb 86 3f c2 2d 1f bf
       -0.3724827 -0.24485067 1.0530831 -0.62179196
000170 2a f1 b3 3f 1c 85 84 3f da b9 8a bf 6e 0d aa 3d
       1.4057972 1.0353122 -1.0837967 0.08303343
000180 b2 6d ca 3e d5 c6 9a 3e 56 ff a3 bf 67 cb 60 bf
       0.39536816 0.30229822 -1.2812297 -0.8781037
000190 e0 20 f0 3e a1 8b d5 be 93 20 67 3e e8 08 0c 3f
       0.46900082 -0.4170809 0.2257102 0.5470109
0001a0 17 12 3d bf df 29 03 bf 91 72 5b 3e 8c f9 5d bf
       -0.7385573 -0.51235765 0.21430422 -0.86708903
0001b0 59 33 12 3f 1d 37 5d 3f ee 83 c5 be ea fe 7b bf
       0.571096 0.8641222 -0.38577217 -0.98435843
0001c0 58 d4 f2 bd 0d 2c d5 3e b2 2f 11 bf 29 0f 22 3f
       -0.118569076 0.4163517 -0.567134 0.6330438
0001d0 5d 1a fb bf 24 66 8a bf 1f 38 97 3f 48 fa 85 be
       -1.961742 -1.0812421 1.1814002 -0.26167512
0001e0 e5 52 01 bf 97 7e 64 bf a0 ad 30 3e 05 fe 28 3f
       -0.5051711 -0.8925566 0.17253733 0.66012603
0001f0 65 9a 87 3f 72 54 2c bf f7 b8 22 40 65 37 25 3e
       1.0593992 -0.67316353 2.5425394 0.16134413
000200 dc 02 d8 3f fa 9f 51 3b c1 79 01 c0 6c 78 1a 40
       1.6875873 0.0031986223 -2.0230563 2.4136
000210 4d 30 f8 3e e9 dc 48 3f e1 3d af 3f e9 ae 82 be
       0.4847435 0.7846208 1.3690759 -0.2552407
000220 9d bc 63 bf c6 23 70 3f d0 82 44 3e 40 68 13 3e
       -0.88959676 0.93804586 0.19190526 0.14395237
000230 c1 75 c2 bd 6c a7 31 3d a5 70 93 3e 2a b1 90 3e
       -0.09495116 0.043372557 0.28796878 0.28260165

lstm.weight_hh_l2 f4 [24, 6]
000000 a4 94 09 3e 31 95 27 bf 29 08 d7 3f 1d 3c df 3e
       0.13435608 -0.65462023 1.6799365 0.4360055
000010 5b 01 81 3c 7c 48 db be b6 52 24 be ba 97 63 bf
       0.015747717 -0.4282874 -0.16047177 -0.8890339
000020 ea 49 a2 3e f5 66 c3 3e 90 3c 02 bf 98 b2 55 3e
       0.31697017 0.38164487 -0.5087366 0.2086891
000030 2e df 37 bf 1f cf d4 3f 6a 46 b9 bf 99 80 92 3e
       -0.7182492 1.6625708 -1.4474614 0.28613737
000040 93 d3 61 be e9 17 9a bd 73 57 76 be 80 3b 5e 3e
       -0.22053365 -0.07524092 -0.24056797 0.21702385
000050 9a 24 48 3f b9 f5 c9 bc 59 c4 96 be 0a c2 ae 3e
       0.7818085 -0.024653303 -0.29446676 0.34132415
000060 6c 6a 37 3d 47 d1 80 3f f2 a3 01 3f a8 ee 38 3f
       0.044779226 1.0063866 0.50640786 0.7223916
000070 1b 65 0a bf c4 f9 f5 3d 4d e4 82 be f4 e0 d3 3e
       -0.54060525 0.1201053 -0.25564805 0.41382563
000080 ea 6f 73 3e 3e 90 31 bf 6f 16 c0 3e 86 e3 16 3e
       0.2377316 -0.6936072 0.37517115 0.14735231
000090 b6 11 91 3e 6c 90 79 3e 74 27 81 3f a2 3c 92 3e
       0.28333825 0.24371499 1.0090165 0.28561884
0000a0 01 74 05 be fb b2 c3 be ae 7f 88 be 8c 21 dc bf
       -0.13032533 -0.3822249 -0.26659912 -1.7197738
0000b0 76 a1 31 3f c0 8b f1 3c 6d dd b3 3e f4 59 af 3e
       0.69386995 0.029485583 0.35129872 0.34248316
0000c0 76 96 ea be 48 6d cb be 83 b3 9a bd 22 a7 46 3f
       -0.45817918 -0.39731812 -0.075537704 0.77598774
0000d0 f5 d7 46 bf fe 00 a8 3e 28 10 34 3f d8 46 d2 be
       -0.77673274 0.32813257 0.7033715 -0.41069674
0000e0 b3 24 98 3f 32 12 f7 3e bc d9 83 bb 0b 3f 4c be
       1.18862 0.4825607 -0.0040237587 -0.19945924
0000f0 27 e9 a6 3e 22 34 28 bf 55 43 02 40 53 bb 90 3f
       0.32599756 -0.6570455 2.0353596 1.1307167
000100 e9 63 27 bf a8 4e 9f be c9 ca f9 be 29 f1 1c be
       -0.65386826 -0.31114697 -0.48787525 -0.1532637
000110 51 05 5e 3e e2 aa 2e bf 44 23 8e 3e 6d ca 97 be
       0.21681716 -0.68229496 0.2776128 -0.29646626
000120 30 e4 36 3f 1a 4b 7c bd 40 cd 0d 3f f1 28 18 3f
       0.71441936 -0.06159506 0.5539131 0.5943747
000130 e0 5d 9d 3e 12 27 f5 be 9f 2a ab bb 3a 67 55 3d
       0.30735683 -0.4788137 -0.0052235867 0.052100398
000140 52 01 7c be 2a 92 98 3d 3a 0e bf 3d f1 b4 c4 be
       -0.24609879 0.074497536 0.093288854 -0.38419297
000150 b5 44 1a bc 75 53 00 bf 2c 9b 12 3f cf 78 85 3d
       -0.009415795 -0.50127345 0.57268023 0.06517183
000160 f9 07 bf be 7b 12 85 bf a6 a8 8e 3e 85 2f 76 bf
       -0.3731077 -1.0396265 0.27863044 -0.9616626
000170 89 89 e3 3d 0d b6 f4 3e 34 9e 80 bf ed de 1e 3e
       0.11110217 0.47795144 -1.004828 0.15514727
000180 bf b7 a4 bd 1a 56 2b bf d5 51 38 3e 7f 07 d3 be
       -0.08042859 -0.66928256 0.17999966 -0.41216657
000190 a3 f8 d6 3e 28 84 a9 be d8 67 10 3e ce 60 97 3d
       0.4198657 -0.3310864 0.14102113 0.07391511
0001a0 22 df 2b 3f 25 b1 b5 be 69 42 23 bc 6f d7 5b 3e
       0.6713735 -0.35486713 -0.009964564 0.214689
0001b0 12 06 bb bf e7 3a ba 3e 2a 69 d0 3e 80 c4 b1 bf
       -1.4611228 0.36373064 0.40705234 -1.3888092
0001c0 f7 4d eb 3e 4d 43 85 be 28 3f 45 3f 45 b7 23 bf
       0.4595792 -0.2602791 0.77049494 -0.6395152
0001d0 5d a9 a4 3f 77 09 01 c0 b6 86 85 3f d7 f4 17 3f
       1.2864186 -2.0162027 1.0431736 0.5935797
0001e0 54 90 91 3e aa bf 17 40 41 a6 2c 3f 37 f3 96 3f
       0.28430426 2.3710732 0.67441183 1.1792973
0001f0 8e e4 cc be 61 59 05 bc 7c e8 46 be 21 7f 72 3f
       -0.40018123 -0.008138985 -0.19424623 0.94725233
000200 d8 d2 23 3f a4 f9 4e 3e 15 cd 8d be 3d 90 6a be
       0.639936 0.20212418 -0.27695528 -0.22906585
000210 cd 64 ca bd 6a be b9 3d 2f 7f 0f 3e 7a 5a a2 bf
       -0.098825075 0.09069522 0.1401336 -1.2683861
000220 60 aa a2 3e 03 85 77 bd 2a 3f 23 bf 9b 3c 3e 3f
       0.3177061 -0.060429584 -0.63768256 0.74311227
000230 cc aa 4a be 73 e6 37 bf 9a d7 03 3f f9 64 e2 bc
       -0.19791716 -0.7183601 0.51500857 -0.027636038

lstm.bias_ih_l2 f4 [24]
000000 38 05 6e 3f a6 86 1c 3f a1 a7 bf be 86 66 39 3f
       0.92976713 0.6114296 -0.37432578 0.72422063
000010 6d d7 21 bc 89 38 0d bf 39 b0 4a 3e f7 e1 cb 3d
       -0.009878022 -0.5516439 0.19793786 0.09955209
000020 06 b3 41 3f 12 7b 98 3f ed 47 33 3f bf d5 cb bd
       0.75663793 1.1912558 0.70031625 -0.09952878
000030 a9 04 f8 3e 06 e1 d1 3d 24 84 4b 3e 94 84 b2 3e
       0.48441055 0.10247998 0.19874626 0.34866774
000040 c6 d8 f8 be 35 df 1a bf 7e e9 0b bf cd b9 e2 be
       -0.48602885 -0.60496837 -0.54653156 -0.4428238
000050 5a ff 82 3f 1c c4 40 bc 39 d1 8c be 08 14 a0 be
       1.0234177 -0.011765506 -0.27503374 -0.31265283

lstm.bias_hh_l2 f4 [24]
000000 2e aa 09 3f 4c 9f d0 3e 2b 4b 39 bf e5 35 c5 3e
       0.537753 0.40746534 -0.7238032 0.3851768
000010 b1 da d5 3d 60 9e ae be 2a 1a 55 3e 4d f2 04 3f
       0.10442103 -0.34105206 0.20810762 0.5193222
000020 79 61 b1 3f a9 40 70 3f ab 79 f2 3e de c9 20 bf
       1.3857871 0.93848664 0.4735845 -0.62808025
000030 05 9f f6 3e 7a 39 e6 be 3a 81 5e 3f 5b 4f 78 3f
       0.48168197 -0.44965726 0.86915934 0.96996087
000040 58 13 05 bf bb 83 16 bd ec 82 49 bf 03 dd 55 bf
       -0.5198264 -0.03674672 -0.78715396 -0.8354036
000050 65 b4 09 3f d2 73 bd 3e 96 d9 5d be f2 51 11 be
       0.53790885 0.37002426 -0.21665034 -0.14191416

fc.weight f4 [1, 6]
000000 aa 3e 0c 3d ab 04 84 bf 07 80 d7 be c4 09 74 bf
       0.03423945 -1.0313925 -0.42089865 -0.953274
000010 27 1c 63 3e 3b ad aa 3d
       0.22178708 0.08333822

exp_avg f4 [24, 28]
000000 1f 91 7c 36 5f 5e 7f 35 f5 4f 79 36 b4 5b 2d 36
       3.7635398e-06 9.513223e-07 3.7150432e-06 2.5832387e-06
000010 74 e4 63 35 d7 68 90 35 63 7e d1 36 c7 a6 a6 b5
       8.489653e-07 1.0759348e-06 6.2433987e-06 -1.2416502e-06
000020 2b 81 8f 34 43 50 cc 36 91 b9 85 36 41 7a c2 b5
       2.6729808e-07 6.0890175e-06 3.9853117e-06 -1.4489707e-06
000030 47 e3 b5 b6 b0 8d 09 37 9a dc 97 b5 68 31 a0 b5
       -5.420679e-06 8.1988255e-06 -1.131458e-06 -1.1935308e-06
000040 03 43 81 34 a6 b9 3e b6 ec 73 c1 35 47 b1 59 35
       2.407688e-07 -2.8420268e-06 1.4413358e-06 8.109677e-07
000050 a9 e6 13 35 74 ed d4 34 c4 34 4e b6 47 bc af 34
       5.509742e-07 3.9660847e-07 -3.0727106e-06 3.273328e-07
000060 17 72 72 34 2d c3 1c b5 9d 9d 53 b6 06 72 b1 36
       2.2579512e-07 -5.8398547e-07 -3.1533193e-06 5.288285e-06
000070 e3 82 60 39 e1 60 a1 b9 d7 d6 5f 39 c3 f4 7d b8
       0.00021411064 -0.00030780493 0.00021346971 -6.0547853e-05
000080 3b e9 62 38 53 b7 af 38 a8 5f 44 b9 6f 6c 9c 38
       5.409981e-05 8.378797e-05 -0.00018727651 7.458857e-05
000090 10 5c 7b b8 8b 5f b2 38 7f e7 b5 39 b6 96 51 b9
       -5.9928803e-05 8.505498e-05 0.00034695488 -0.00019987937
0000a0 68 d4 e9 b8 62 e0 5d b9 ee ec 65 b7 05 89 c5 b8
       -0.000111498695 -0.00021159792 -1.3704628e-05 -9.419214e-05
0000b0 0c 0d 24 39 c8 6a 1d b8 a5 48 fb 37 2e c7 c2 37
       0.00015645119 -3.7531165e-05 2.995536e-05 2.3219352e-05
0000c0 80 eb ab 36 35 6d 72 ba 53 37 de b7 15 aa 92 38
       5.123613e-06 -0.00092478405 -2.6490225e-05 6.993503e-05
0000d0 87 65 1d 39 f7 73 1e 39 5a 64 59 39 28 ff 4d 39
       0.00015010509 0.00015111254 0.00020732117 0.00019645377
0000e0 d6 6a b0 ba a6 49 b1 38 f7 6c b0 ba 15 b1 89 ba
       -0.0013459574 8.453736e-05 -0.0013460208 -0.0010505045
0000f0 3b b1 15 3a 28 81 f6 39 3d e9 5f ba fa a7 67 3a
       0.00057103083 0.00047017005 -0.000854153 0.0008836981
000100 80 aa 9b ba 0b 13 51 b9 78 0d 1d ba 32 1e 0e b9
       -0.0011876374 -0.00019938887 -0.00059910817 -0.00013553424
000110 f4 39 58 39 d8 a1 78 ba 17 3f a2 ba 77 e5 71 3a
       0.00020620954 -0.0009484566 -0.0012378421 0.00092276133
000120 ee 60 6e 39 52 ce ea 37 c2 90 2f ba 3b fb 75 39
       0.00022733558 2.799105e-05 -0.0006697291 0.00023458611
000130 2e 01 6b 39 f2 f6 74 39 ae 4d 46 39 b6 2a 76 39
       0.00022411786 0.00023361648 0.0001891169 0.00023476299
000140 f2 01 5a ba e0 b8 2a 39 5c ac 6e 39 d9 3e 86 b9
       -0.000831633 0.00016281335 0.00022761658 -0.00025605297
000150 24 b6 2d b6 b0 e3 e1 b5 d7 84 2d b6 4c 76 5f b6
       -2.5885029e-06 -1.6830072e-06 -2.5856332e-06 -3.3298447e-06
000160 23 18 af 35 f8 5a b8 35 27 f5 b8 b6 92 b5 38 36
       1.3045541e-06 1.3735544e-06 -5.512167e-06 2.7523824e-06
000170 b0 32 94 b5 47 32 93 35 be 8c f2 33 a3 51 21 36
       -1.1041611e-06 1.0966986e-06 1.1294604e-07 2.4038388e-06
000180 5c fd 79 b6 38 b4 c0 b6 0b 09 10 b6 98 6e e4 35
       -3.7251366e-06 -5.743026e-06 -2.1462936e-06 1.7019511e-06
000190 f7 3f 48 35 8f 7b f7 b6 ec e4 81 35 e7 3c 72 35
       7.4598887e-07 -7.3755577e-06 9.677874e-07 9.024065e-07
0001a0 c9 96 2d 35 60 6e 65 b4 c7 79 9d 35 e2 87 42 35
       6.4666943e-07 -2.1367441e-07 1.1732853e-06 7.246837e-07
0001b0 fc 85 0d 34 78 2a 0c 35 05 bb 2e 35 8c 8b 49 35
       1.3180392e-07 5.2215864e-07 6.50922e-07 7.50814e-07
0001c0 ff 82 e6 ba 2a c8 49 b9 41 a6 e6 ba b9 1b b1 ba
       -0.0017586647 -0.0001924342 -0.0017597155 -0.001351229
0001d0 59 52 39 3a 3d 81 14 3a 6d dd 81 ba a4 e4 92 3a
       0.00070694607 0.000566501 -0.0009907909 0.0011207056
0001e0 4a 56 c3 ba b0 7d 51 39 6e fb bc ba 4c 3f f1 b9
       -0.0014903035 0.00019978615 -0.0014418194 -0.00046014262
0001f0 48 68 21 37 b4 85 90 ba 80 20 dd ba e4 d6 b5 3a
       9.620628e-06 -0.0011026175 -0.0016870648 0.0013873246
000200 68 10 bc 38 c5 9a 0f 39 b3 2b 50 b9 a6 94 bf b8
       8.9675945e-05 0.00013695199 -0.00019852705 -9.135278e-05
000210 b2 78 ac b9 06 35 19 39 df 7d 69 38 fe a8 cd 38
       -0.00032896321 0.0001461097 5.5668756e-05 9.806639e-05
000220 81 c1 08 39 ec 46 d3 b8 92 46 d5 b8 1e 6c 2e 39
       0.00013042057 -0.00010074474 -0.00010169776 0.0001663421
000230 36 b3 e2 b8 86 74 96 38 d4 d2 cf b8 75 d1 c1 b8
       -0.000108099004 7.1742616e-05 -9.909799e-05 -9.2419716e-05
000240 3a 88 15 38 20 ce d3 37 9d 0f 0f b9 c3 f0 94 38
       3.565124e-05 2.5249145e-05 -0.00013643359 7.102035e-05
000250 72 65 93 b8 b8 61 09 b8 ae fc ea b6 38 71 cc 36
       -7.028402e-05 -3.2754353e-05 -7.003159e-06 6.092854e-06
000260 49 53 07 38 3f 8e 28 b9 e1 e6 83 b8 71 9c ab 36
       3.2264074e-05 -0.0001607472 -6.289571e-05 5.1144093e-06
000270 10 93 84 37 d9 67 8c 37 3b bc 4f 37 20 f4 93 37
       1.5804108e-05 1.6737658e-05 1.2381987e-05 1.7637445e-05
000280 a6 ae bd 36 5a d6 2b 38 5b 35 51 37 c6 20 68 37
       5.6529707e-06 4.0969207e-05 1.2469794e-05 1.3835908e-05
000290 9b 1e 1e 37 a1 1e 2b b9 2e ce 02 37 0a b5 31 37
       9.42466e-06 -0.00016319241 7.796609e-06 1.0592174e-05
0002a0 f2 f1 2e b6 cb f7 fd 35 03 14 2e b6 84 e2 1a b6
       -2.6068851e-06 1.8922086e-06 -2.5939669e-06 -2.3079638e-06
0002b0 86 73 66 36 67 71 62 36 78 af 14 b5 bf da 43 36
       3.4339914e-06 3.3742633e-06 -5.5389637e-07 2.9184591e-06
0002c0 ec 37 43 b6 76 0e b5 b5 9f 99 bc 35 2b 22 69 b5
       -2.9089815e-06 -1.348976e-06 1.4051801e-06 -8.6848985e-07
0002d0 df 3a 1c b5 e5 b6 74 34 65 ac 8e b6 08 b3 d7 35
       -5.82002e-07 2.2790807e-07 -4.251999e-06 1.6070853e-06
0002e0 2b 1b b7 35 11 b1 85 b5 b7 2c ec 35 2e bd e8 35
       1.3642469e-06 -9.960805e-07 1.7596384e-06 1.7340406e-06
0002f0 9e 5d 22 36 d9 f3 12 34 df 7e 41 b6 9f 0f 70 b4
       2.4194374e-06 1.3686021e-07 -2.883309e-06 -2.2357425e-07
000300 32 9f eb 35 ae d8 10 35 27 ed 67 b4 cb 34 b1 b6
       1.7555196e-06 5.395949e-07 -2.1599827e-07 -5.281157e-06
000310 19 e3 8b 3a dd 9c ce b9 fe a3 8b 3a 27 3e 30 3a
       0.0010672539 -0.00039408254 0.0010653732 0.00067231286
000320 bd 72 a5 b9 3f e6 33 b9 57 b4 5a 3a 1d 1c 06 ba
       -0.0003155674 -0.00017156544 0.0008342913 -0.00051158835
000330 57 a0 1f 3a 54 49 9c 3a 0b 91 2f 3a 40 e1 ec b9
       0.0006089261 0.0011923709 0.00066973333 -0.00045181252
000340 1a 1b 79 b9 6e 28 78 3a a2 4f d8 39 ab e9 bf b7
       -0.00023756587 0.0009466474 0.00041258062 -2.2877784e-05
000350 0e a4 2a b9 2b fb bb b9 c9 3d 13 b9 14 27 05 b9
       -0.00016273579 -0.00035854554 -0.00014042029 -0.00012698426
000360 53 d2 20 b9 c3 8e 35 ba f8 41 18 b9 a3 a0 12 b9
       -0.00015337141 -0.0006925875 -0.00014520425 -0.00013983487
000370 c5 ef 07 b9 ac 63 07 b9 28 76 e6 b8 9e f1 10 3b
       -0.00012963924 -0.00012911734 -0.00010989263 0.0022116671
000380 dd 19 ee b6 46 23 64 36 72 fe eb b6 45 43 14 b6
       -7.0959636e-06 3.399518e-06 -7.033167e-06 -2.2092875e-06
000390 b4 90 d7 b5 8c 56 49 b6 44 5c 57 b5 1b 48 50 34
       -1.6060862e-06 -3.000171e-06 -8.0228006e-07 1.9397741e-07
0003a0 a9 d9 cb b6 4c 92 60 b7 c9 bb af b6 ee 8f 94 b6
       -6.0752104e-06 -1.3385503e-05 -5.2372675e-06 -4.4274993e-06
0003b0 53 8b 3a 36 1f d2 27 b6 97 69 37 b6 c9 59 09 34
       2.7797257e-06 -2.5007246e-06 -2.7330586e-06 1.2791783e-07
0003c0 7d 30 22 36 44 fe 20 36 f7 79 83 33 65 76 21 37
       2.4168105e-06 2.398986e-06 6.122348e-08 9.623914e-06
0003d0 d1 30 2a b7 36 88 2c 35 ee 90 05 37 61 8e 4b 36
       -1.0144156e-05 6.4273206e-07 7.961162e-06 3.0332233e-06
0003e0 ea ab 94 b5 aa 4a 9d b6 bf ab 69 b6 41 a4 dd b6
       -1.1076893e-06 -4.6876567e-06 -3.4819675e-06 -6.605435e-06
0003f0 1c 20 2c bb 05 56 53 ba 64 9b 29 bb df e5 ed ba
       -0.0026264256 -0.0008061829 -0.0025879974 -0.0018150172

exp_avg_sq f4 [24, 28]
000000 3f 5c 06 37 7b 15 81 38 5f 6c 06 37 b1 bf 87 37
       8.0085e-06 6.1552004e-05 8.0122545e-06 1.6182517e-05
000010 a8 c5 67 37 02 56 27 37 34 d1 c8 37 59 ad 64 37
       1.3814693e-05 9.974001e-06 2.3939276e-05 1.363022e-05
000020 84 44 c4 37 cf 79 6c 38 34 e6 c0 37 d2 c8 b3 37
       2.3396926e-05 5.6380228e-05 2.299538e-05 2.1431977e-05
000030 a8 bf e5 37 1e 11 a2 37 c9 c3 1e 38 fe 0c 10 38
       2.7388174e-05 1.9319876e-05 3.7852475e-05 3.4344375e-05
000040 28 07 35 38 f9 da c0 39 da 9e 3e 38 d8 ec a2 39
       4.3160428e-05 0.0003678424 4.5447472e-05 0.0003107551
000050 b9 a9 35 39 a6 a8 a1 37 a8 bb cf 36 95 8d 96 38
       0.00017324732 1.9271229e-05 6.190927e-06 7.178929e-05
000060 a6 03 99 36 10 ef a0 36 33 0d b1 36 2e df ed 36
       4.56018e-06 4.796202e-06 5.2765477e-06 7.089132e-06
000070 71 10 68 3a 92 37 5d 3a 36 67 60 3a 77 5d 17 3a
       0.00088525476 0.00084387616 0.00085603015 0.000577412
000080 a6 66 a7 39 41 8d a8 39 ab d8 3a 39 d5 9a dd 39
       0.000319292 0.000321487 0.00017819057 0.00042267764
000090 a9 09 1e 3a 20 7d 95 39 12 bf 49 38 b5 e1 8a 3a
       0.0006028661 0.0002851272 4.8100082e-05 0.001059583
0000a0 cc e1 e0 39 0a 4d cf 38 07 e0 85 39 1b 82 76 38
       0.0004289284 9.884879e-05 0.0002553465 5.877214e-05
0000b0 48 a1 d4 38 0e 19 0a 39 ec 49 01 39 68 21 20 39
       0.00010138989 0.00013170039 0.00012329937 0.00015271234
0000c0 9b a3 a9 39 f6 bd fc 38 30 4a ce 37 ea e8 c8 3b
       0.00032356087 0.000120516794 2.459166e-05 0.006131281
0000d0 29 83 0a 39 78 6b 88 38 4d 18 32 3a 6f 36 c9 38
       0.00013209567 6.505003e-05 0.0006793782 9.594566e-05
0000e0 05 24 4b 3a 38 b7 51 39 59 f2 4a 3a 7d 45 ef 39
       0.0007749203 0.00020000048 0.0007741801 0.00045637405
0000f0 89 46 e5 37 53 64 75 37 6d 97 3b 39 39 aa 4e 39
       2.7331773e-05 1.46264965e-05 0.0001789012 0.00019709104
000100 ee bd d2 38 d4 f0 a1 39 71 d2 5d 38 51 f8 0a 3a
       0.000100489575 0.00030887744 5.2886495e-05 0.0005301284
000110 b0 e4 e8 38 71 5c 04 39 85 68 40 39 66 74 34 39
       0.000111052184 0.00012622938 0.00018349483 0.000172095
000120 7f 45 3c 3a f5 72 b4 39 06 42 48 3a ca df 18 39
       0.00071819866 0.00034417925 0.0007639233 0.00014579218
000130 ab 8f de 38 b3 a8 d5 37 93 a8 ca 38 49 3f 13 38
       0.00010612545 2.5470135e-05 9.66351e-05 3.510647e-05
000140 dd 75 16 38 22 7b b0 37 54 8e 6a 39 e1 b4 5a 38
       3.5872556e-05 2.1038173e-05 0.00022369 5.2143707e-05
000150 90 06 f2 36 e5 89 94 38 66 94 f0 36 89 34 20 37
       7.212926e-06 7.082875e-05 7.169833e-06 9.548975e-06
000160 d8 9d a4 37 ec 47 aa 37 77 19 e7 36 9f 4b 64 37
       1.9623825e-05 2.029907e-05 6.887301e-06 1.3607466e-05
000170 e4 c9 8f 36 c5 28 89 37 fd ff 70 36 62 89 ca 36
       4.2852353e-06 1.6350657e-05 3.5911792e-06 6.0360626e-06
000180 d1 80 19 38 c4 ff 9f 36 38 f4 8f 37 ff b3 1a 37
       3.6598012e-05 4.7683443e-06 1.7160652e-05 9.221024e-06
000190 7f e8 9a 36 3b 19 a3 36 cb ae d9 36 df ce 87 36
       4.6166238e-06 4.8607158e-06 6.4874525e-06 4.0473965e-06
0001a0 2d 9d 86 36 0c e8 7d 38 15 87 8f 37 de 37 50 39
       4.011809e-06 6.053601e-05 1.710983e-05 0.00019857238
0001b0 08 d5 11 39 6a dc 99 36 0d 7e 78 36 e8 9b 9c 36
       0.00013907638 4.585415e-06 3.702825e-06 4.667312e-06
0001c0 3c 3b 0e 37 4c 75 ec 37 2f 4c fd 36 cd b9 31 37
       8.477651e-06 2.8188013e-05 7.5488565e-06 1.0593282e-05
0001d0 75 d6 e2 36 e1 05 b0 36 98 61 58 37 6c 87 0b 37
       6.760291e-06 5.245893e-06 1.2897326e-05 8.316576e-06
0001e0 98 46 39 37 d2 0b d0 36 3b ac 7e 36 28 51 1c 37
       1.1043296e-05 6.200259e-06 3.79492e-06 9.31722e-06
0001f0 0c cb 90 37 86 9a 34 37 0b bd cc 37 d4 43 43 37
       1.7260689e-05 1.0764814e-05 2.4406725e-05 1.1638698e-05
000200 04 bf 47 37 3b 3f 38 37 82 c7 80 36 85 38 6d 38
       1.1905799e-05 1.0981977e-05 3.837923e-06 5.655784e-05
000210 ef 53 37 38 9d 5e f0 36 2b 3e 28 36 c5 ca 2f 36
       4.370877e-05 7.163572e-06 2.5070137e-06 2.619506e-06
000220 42 2a 7a 38 fe 1f 34 36 f6 52 4d 37 a6 59 f4 37
       5.9644e-05 2.6840712e-06 1.2238268e-05 2.9128812e-05
000230 22 ad 5e 38 e0 8e 25 39 48 29 5e 38 5f 6c 2d 38
       5.3090167e-05 0.00015788851 5.296737e-05 4.1347343e-05
000240 0a 66 57 38 d6 76 87 38 0c 4f f7 37 8b ff 38 38
       5.1355026e-05 6.4594366e-05 2.9481504e-05 4.410701e-05
000250 52 5d 13 38 9c 2d 31 39 94 13 70 37 29 5a 04 39
       3.5134442e-05 0.00016897026 1.4309673e-05 0.00012622088
000260 8e 37 8f 37 59 a1 90 37 d6 c8 64 38 54 7e 84 37
       1.7072798e-05 1.7241271e-05 5.454648e-05 1.5794452e-05
000270 9e bf 52 3a 27 44 4b 38 17 c3 e6 37 81 59 a4 38
       0.00080394174 4.8462443e-05 2.7508982e-05 7.836801e-05
000280 0e 6d 3e 38 b5 83 11 39 b0 90 4b 38 c3 a6 d2 37
       4.5401095e-05 0.00013877342 4.8533722e-05 2.5111605e-05
000290 62 e3 6c 38 e9 d4 0a 3a 45 b3 5c 38 73 6b 8a 37
       5.647855e-05 0.00052960083 5.2619045e-05 1.6500917e-05
0002a0 9e 5d d8 38 8d 23 b9 39 1b c9 d8 38 75 70 9f 38
       0.0001031712 0.00035312437 0.000103371414 7.6026576e-05
0002b0 b5 5c 8f 38 d8 0e 11 39 6d 3e 82 38 99 c1 b7 38
       6.8360394e-05 0.00013833807 6.210511e-05 8.7621804e-05
0002c0 f5 20 16 39 9a 8d 23 39 a8 1d 5d 38 ac 14 5c 39
       0.00014317392 0.00015597642 5.2718126e-05 0.00020988536
0002d0 aa 1f de 38 5d ae 24 38 e2 62 8e 38 59 6f ee 38
       0.00010591683 3.9263035e-05 6.789506e-05 0.000113694645
0002e0 d1 5e 19 3a 71 da 02 39 93 56 72 3a db 3e d9 37
       0.00058506156 0.00012479142 0.0009244468 2.5897685e-05
0002f0 ac 7e 47 39 ba 19 42 38 0c ae b2 38 14 d7 c0 39
       0.00019025308 4.6277164e-05 8.52012e-05 0.0003678134
000300 47 07 70 38 11 ab 0d 38 6a ec 0a 38 52 f3 0b 38
       5.7227237e-05 3.3776338e-05 3.312194e-05 3.3366792e-05
000310 14 ec 1a 3a 69 d9 a5 3b 29 70 18 3a be 21 41 3a
       0.0005909812 0.0050613177 0.0005815053 0.00073673937
000320 26 97 ee 3a 82 fb 09 3b 63 d2 a7 39 70 e5 a0 3a
       0.0018203005 0.0021054451 0.00032009472 0.0012275409
000330 8b 5f 88 39 0c c1 a1 3a 2e d2 87 39 ea b2 06 3a
       0.00026011126 0.0012340858 0.00025905803 0.00051383546
000340 87 ef 92 3a 23 da b1 38 06 b3 a4 3a a3 8e 8e 39
       0.0011210301 8.480649e-05 0.001256556 0.00027190623
000350 18 2f eb 39 af 5a 25 3a 5e 0b fb 39 47 09 2c 3a
       0.0004485778 0.00063077634 0.0004788292 0.0006562662
000360 e6 b9 1b 3a 93 5a 06 3a fe ae d6 39 c1 50 29 3d
       0.0005940482 0.0005125191 0.0004094764 0.04133678
000370 6e 19 2e 39 a4 72 de 39 d2 ad 2e 3a 42 4f 00 3a
       0.00016603406 0.00042428554 0.00066634745 0.0004894623
000380 51 46 5f 36 18 b7 34 38 6f e4 5e 36 a8 14 8e 36
       3.327052e-06 4.3085864e-05 3.3213544e-06 4.2343345e-06
000390 af a0 83 36 97 77 10 37 4b fd 04 37 99 7a ba 36
       3.9228103e-06 8.610913e-06 7.9267875e-06 5.557504e-06
0003a0 ea 55 34 37 97 69 62 37 31 3e a8 36 fb a0 27 37
       1.07488395e-05 1.3495234e-05 5.01403e-06 9.991457e-06
0003b0 33 00 ab 36 14 b8 a8 36 c3 de 3b 37 c4 e7 61 37
       5.0962203e-06 5.0282197e-06 1.1197934e-05 1.3465007e-05
0003c0 28 4f 4d 37 7e 33 5c 38 45 12 1f 38 87 ac 47 38
       1.2237382e-05 5.2500043e-05 3.792557e-05 4.7605976e-05
0003d0 dd f5 03 39 19 69 e4 36 28 3d b5 36 2a a6 b8 36
       0.00012584725 6.8071645e-06 5.40134e-06 5.5029714e-06
0003e0 60 3f 70 36 51 44 f8 36 61 23 6f 36 b5 49 45 37
       3.5799676e-06 7.398929e-06 3.5634368e-06 1.1759276e-05
0003f0 56 89 86 39 8c 26 4c 38 0e 10 87 39 fc 6b 1d 39
       0.00025660795 4.867329e-05 0.00025761168 0.00015012914

exp_avg f4 [24, 6]
000000 09 48 17 35 37 f4 87 36 0e 17 60 35 0d 91 09 35
       5.635671e-07 4.051744e-06 8.348005e-07 5.1247554e-07
000010 de ba b8 b5 29 6c b2 35 58 a9 81 34 f0 cb ac 37
       -1.3763454e-06 1.3293512e-06 2.4151336e-07 2.0598964e-05
000020 04 9d bf 37 b4 69 65 38 56 55 a4 38 93 c6 97 38
       2.284209e-05 5.46963e-05 7.8360245e-05 7.2372284e-05
000030 5f fd 3d 35 ee 2d aa 39 dd 34 bd 39 d4 cc 3e 3a
       7.077669e-07 0.00032459147 0.00036088275 0.00072784466
000040 4e c6 36 3a 19 b8 42 3a e3 ef 4c b3 66 28 65 35
       0.0006972299 0.00074279454 -4.7715627e-08 8.5367935e-07
000050 41 91 0a 35 cd 52 ca 35 e2 1b d8 35 c2 d6 14 36
       5.162038e-07 1.5074271e-06 1.6101369e-06 2.2178724e-06
000060 25 30 b3 34 98 56 3d 38 9e 73 d3 39 0a 76 26 3a
       3.3376378e-07 4.5141758e-05 0.00040331198 0.00063499867
000070 df c8 1e 39 82 5f 26 3a da c2 ce b7 b9 71 0f b8
       0.00015142885 0.0006346629 -2.4647848e-05 -3.419977e-05
000080 b2 4e ea b7 72 93 9b b6 58 dd d6 37 32 4a 3c b7
       -2.793162e-05 -4.636525e-06 2.561386e-05 -1.1222948e-05
000090 b5 34 f5 35 88 ea bb 36 62 20 87 36 a1 12 8d 36
       1.8269262e-06 5.6003373e-06 4.0270834e-06 4.204296e-06
0000a0 7f 3b e7 35 62 2b ab 36 e6 d0 92 34 f2 ed 65 b8
       1.7228157e-06 5.1012476e-06 2.7346613e-07 -5.481946e-05
0000b0 67 f6 89 b9 ea 01 fd b9 72 30 f2 b9 5d 24 ea b9
       -0.0002631426 -0.00048257346 -0.00046193931 -0.0004465905
0000c0 4f 9d 3e b4 bb a2 64 b6 5d 0c a3 b6 76 b7 6e 36
       -1.7752357e-07 -3.406937e-06 -4.859218e-06 3.5571552e-06
0000d0 e9 5e 11 36 06 ed 2d b6 12 93 9b b5 63 8f 50 3a
       2.1661929e-06 -2.5916975e-06 -1.1591203e-06 0.00079559366
0000e0 b6 00 69 3a 8d 93 a1 3a b0 6c ad 3a a6 9b b1 3a
       0.00088883506 0.0012327299 0.0013231244 0.0013550415
0000f0 bd 37 98 35 33 c8 2a 38 81 83 84 38 89 da 8c 38
       1.1341104e-06 4.071761e-05 6.318745e-05 6.7164256e-05
000100 f6 d6 14 38 74 5c bb 38 f9 5d 8c b7 1d 80 b3 b7
       3.5486148e-05 8.9340756e-05 -1.673306e-05 -2.139812e-05
000110 87 c5 60 b7 58 97 0c b4 e0 59 5e b6 34 4e 61 36
       -1.3397431e-05 -1.3093575e-07 -3.3132892e-06 3.3573133e-06
000120 25 c1 37 35 28 a4 93 b4 3e 79 9d 35 40 00 ab 34
       6.8453875e-07 -2.7500323e-07 1.1732698e-06 3.1851414e-07
000130 4d 69 5e 35 b5 30 a9 b4 16 2d 83 35 75 ed cd b2
       8.285468e-07 -3.1514142e-07 9.773382e-07 -2.3973124e-08
000140 30 48 26 b3 1e 65 21 b6 de 6e 14 b6 dd a8 c4 b5
       -3.871554e-08 -2.4049727e-06 -2.2118252e-06 -1.4652284e-06
000150 fe fa b5 32 f1 35 d3 35 36 55 73 35 ce 76 cd b6
       2.1185311e-08 1.5736424e-06 9.064855e-07 -6.123307e-06
000160 9b 7c 14 b6 32 b5 84 36 ac f9 a0 b4 51 d8 1d b8
       -2.2126248e-06 3.9550005e-06 -2.9983983e-07 -3.7633177e-05
000170 58 ae a6 b7 bd 1d e0 b7 0d a6 82 38 a2 13 f8 b7
       -1.9869927e-05 -2.6716729e-05 6.2298124e-05 -2.9573046e-05
000180 10 78 0b 37 84 51 37 39 11 4a 0b 39 ad b7 61 39
       8.313e-06 0.00017482607 0.00013283665 0.00021526097
000190 60 29 43 39 b0 95 80 39 c7 97 16 35 a2 32 4f b5
       0.00018612063 0.00024525588 5.610022e-07 -7.718719e-07
0001a0 aa fa 27 b5 a0 4d 11 b5 94 63 a3 b3 11 81 2e 36
       -6.257711e-07 -5.412967e-07 -7.608392e-08 2.6003147e-06
0001b0 b3 da 3a 37 75 51 12 38 46 26 ba 37 db fe df 37
       1.1137384e-05 3.4884975e-05 2.219075e-05 2.6702348e-05
0001c0 b3 68 6d 37 a3 4d 01 38 99 63 51 b4 06 bb 8f bb
       1.4150678e-05 3.08283e-05 -1.9500875e-07 -0.0043863086
0001d0 7a e1 b3 bb f5 2e fb bb ba 00 03 bc 68 0c 03 bc
       -0.0054895254 -0.00766551 -0.007995779 -0.007998563
0001e0 c2 c2 a4 34 bb 25 2d 3a b2 1b 8d 3a f6 9b eb 3a
       3.0689085e-07 0.00066050485 0.00107657 0.0017975557
0001f0 a4 64 de 3a 69 37 ef 3a f1 37 3d b7 d2 88 b6 38
       0.0016967249 0.0018250766 -1.1278303e-05 8.703921e-05
000200 16 62 a6 38 90 04 bf 38 67 bc d0 38 9f 39 e4 38
       7.933767e-05 9.1084396e-05 9.9533056e-05 0.0001088262
000210 d7 5c b7 35 82 e8 21 39 31 b6 15 3a da 77 6b 3a
       1.3661582e-06 0.00015440772 0.00057110476 0.0008982398
000220 d3 11 65 3a 18 66 6e 3a 06 7f 52 b6 11 6f 98 37
       0.0008738313 0.00090941926 -3.1366376e-06 1.8171531e-05
000230 aa e9 b0 37 70 60 62 38 43 93 40 38 fd 5c 56 38
       2.1089643e-05 5.3972413e-05 4.5913515e-05 5.1108178e-05
