ckpt/ADAM_lstm_bs{32}_lr{1.0e-02}_eps{1.0e-04}_epoch{200}/ADAM_lstm_bs{32}_lr{1.0e-02}_eps{1.0e-04}_epoch{200}.pth (torch, 27327 bytes, 15 tensors)

lstm.weight_ih_l0 f4 [40, 33]
1.3683213 0.90113336 1.1754192 0.36172885 -0.10069022 0.47551036 1.026324 1.1144396
0.17163597 -0.42650384 1.3609746 1.2560049 -2.0204225 1.5826027 1.072156 1.5916169
0.7288375 -0.67106164 2.166051 1.3465494 1.1417831 0.76968515 -0.0182438 1.0479258
0.35948366 0.119701 0.29833424 -0.9984337 -0.33444244 -0.23187986 -1.5544621 0.05376803
0.039771806 0.6303552 0.61852765 0.5082088 1.2245477 0.58592546 0.34270835 1.1225497
0.70962566 0.8171161 0.6428883 0.907746 0.70119745 0.43785042 0.63934475 0.5272097
0.45701885 0.95959204 0.95861465 0.71453524 0.5623876 0.7480338 0.49505514 0.39450127
0.10406132 0.057810962 0.21660957 0.12641005 -0.087617114 0.705456 0.019212652 0.3161842
0.32887238 0.7112322 0.121109724 0.02613059 -0.0016013143 0.10685201 -0.7177675 -0.779124
0.30943972 -0.37148494 0.1301288 -0.5334731 -0.35502404 -0.1119677 -0.51134056 -0.6661663
0.5619934 -0.18582298 0.626008 0.27640173 0.25844392 -0.19267026 0.05194631 0.453008
0.23390475 0.0710682 0.18398765 0.61828744 -0.39120308 -0.10557452 -0.7803071 -0.21759765
0.5602371 0.23163995 1.0854602 0.0011455542 0.1595667 -0.2432194 0.33341575 -0.1964797
-0.15053236 0.27415988 0.16334619 0.02208379 -0.25947434 0.087660104 -0.46809134 -0.0297483
0.048059475 0.20239517 -0.32867363 -0.09186297 0.5421159 -0.065466195 -0.09788735 0.25023848
1.2891189 0.7724399 0.25247627 0.05076671 0.38466638 0.63225853 0.11317011 0.38093433
-0.08155147 -0.3027242 0.21948878 0.7055386 -1.1720867 -0.4474958 -1.3304515 -0.5955392
-0.93842053 -0.94546586 -0.9163784 -0.9740084 -0.39251962 -0.916114 -0.2964379 -0.7803998
-0.6926316 -0.5837029 -1.2124394 -0.7849652 -0.21482943 0.08087439 0.059540343 -0.77901417
-1.201492 -0.3460783 -0.5540637 -0.8924866 -0.3101665 -0.49198583 -0.28078833 -1.0981716
0.32813588 0.13575216 0.46255815 0.5757373 0.39794776 -2.284586 -1.9339128 -1.6767993
-2.3521905 -0.76974744 -0.7701046 -2.4391987 -1.1446441 -2.01356 -0.9676622 -0.8252067
-1.1849236 -1.3502731 -1.3656853 0.27643618 -1.3288462 -1.657547 0.17016812 -1.4434233
-2.0032513 -1.6896793 3.4900258 -0.5537395 -1.5869664 -1.8835354 -1.7707762 -1.4753491
-1.3180082 1.0715561 1.0705398 -0.36496034 0.0036795978 -1.0405614 1.1713299 0.90439886
1.0165315 1.0379816 -0.36568287 -0.1348808 0.92705464 -0.47220927 0.2862732 -0.19400619
0.29330987 -0.43789062 -0.21360597 -0.31530607 0.70332247 0.21312077 0.15209913 -0.67257243
-0.35632586 0.68028045 1.1060873 0.6106364 0.5395333 0.52198386 -0.08065283 0.554045
0.35218692 0.63106924 -1.6117827 -1.3606704 -0.3358353 -0.47351775 1.3322604 -0.42779502
-1.5040423 -0.2856738 -0.15746044 -0.35142076 -0.20820734 -0.4275854 -1.6204138 -0.44661823
-0.0068580094 -0.58863604 -0.36951223 -0.7560617 -0.5340922 -0.4914887 -1.5167018 -0.9056812
0.23900516 -1.1151801 -0.5121816 -0.47673637 -1.3183191 -1.1916292 -1.4545443 -1.1117058
00000000: 2725 af3f adb0 663f 2374 963f 8634 b93e
00000010: ad36 cebd 1876 f33e 965e 833f f5a5 8e3f
00000020: 57c1 2f3e b65e dabe 6a34 ae3f c5c4 a03f
00000030: 9a4e 01c0 ba92 ca3f 683c 893f 1aba cb3f
00000040: 1895 3a3f b2ca 2bbf 94a0 0a40 bb5b ac3f
00000050: f325 923f 160a 453f 0674 95bc 6f22 863f
00000060: 3e0e b83e cc25 f53d 44bf 983e 5a99 7fbf
00000070: 0a3c abbe ea71 6dbe 9df8 c6bf de3b 5c3d
00000080: c3e7 223d f55e 213f d457 1e3f f919 023f
00000090: fbbd 9c3f 36ff 153f 7877 af3e b5af 8f3f
000000a0: 07aa 353f 852e 513f 5494 243f 0b62 683f
000000b0: ad81 333f ee2d e03e 19ac 233f 37f7 063f
000000c0: 60fe e93e d3a7 753f c567 753f c8eb 363f
000000d0: a2f8 0f3f 257f 3f3f de77 fd3e 12fc c93e
000000e0: 1a1e d53d 30cb 6c3d e6ce 5d3e a371 013e
000000f0: 9a70 b3bd c498 343f da63 9d3c e5e2 a13e
00000100: f661 a83e 5013 363f 6008 f83d d20f d63c
00000110: 31e3 d1ba 3ad5 da3d 9cbf 37bf ac74 47bf
00000120: e26e 9e3e 4633 bebe 7c40 053e b191 08bf
00000130: b6c5 b5be 524f e5bd 37e7 02bf e089 2abf
00000140: cdde 0f3f 6148 3ebe 0f42 203f 8784 8d3e
00000150: c352 843e 5a4b 45be a7c5 543d aaf0 e73e
00000160: ba84 6f3e 348c 913d 4267 3c3e 1648 1e3f
00000170: c54b c8be 7437 d8bd 35c2 47bf ebd1 5ebe
00000180: b36b 0f3f 0633 6d3e 5cf0 8a3f 6c26 963a
00000190: 7465 233e 820e 79be 78b5 aa3e f931 49be
000001a0: 2825 1abe af5e 8c3e 3944 273e 10e9 b43c
000001b0: d2d9 84be 2487 b33d aba9 efbe b5b2 f3bc
000001c0: 03da 443d ae40 4f3e e947 a8be a722 bcbd
000001d0: 1cc8 0a3f 2413 86bd 2a79 c8bd 421f 803e
000001e0: d901 a53f 9fbe 453f 9244 813e c1f0 4f3d
000001f0: fef2 c43e b2db 213f bbc5 e73d d309 c33e
00000200: 7504 a7bd abfe 9abe abc1 603e 2d9e 343f
00000210: f006 96bf 2b1e e5be 3c4c aabf 4275 18bf
00000220: 543c 70bf 0d0a 72bf c697 6abf 9d58 79bf
00000230: 55f8 c8be 7286 6abf b5c6 97be 48c8 47bf
00000240: 4e50 31bf 8e6d 15bf 3731 9bbf 7bf3 48bf
00000250: 3ffc 5bbe 79a1 a53d 93e0 733d 796d 47bf
00000260: 7dca 99bf 2d31 b1be 1ed7 0dbf 007a 64bf
00000270: 25ce 9ebe 91e5 fbbe 7dc3 8fbe e390 8cbf
00000280: 6d01 a83e 9d02 0b3e 6cd4 ec3e 8563 133f
00000290: cfbf cb3e a836 12c0 748a f7bf 5ca1 d6bf
000002a0: 4a8a 16c0 2b0e 45bf 9325 45bf d51b 1cc0
000002b0: b383 92bf 2bde 00c0 b6b8 77bf bf40 53bf
000002c0: 94ab 97bf c0d5 acbf c7ce aebf 0b89 8d3e
000002d0: a217 aabf 802a d4bf 8d40 2e3e 18c2 b8bf
000002e0: 4535 00c0 6947 d8bf 955c 5f40 dfc1 0dbf
000002f0: b721 cbbf b017 f1bf cba8 e2bf 3dd8 bcbf
00000300: 7eb4 a8bf c028 893f 7307 893f 15dc babe
00000310: 6825 713b 1e31 85bf 23ee 953f af86 673f
00000320: b41d 823f 95dc 843f c93a bbbe 311e 0abe
00000330: 7453 6d3f 6ac5 f1be 6792 923e 8fa9 46be
00000340: b62c 963e 3333 e0be 86bb 5abe cc6f a1be
00000350: f10c 343f 553c 5a3e e0bf 1b3e b52d 2cbf
00000360: 5870 b6be dc26 2e3f 4594 8d3f ab52 1c3f
00000370: db1e 0a3f bca0 053f 502d a5bd e5d5 0d3f
00000380: d851 b43e c18d 213f e54e cebf 732a aebf
00000390: 9bf2 abbe eb70 f2be 8287 aa3f f307 dbbe
000003a0: 7584 c0bf d643 92be 4f3d 21be 6ced b3be
000003b0: 4e34 55be 79ec dabe b869 cfbf 25ab e4be
000003c0: 27b9 e0bb dab0 16bf b530 bdbe 428d 41bf
000003d0: 44ba 08bf 68a4 fbbe 4923 c2bf b9da 67bf
000003e0: c5bd 743e 39be 8ebf 551e 03bf ca16 f4be
000003f0: aebe a8bf 4e87 98bf 822e babf 604c 8ebf

lstm.weight_hh_l0 f4 [40, 10]
0.26659086 -0.7696639 -0.8017842 0.022144875 0.22108468 -0.033497423 0.21102934 -1.0168533
-0.43107817 -0.9647917 -0.2114323 0.31420586 0.5052937 -0.7064482 -0.11249464 -0.12687105
0.09956377 0.016871745 -0.09098471 0.14457394 0.35856262 0.00062294165 -1.2558782 0.7714503
1.2290897 0.30283645 0.53286415 -0.8656005 -0.0332117 -0.68409395 -0.0066732736 -0.16325817
-0.3543792 0.31452197 0.32363957 0.5835733 -0.2385869 0.19263756 -0.07411385 0.33609793
-1.1573569 0.95727444 1.9651778 0.26394716 0.76691145 0.119823575 -0.4129337 -0.17410795
0.07673116 -0.98217833 -2.3346062 2.6298301 1.6920832 -3.856736 -0.31744665 -0.17279957
-0.38174412 -0.17913422 2.1057267 1.138084 0.36214337 -0.797649 -0.62170273 0.3254958
-0.15288699 -0.03658868 1.1552287 0.18205914 -0.41957343 -0.26545894 -1.0501094 0.7337552
1.2291361 -0.28163648 -1.1664293 0.4027034 0.051343728 -0.10426735 1.2974637 -1.4585279
0.4753459 -1.2862046 -0.48708865 0.04008113 -0.061320238 -0.01878071 0.8623819 -0.7509974
-0.31979296 -0.12974028 0.6019456 -0.73122436 -0.7496664 0.35688782 0.88728046 0.23436707
-0.35635436 -0.0892255 -0.6126747 0.0613368 1.9440992 3.0508091 -0.272763 -2.0330198
0.9825763 -0.10785087 -0.11952865 5.1042285 -0.83021665 2.6784365 0.557061 -0.14788817
-0.09965513 0.2059155 0.04838093 -0.029459601 -0.31062362 -0.33433664 -0.6539819 -0.12326357
0.67613953 -0.8732252 -1.146007 -0.4643171 0.44064084 0.70833427 0.246665 -0.1383472
-0.29784992 -1.0931095 0.51331556 -0.44558132 -1.144862 0.7667908 1.0044556 0.40784162
0.16622494 -0.030387226 -0.2807233 -0.1959895 -0.14847542 0.033062648 1.5556841 -0.3492858
0.9048557 0.6785818 -1.2250578 -0.33045015 0.016468272 -0.49870288 -1.3492507 0.6242699
1.2774183 -1.9849945 -1.2272758 0.4084556 -0.5238176 0.055152204 0.91879237 0.5117024
1.1926155 -0.756863 -1.165728 0.77646214 0.51428133 0.52191865 0.92322254 -0.24810496
-1.1606014 -0.06606788 -0.20799434 0.5879827 0.52083653 0.4309591 -0.68049395 0.14676848
-0.10937143 -0.0059136283 0.4207168 0.2140965 1.1979722 -1.7975618 -1.096964 1.4344177
-0.97896814 -1.007859 0.31107712 0.14902121 -0.5745026 -1.0994024 0.32886052 -0.5853856
-0.22497603 0.6505584 0.5639034 0.2701646 -0.3958524 0.20126934 -0.80509156 -0.05993688
0.45496616 -0.8243654 -0.38935456 0.10181184 0.48168573 0.12070948 -0.17580217 0.00021647858
-0.6946768 -0.60939133 0.32103917 0.032010343 -0.12412767 0.7412675 -0.01973464 0.039003804
0.32007012 -0.20533784 -0.22020422 -0.21555722 -1.0589961 0.57309127 0.7126191 -0.028392429
-0.51844466 0.13095917 -0.44863513 -0.077739194 0.61602193 0.4908386 0.62586933 -0.5734075
-0.27087632 -0.040727858 0.093503125 -0.37283072 -0.20590952 -0.016205883 -0.48501444 -0.35555458
0.7039117 -0.9392393 -1.0242524 -0.05212174 -0.113537885 -0.09917499 0.8058582 -0.22388701
-0.71945584 -0.49732685 -0.49186605 0.48025626 2.019376 -2.3900113 -0.74813825 -1.4054772
00000000: 997e 883e b108 45bf bb41 4dbf 2b69 b53c
00000010: 0664 623e 9834 09bd 1318 583e 4028 82bf
00000020: 47b6 dcbe 97fc 76bf b581 58be 97df a03e
00000030: ee5a 013f cad9 34bf 9763 e6bd 7cea 01be
00000040: 17e8 cb3d 9d36 8a3c 3156 babd 310b 143e
00000050: 8595 b73e e84c 233a 9ec0 a0bf c47d 453f
00000060: d052 9d3f 610d 9b3e c969 083f ff97 5dbf
00000070: fe08 08bd c820 2fbf 7aab dabb 262d 27be
00000080: 3171 b5be 0609 a13e 16b4 a53e 0f65 153f
00000090: 2050 74be c842 453e 01c9 97bd 0715 ac3e
000000a0: 4524 94bf f00f 753f f28a fb3f 1524 873e
000000b0: 4f54 443f 1066 f53d 0c6c d3be 5b49 32be
000000c0: 3a25 9d3d 0a70 7bbf 306a 15c0 234f 2840
000000d0: 2f96 d83f c3d4 76c0 5e88 a2be 5ff2 30be
000000e0: f773 c3be f66e 37be 3ac4 0640 bdac 913f
000000f0: db6a b93e ba32 4cbf e927 1fbf 63a7 a63e
00000100: 688e 1cbe 03de 15bd 89de 933f b66d 3a3e
00000110: 54d2 d6be 3cea 87be fc69 86bf 61d7 3b3f
00000120: 5554 9d3f a832 90be 8e4d 95bf 242f ce3e
00000130: cd4d 523d 1f8a d5bd 4a13 a63f 0bb1 babf
00000140: 8a60 f33e 5aa2 a4bf af63 f9be 1c2c 243d
00000150: ee2a 7bbd 01da 99bc 0fc5 5c3f 5e41 40bf
00000160: e7bb a3be a3da 04be 1b19 1a3f 8531 3bbf
00000170: 23ea 3fbf 00ba b63e d024 633f ecfd 6f3e
00000180: 1474 b6be dcbb b6bd 40d8 1cbf 4c3c 7b3d
00000190: 3ed8 f83f 7540 4340 98a7 8bbe ff1c 02c0
000001a0: 1f8a 7b3f ebe0 dcbd 70cb f4bd d755 a340
000001b0: 1489 54bf 816b 2b40 8d9b 0e3f ff6f 17be
000001c0: fd17 ccbd 83db 523e 152b 463d 4355 f1bc
000001d0: 0f0a 9fbe 2c2e abbe 5c6b 27bf 9c71 fcbd
000001e0: 7b17 2d3f b08b 5fbf 5bb0 92bf f9ba edbe
000001f0: ad9b e13e 6555 353f c095 7c3e e3aa 0dbe
00000200: c97f 98be 03eb 8bbf a668 033f 3c23 e4be
00000210: d78a 92bf 674c 443f 0092 803f 9ed0 d03e
00000220: df36 2a3e a2ee f8bc f7ba 8fbe 79b1 48be
00000230: f109 18be b36c 073d a820 c73f 97d5 b2be
00000240: a0a4 673f 89b7 2d3f b2ce 9cbf c330 a9be
00000250: 78e8 863c fc55 ffbe 3fb4 acbf 27d0 1f3f
00000260: 7182 a33f 4d14 febf 6017 9dbf 1821 d13e
00000270: e918 06bf 47e7 613d fa35 6b3f eefe 023f
00000280: a0a7 983f c6c1 41bf 9336 95bf 39c6 463f
00000290: f1a7 033f 769c 053f 5058 6c3f 3a0f 7ebe
000002a0: 968e 94bf 994e 87bd 78fc 54be 0986 163f
000002b0: 8b55 053f aca6 dc3e da34 2ebf 7a4a 163e
000002c0: 21fe dfbd 1cc7 c1bb 3168 d73e 1d3c 5b3e
000002d0: 2757 993f 8116 e6bf 5169 8cbf 009b b73f
000002e0: a89d 7abf 8601 81bf 8045 9f3e 0499 183e
000002f0: 9a12 13bf 38b9 8cbf 6860 a83e d5db 15bf
00000300: 1e60 66be ff8a 263f f95b 103f 0453 8a3e
00000310: 2aad cabe 8d19 4e3e 7b1a 4ebf 6080 75bd
00000320: 53f1 e83e 9c09 53bf 7b59 c7be ba82 d03d
00000330: 839f f63e 8836 f73d 7c05 34be 87fe 6239
00000340: 57d6 31bf 1201 1cbf 3f5f a43e 471d 033d
00000350: a636 febd b5c3 3d3f 8aaa a1bc 74c2 1f3d
00000360: 3be0 a33e 1544 52be 377d 61be 08bb 5cbe
00000370: 2f8d 87bf 1cb6 123f 356e 363f 3d97 e8bc
00000380: cab8 04bf 291a 063e 81b3 e5be ba35 9fbd
00000390: 9db3 1d3f 324f fb3e f938 203f d5ca 12bf
000003a0: 4db0 8abe 41d2 26bd 917e bf3d abe3 bebe
000003b0: f2d9 52be 33c2 84bc d053 f8be 400b b6be
000003c0: 8f33 343f fd71 70bf b41a 83bf 9b7d 55bd
000003d0: 8d86 e8bd 421c cbbd b94c 4e3f a342 65be
000003e0: 422e 38bf a0a1 febe ded5 fbbe 26e4 f53e
000003f0: 753d 0140 f2f5 18c0 fd85 3fbf ade6 b3bf

lstm.bias_ih_l0 f4 [40]
-0.0783124 0.36723718 -0.23728824 0.23109561 -0.49038 -1.0372497 -0.30443233 -0.22928816
0.39587775 0.13527365 1.131925 0.374865 0.7216286 0.65588653 -0.39003474 -0.87920797
0.6884143 -0.51421297 0.45173782 0.47428724 0.3005824 -0.71365535 -0.123759486 -0.016859414
0.1930568 -0.14670512 -0.06902995 0.25293413 -0.92110133 0.15931052 -0.6641864 -2.8145971
-0.96103 -2.46277 -0.4034295 -0.7010998 -3.4841144 -1.9797176 -2.397924 -2.5183198
00000000: 4062 a0bd 8306 bc3e b0fb 72be 54a4 6c3e
00000010: 1613 fbbe 99c4 84bf 8ede 9bbe 84ca 6abe
00000020: 7db0 ca3e 2d85 0a3e ebe2 903f 4eee bf3e
00000030: a7bc 383f 2ee8 273f a2b2 c7be c613 61bf
00000040: eb3b 303f 76a3 03bf 2e4a e73e c7d5 f23e
00000050: f0e5 993e 1eb2 36bf 9d75 fdbd c11c 8abc
00000060: afb0 453e de39 16be 935f 8dbd 9580 813e
00000070: 4ccd 6bbf 4c22 233e 1f08 2abf 5c22 34c0
00000080: 1006 76bf 069e 1dc0 508e cebe 477b 33bf
00000090: bbfb 5ec0 6367 fdbf 9677 19c0 272c 21c0

lstm.bias_hh_l0 f4 [40]
0.26524326 0.7846682 -0.2655646 0.1283028 -0.721808 -1.1671768 -0.107313104 -0.26903495
0.2971534 0.12923256 1.6658342 0.20592898 0.97791916 0.66063 -0.32063007 -1.2349429
0.38492855 -0.5370486 0.37437788 0.07207639 0.3759837 -0.693113 -0.36083108 0.20117772
0.10520239 -0.10493555 0.32117042 0.18512991 -0.9913703 -0.09926441 -0.7291185 -2.5243979
-0.64166325 -2.4729724 -0.711199 -0.48697588 -3.5550072 -2.2745547 -2.830338 -2.1345804
00000000: f7cd 873e 04e0 483f 15f8 87be cf61 033e
00000010: 69c8 38bf 0d66 95bf f9c6 dbbd f3be 89be
00000020: 7e24 983e 8a55 043e 0e3a d53f 0cdf 523e
00000030: e958 7a3f 0c1f 293f a029 a4be 9c12 9ebf
00000040: 5b15 c53e 047c 09bf 75ae bf3e c99c 933d
00000050: ef80 c03e db6f 31bf dabe b8be 8801 4e3e
00000060: 5a74 d73d 73e8 d6bd 7370 a43e b292 3d3e
00000070: 72ca 7dbf 244b cbbd 83a7 3abf bc8f 21c0
00000080: 0b44 24bf 2e45 1ec0 2311 36bf e754 f9be
00000090: 3d85 63c0 4e92 11c0 4224 35c0 f79c 08c0

fc.weight f4 [1, 10]
2.805935 -1.5991486 -2.4027553 2.2748952 1.9205261 0.9422706 1.1301707 -1.530223
-1.923604 -1.2259296
00000000: 7094 3340 e7b0 ccbf bec6 19c0 e297 1140
00000010: cdd3 f53f a538 713f 6fa9 903f 59de c3bf
00000020: a838 f6bf 43eb 9cbf

exp_avg f4 [40, 33]
-2.6372504e-12 -2.855289e-14 -2.369785e-12 -2.8193472e-12 -1.9881688e-14 -1.8673619e-14 -2.7498143e-12 -3.4262068e-13
-2.822815e-12 -1.6780568e-15 -2.815817e-12 -4.438224e-13 -3.172597e-13 -1.2817852e-12 -1.5210479e-12 -1.2798364e-13
-2.8228116e-12 -2.822814e-12 -1.7675137e-12 -2.3864261e-12 -2.5026001e-12 1.6872657e-20 9.796606e-24 5.3509654e-24
4.858687e-22 -6.1529463e-16 -5.345118e-15 -2.5392582e-14 -4.6609397e-14 -3.9713542e-13 -2.3476828e-12 -7.229439e-17
-9.063387e-19 1.8257544e-16 1.4377116e-16 1.8614352e-16 1.9594089e-16 1.1103812e-18 2.160116e-18 1.7259984e-16
1.5842613e-17 1.9875558e-16 6.851838e-18 1.913778e-16 3.349351e-17 3.724239e-17 6.982816e-17 1.6925005e-16
4.2219423e-18 1.9794571e-16 1.985549e-16 1.3218374e-16 1.7934652e-16 1.798169e-16 2.9954152e-22 4.772786e-25
2.3597495e-25 5.67015e-24 2.3608196e-17 1.6661204e-16 1.2433906e-20 8.84247e-21 4.28797e-22 7.943411e-22
1.8072618e-17 1.542356e-20 -2.2092083e-12 -1.8141427e-12 -2.2594314e-12 -2.3824543e-12 -2.4061915e-15 -1.535918e-14
-2.1648772e-12 -1.9935847e-13 -2.436867e-12 -3.0968297e-14 -2.3549114e-12 -3.8451853e-13 -4.3850513e-13 -8.9459635e-13
-2.067253e-12 -2.6462751e-15 -2.4363584e-12 -2.436736e-12 -1.5306678e-12 -2.1736055e-12 -2.1751034e-12 1.09505975e-17
2.6867424e-21 6.327633e-21 5.4604196e-20 -4.625449e-13 -1.9689732e-12 1.3111464e-20 5.585692e-22 1.9861526e-24
-4.9977493e-19 -1.1233307e-14 -1.173393e-16 2.4704444e-13 2.0299424e-13 2.5506154e-13 2.6702645e-13 -3.9800336e-16
1.0641986e-15 2.3934533e-13 2.1227538e-14 2.7399247e-13 1.5111682e-16 2.6707719e-13 4.169834e-14 4.6821274e-14
9.646372e-14 2.3195733e-13 -2.6342056e-15 2.7450172e-13 2.7412556e-13 1.6674444e-13 2.4397354e-13 2.435678e-13
2.8336257e-18 1.4032892e-21 1.0438463e-24 2.484797e-19 -1.8854496e-15 2.8121125e-13 2.777989e-18 2.2731774e-17
3.200434e-18 -2.7355995e-19 -1.1225034e-14 -9.376814e-17 -4.0723137e-07 -1.2870241e-07 -3.6360254e-07 -4.348396e-07
-3.2131464e-11 -6.105402e-10 -4.0152344e-07 -4.5438476e-08 -4.6399532e-07 1.9982447e-09 -4.3481404e-07 -6.777124e-08
-7.3787675e-08 -1.5842201e-07 -3.1015495e-07 -6.786714e-08 -4.6045005e-07 -4.2185007e-07 -3.103773e-07 -3.717097e-07
-3.9430688e-07 -1.4270174e-07 -3.3827444e-08 -2.0906938e-08 1.0508694e-08 2.4670909e-08 3.61039e-08 7.259642e-09
-3.1747497e-08 -7.257799e-08 -8.432352e-08 -6.4340995e-08 -6.138155e-08 -6.0476206e-13 -6.8958806e-12 -1.8634254e-12
-9.103851e-14 -4.645267e-12 -5.7104594e-12 -3.9572198e-13 -4.0427297e-12 9.0662944e-14 -7.990789e-12 4.9945616e-14
-2.0637773e-12 -6.023622e-12 -6.1806038e-12 -6.9846316e-12 -1.7905054e-12 7.557621e-14 -9.880489e-13 6.447342e-14
-1.4080351e-12 -8.3099895e-13 -9.8766915e-12 7.38044e-15 -2.764203e-16 2.3131623e-16 2.0999604e-16 1.6751393e-16
3.9367858e-17 -8.272854e-15 -1.4276981e-14 1.4370564e-14 2.0525e-15 -2.000608e-15 -1.1244665e-14 -8.989094e-15
-1.1404795e-14 -1.2071812e-14 -6.3525585e-17 -1.2895733e-16 -1.0870642e-14 -1.0199685e-15 -1.2259177e-14 -4.094393e-16
-1.1752294e-14 -2.0570426e-15 -2.3336236e-15 -4.5094806e-15 -1.0438592e-14 -2.4736988e-16 -1.2211005e-14 -1.2245839e-14
-8.125563e-15 -1.10281996e-14 -1.1064489e-14 4.7677372e-20 1.5053621e-23 -2.3527174e-27 1.786619e-24 -3.4467547e-15
-8.312142e-15 4.5796374e-19 1.7250199e-20 9.902303e-19 3.291954e-18 -1.0581452e-15 -2.495231e-18 -3.975856e-08
-8.348673e-08 -7.1349746e-08 5.4650627e-08 -6.8936967e-09 -1.02209015e-08 2.0744258e-07 4.0149086e-08 2.9087073e-07
-7.103969e-08 1.8720903e-07 -1.0699495e-08 -2.176963e-08 -1.01018145e-08 -8.882819e-08 5.741549e-08 2.813568e-07
-6.5779716e-08 3.4552033e-07 -5.6917145e-08 -4.9765504e-08 3.494821e-08 1.645806e-08 6.536613e-09 5.15869e-10
00000000: 7b94 39ac 3e97 00a9 40c2 26ac d864 46ac
00000010: 0d14 b3a8 6f32 a8a8 4080 41ac d8e0 c0aa
00000020: 50a3 46ac 5ed5 f1a6 4025 46ac 8cd9 f9aa
00000030: f199 b2aa 2e65 b4ab 8711 d6ab c618 10aa
00000040: 41a3 46ac 4ca3 46ac 64c1 f8ab 08ee 27ac
00000050: d61a 30ac 955b 9f1e 717e 3d19 6501 cf18
00000060: 45d8 121c bb58 31a6 0394 c0a7 4fb7 e4a8
00000070: fae8 51a9 3f91 dfaa 1834 25ac 13b3 a6a4
00000080: 82c0 85a1 c27e 5225 c2c1 2525 df9b 5625
00000090: 8be7 6125 04dd a321 7063 1f22 7bfe 4625
000000a0: 501f 9223 4b26 6525 c8c9 fc22 c2a4 5c25
000000b0: 2876 1a24 0ec0 2b24 4503 a124 cc21 4325
000000c0: 1ec3 9b22 4337 6425 10eb 6425 c165 1825
000000d0: c0c5 4e25 9550 4f25 ce0f b51b e8b5 1317
000000e0: b90f 9216 725a db18 47bf d923 3217 4025
000000f0: aede 6a1e 9007 271e 9098 011c 2a13 701c
00000100: c3b0 a623 e1ab 911e 8f75 1bac 6151 ffab
00000110: 4cfe 1eac 7ba6 27ac 6662 2da7 dc57 8aa8
00000120: f656 18ac 2b75 60aa b17a 2bac 0478 0ba9
00000130: 50b6 25ac f676 d8aa 40db f6aa 76ce 7bab
00000140: 5278 11ac 29af 3ea7 8871 2bac 5578 2bac
00000150: 1f6c d7ab 32f4 18ac 2e0f 19ac bc00 4a23
00000160: 2801 4b1d 1c0d ef1d 36ee 801f df31 02ab
00000170: de8d 0aac 26ab 771e 33d1 281c ceab 1918
00000180: ed81 13a1 7c5c 4aa8 7348 07a5 db12 8b2a
00000190: 1b8d 642a 3e96 8f2a 9152 962a ee6e e5a5
000001a0: 005e 9926 4cbd 862a 5f33 bf28 7a3e 9a2a
000001b0: d039 2e25 e159 962a eaca 3b29 41dd 5229
000001c0: 8c37 d929 9394 822a 84d0 3da7 de87 9a2a
000001d0: a851 9a2a d0bc 3b2a 4b58 892a d21d 892a
000001e0: ad15 5122 1f0f d41c 0387 a117 31ad 9220
000001f0: 68dc 07a7 d04e 9e2a bbfa 4c22 e2a9 d123
00000200: 7d26 6c22 367b a1a0 5536 4aa8 f136 d8a4
00000210: 74a1 dab4 7331 0ab4 2735 c3b4 e673 e9b4
00000220: d050 0dae f2d2 27b0 f690 d7b4 2228 43b3
00000230: 081b f9b4 7e51 0931 6370 e9b4 a289 91b3
00000240: 3475 9eb3 b61a 2ab4 5f83 a6b4 5bbe 91b3
00000250: c633 f7b4 a27a e2b4 eea1 a6b4 648f c7b4
00000260: 20b1 d3b4 8e39 19b4 ab49 11b3 d896 b3b2
00000270: ba89 3432 e7eb d332 a810 1b33 7d70 f931
00000280: be5a 08b3 2cdc 9bb3 5815 b5b3 d62b 8ab3
00000290: ddd0 83b3 b339 2aab 92a0 f2ac 7d20 03ac
000002a0: 2100 cda9 d870 a3ac 3feb c8ac 8cc5 deaa
000002b0: ac3d 8eac a127 cc29 5093 0cad 60ef 6029
000002c0: b539 11ac f7ef d3ac ee75 d9ac f8bf f5ac
000002d0: c1fd fbab b82e aa29 370e 8bab 652e 9129
000002e0: d029 c6ab c9e7 69ab aac0 2dad 46f4 0428
000002f0: 7058 9fa5 4058 8525 e41b 7225 6321 4125
00000300: 5d8d 3524 ce07 15a8 7a98 80a8 4470 8128
00000310: f1e5 1327 b428 10a7 dd90 4aa8 e1ee 21a8
00000320: 5573 4da8 6877 59a8 e37a 92a4 7cad 14a5
00000330: fdd3 43a8 32fe 92a6 7ad7 5ca8 9306 eca5
00000340: e4b5 53a8 bd39 14a7 c227 28a7 9e78 a2a7
00000350: 820b 3ca8 5a99 8ea5 52f9 5ba8 f799 5ca8
00000360: 8c60 12a8 98aa 46a8 f351 47a8 6826 611f
00000370: f696 9119 c766 3a93 a33b 0a18 675d 78a7
00000380: fdbc 15a8 c32a 0721 6cec a21e d821 9221
00000390: 41e7 7222 ab7e 98a6 951d 38a2 00c3 2ab3
000003a0: 5149 b3b3 f038 99b3 00b9 6a33 99dd ecb1
000003b0: 0098 2fb2 62bd 5e34 6370 2c33 f828 9c34
000003c0: 7c8e 98b3 a003 4934 e0d0 37b2 ecff bab2
000003d0: 408c 2db2 d0c1 beb3 0099 7633 620d 9734
000003e0: c842 8db3 f47f b934 1075 74b3 c0bd 55b3
000003f0: f719 1633 a85f 8d32 a898 e031 0ecd 0d30

exp_avg_sq f4 [40, 33]
8.526279e-10 3.754489e-10 7.780263e-10 6.43491e-10 1.6985596e-12 2.1712636e-12 2.1254874e-10 1.104462e-12
3.843691e-10 6.341175e-11 4.721261e-10 3.4727998e-11 1.22853784e-11 4.6941614e-11 1.1329303e-09 4.4881668e-11
3.3559536e-10 6.160815e-10 7.917898e-10 7.666275e-10 8.169691e-10 5.7829024e-13 4.199212e-13 3.2665922e-13
1.0782414e-10 3.2152746e-11 3.823425e-11 5.3616434e-10 5.7541277e-11 6.040514e-11 9.770721e-11 1.855277e-12
3.4435588e-12 4.713765e-12 1.6220479e-13 4.455131e-12 3.9239393e-12 8.812264e-15 1.2454241e-15 9.559198e-13
1.3569435e-15 2.0313562e-12 4.441816e-13 2.9050516e-12 1.2735722e-13 2.2750936e-13 1.5654421e-13 6.7121113e-12
6.355508e-14 1.6540865e-12 6.109497e-12 2.530943e-12 4.2754567e-12 4.5245947e-12 3.6474307e-17 7.647588e-18
1.19692985e-17 2.3378624e-17 2.873572e-18 2.9144722e-18 1.1837481e-17 1.0533507e-11 2.217209e-18 3.605197e-18
4.574387e-18 6.318313e-18 3.0122502e-09 1.2589613e-06 5.419951e-10 2.542483e-10 1.2995339e-07 5.7523117e-08
5.148712e-09 7.549428e-07 1.0158815e-07 8.892159e-07 7.348071e-08 1.09215065e-07 1.9696782e-07 3.3211464e-07
4.855314e-09 4.6382148e-08 1.6949615e-07 3.1642168e-07 1.231713e-06 1.1198379e-09 2.218396e-09 1.711713e-17
5.019722e-18 3.9992996e-12 1.4807529e-07 3.206521e-06 6.90483e-07 1.0730668e-06 1.5784904e-05 5.348058e-11
6.7027014e-17 2.9205307e-18 7.568336e-19 7.3755296e-10 3.3326987e-11 6.976932e-10 6.109626e-10 1.6158267e-11
1.0432681e-11 1.489041e-10 6.203379e-12 3.1605363e-10 8.7493124e-11 4.5381124e-10 2.1605306e-11 3.788011e-11
3.856559e-11 1.0721152e-09 1.12479635e-11 2.5742555e-10 9.506071e-10 3.997775e-10 6.7036143e-10 7.0876655e-10
5.2261034e-12 2.6806023e-13 3.6676486e-14 1.6876872e-15 7.067054e-17 2.179252e-15 3.019199e-15 1.6371482e-09
2.368773e-13 2.1953942e-15 2.7287974e-14 9.028542e-12 7.47083e-07 3.8236714e-05 5.6715237e-07 4.923838e-07
4.027809e-05 1.9467838e-05 5.914341e-07 0.00011704541 2.2582122e-05 0.00020804549 1.4852359e-05 2.593012e-05
2.2923841e-05 3.4545905e-05 1.1578162e-06 1.2174063e-05 3.7391826e-05 6.960632e-05 0.00027019772 5.9081066e-07
7.0629784e-07 8.1612015e-08 1.5111786e-08 1.57834e-08 9.5187687e-07 3.6637523e-06 6.53358e-06 5.9643685e-06
6.853894e-05 3.5254594e-05 6.612087e-05 5.738028e-05 8.531633e-06 2.7393288e-09 2.9996974e-07 3.0156766e-08
3.5726072e-10 2.5892248e-07 2.9868966e-07 1.9124e-09 3.900349e-07 5.286436e-08 9.957887e-07 3.9179533e-08
9.209591e-08 3.4545766e-07 3.633242e-07 3.91202e-07 6.480989e-08 8.8210136e-08 1.7476707e-07 6.4108343e-07
8.463537e-09 4.0862393e-09 7.9148555e-07 1.6972266e-12 3.5055428e-14 1.7333965e-13 1.0827197e-12 5.592021e-12
7.0572194e-12 3.7380676e-07 3.499386e-07 4.4383586e-09 2.0827478e-09 5.17912e-10 4.031969e-11 1.3704542e-12
3.8104606e-11 3.3560137e-11 7.592426e-14 1.0705651e-14 8.175683e-12 1.5189071e-14 1.7373365e-11 3.8012046e-12
2.484628e-11 1.0899466e-12 1.9453412e-12 1.3430423e-12 5.7413078e-11 5.441084e-13 1.4146935e-11 5.2251294e-11
2.1657405e-11 3.658268e-11 3.8707752e-11 9.656334e-17 2.163351e-15 1.9444696e-15 2.2596083e-17 1.2838031e-16
4.4010535e-17 6.3940913e-16 9.010577e-11 3.3431535e-16 1.7117656e-16 1.9219776e-17 3.640857e-17 3.8226746e-09
4.3648526e-10 3.5419938e-09 3.781332e-09 2.524657e-12 7.051773e-13 2.13186e-09 1.7516264e-11 3.1124479e-09
1.2723342e-10 3.142517e-09 1.08658e-10 1.9292731e-10 3.692061e-10 3.6135424e-09 5.9127724e-11 2.9366747e-09
4.511742e-09 2.0458726e-09 3.4838428e-09 3.6988406e-09 1.15342264e-10 5.2700334e-11 6.95883e-12 3.23018e-12
00000000: 5b5e 6a30 bc67 ce2f bcdc 5530 a7e1 3030
00000010: 0f0d ef2b 02ca 182c 27b3 692f 7070 9b2b
00000020: 244f d32f a471 8b2e ecc6 0130 40bc 182e
00000030: 6d20 582d 8f73 4e2e 71b5 9b30 4464 452e
00000040: d97e b82f e258 2930 41a5 5930 9dba 5230
00000050: 1791 6030 34c6 222b 0665 ec2a 8ee4 b72a
00000060: 981b ed2e c668 0d2e f027 282e 3661 1330
00000070: b811 7d2e 12d5 842e 45dc d62e b38d 022c
00000080: a451 722c d2d9 a52c 59a0 362a 41c0 9c2c
00000090: b40f 8a2c 65bf 1e28 0a7c b326 a488 862b
000000a0: 618e c326 a9f1 0e2c 510d fa2a c26c 4c2c
000000b0: 3864 0f2a 8e13 802a cc40 302a 5329 ec2c
000000c0: 021d 8f29 bfca e82b 75f5 d62c 6a19 322c
000000d0: e46d 962c ed31 9f2c 4335 2824 b712 0d23
000000e0: 6acb 5c23 37a1 d723 3e08 5422 d30c 5722
000000f0: ec5c 5a23 b34e 392d e599 2322 1f02 8522
00000100: ddc3 a822 c71a e922 1100 4f31 95f9 a835
00000110: 84fb 1430 44c6 8b2f 5189 0b34 560f 7733
00000120: 8de8 b031 46a7 4a35 ad28 da33 74b2 6e35
00000130: 73cc 9d33 9e89 ea33 1a7e 5334 7d4d b234
00000140: cbd3 a631 b635 4733 bffe 3534 aae0 a934
00000150: 5651 a535 cbe8 9930 6f72 1831 aee0 9d23
00000160: ef31 b922 7db6 8c2c a0fe 1e34 9c2f 5736
00000170: a159 3935 4b06 9035 d369 8437 c835 6b2e
00000180: c48d 9a24 447f 5722 bb60 5f21 adbc 4a30
00000190: da92 122e cbc7 3f30 acf0 2730 2f21 8e2d
000001a0: 9e88 372d c7b8 232f 1243 da2c 98c0 ad2f
000001b0: 4066 c02e 417c f92f d30a be2d 3699 262e
000001c0: ff9c 292e b359 9330 53e0 452d 6d85 8d2f
000001d0: 84a6 8230 aec7 db2f 7e44 3830 03d3 4230
000001e0: 8ee0 b72c 8de7 962a 1c2d 2529 ab38 f326
000001f0: 86f4 a224 1b08 1d27 648e 5927 0802 e130
00000200: 9e59 852a e031 1e27 c9c9 f528 f0d4 1e2d
00000210: 278b 4835 5c60 2038 6a3e 1835 5b2c 0435
00000220: 45f0 2838 dd4e a337 0bc3 1e35 4776 f538
00000230: bd6e bd37 c926 5a39 652e 7937 8284 d937
00000240: 934c c037 62e5 1038 4366 9b35 343f 4c37
00000250: 2bd5 1c38 9cf9 9138 53a9 8d39 3398 1e35
00000260: 6b98 3d35 ae42 af33 2bcf 8132 1094 8732
00000270: 7b84 7f35 c9de 7536 063b db36 8921 c836
00000280: 90bc 8f38 55de 1338 5faa 8a38 9bab 7038
00000290: 1623 0f37 c83e 3c31 870b a134 b785 0133
000002a0: fa67 c42f 0902 8b34 985b a034 4c6b 0331
000002b0: fd65 d134 fa0c 6333 0aa7 8535 5a46 2833
000002c0: 43c6 c533 5777 b934 e60e c334 6506 d234
000002d0: 9d2d 8b33 096e bd33 9ba7 3b34 eb16 2c35
000002e0: 0867 1132 f166 8c31 7976 5435 08dd ee2b
000002f0: 28e0 1d29 c129 432a 1761 982b 73c0 c42c
00000300: c84d f82c 9caf c834 32df bb34 3780 9831
00000310: 1620 0f31 d15c 0e30 ef53 312e d1df c02b
00000320: f995 272e 5b99 132e 5bf7 aa29 1adb 4028
00000330: 01d4 0f2d 9dcf 8828 57d1 982d 35be 852c
00000340: d98c da2d 7765 992b 27e4 082c 3304 bd2b
00000350: 6181 7c2e 2427 192b 22e0 782d bacd 652e
00000360: 2480 be2d 70e4 202e 0e3d 2a2e efa8 de24
00000370: c8e2 1b27 221d 0c27 7e69 d023 2e03 1425
00000380: 78f6 4a24 114c 3826 0a25 c62e 3db8 c025
00000390: 675a 4525 6a45 b123 a7e7 2724 9a58 8331
000003a0: d7f5 ef2f 6a67 7331 f3ec 8131 2da8 312c
000003b0: 617d 462b 1480 1231 1f13 9a2d c3e2 5531
000003c0: 06e5 0b2f bef3 5731 04f1 ee2e 3620 542f
000003d0: 24f9 ca2f 1c52 7831 f305 822e 87ce 4931
000003e0: b405 9b31 5f97 0c31 6968 6f31 b12e 7e31
000003f0: eca3 fd2e 4dc7 672e 92d7 f42c c04d 632c

exp_avg f4 [40, 10]
-2.7716206e-12 2.4130932e-12 2.82075e-12 -2.6293984e-12 -1.881214e-17 9.5578e-24 -5.9664795e-13 -1.6136833e-17
2.8187255e-12 6.8167087e-13 8.852848e-17 -8.8065096e-17 -6.761271e-17 8.186643e-17 5.617421e-21 -7.661896e-25
8.826106e-17 7.0731096e-20 -8.857738e-17 -3.2909384e-17 -3.1364363e-14 2.983669e-14 2.457968e-14 -3.000284e-14
4.138286e-17 2.0293419e-20 -3.6279654e-14 -2.8029247e-17 3.159575e-14 1.4542424e-14 1.4754459e-13 -1.4679604e-13
-1.1332905e-13 1.3586062e-13 2.7515536e-17 7.1327615e-21 1.4460014e-13 1.1354504e-16 -1.4746699e-13 -5.3071364e-14
-4.197986e-07 3.5203237e-07 4.3334222e-07 -3.9021398e-07 2.9541528e-13 -1.6014597e-16 -4.8429232e-08 2.8828964e-12
4.2802185e-07 5.9130947e-08 -3.2549544e-13 -1.0618614e-14 6.8384604e-12 9.273911e-14 6.1786856e-15 1.6302328e-14
-2.0160281e-16 6.08744e-20 -9.9854464e-14 3.209561e-16 -5.4351603e-17 5.447238e-17 4.1478247e-17 -5.1367072e-17
1.7162505e-19 1.2973567e-22 -5.55177e-17 -3.780847e-20 5.55452e-17 1.9893459e-17 -1.1222255e-08 1.2575134e-07
7.198986e-08 -9.060335e-08 -4.88852e-12 9.455314e-19 -5.450545e-09 -1.0978529e-10 6.5258746e-08 -3.3055585e-09
9.7885e-17 -4.8278877e-19 -1.5871527e-16 2.4282885e-19 1.1522001e-17 -2.5661417e-21 -5.545754e-19 -1.9341549e-22
-4.8910574e-19 2.566336e-19 2.341287e-13 -2.336787e-13 -1.8123201e-13 2.1644545e-13 1.6689246e-17 4.827975e-22
2.3340477e-13 1.8707477e-16 -2.3414574e-13 -8.2525166e-14 -3.77373e-07 3.2783578e-07 3.837902e-07 -3.60022e-07
-2.344257e-12 9.2923095e-21 -7.765077e-08 -2.8945763e-12 3.835062e-07 8.707061e-08 1.556722e-14 -1.546864e-14
-1.1956249e-14 1.4380863e-14 1.1911214e-18 -1.3116844e-23 1.5490135e-14 1.2277661e-17 -1.557146e-14 -5.6830303e-15
2.532037e-19 -7.401403e-19 1.5010065e-20 2.180218e-19 4.4409897e-21 2.11792e-24 9.510524e-20 2.4392465e-22
-1.4592285e-19 -4.7528748e-21 1.8494885e-16 -1.6362544e-16 -1.5619869e-16 1.4760772e-16 2.1422752e-18 -3.7188506e-22
1.4542399e-16 1.1808444e-19 -1.6363586e-16 -5.3788647e-17 -6.577802e-11 3.8976326e-11 6.446142e-11 -4.4504327e-11
1.00844124e-13 1.5877618e-17 -7.819751e-12 2.1639483e-15 6.4185886e-11 8.10167e-12 -7.774684e-17 6.6503124e-19
1.1594598e-15 -1.5668926e-18 3.2562624e-19 2.4554848e-18 -1.917398e-23 -1.0592156e-25 1.977647e-19 2.2689608e-24
9.869548e-19 4.0941634e-20 -2.284382e-18 -3.7110172e-20 1.5304754e-19 1.0464449e-22 -4.2531827e-20 -3.4760298e-23
3.9149793e-20 1.5801266e-20 -1.7504466e-09 1.9676132e-09 2.006844e-09 -2.0166913e-09 -2.7105063e-14 9.5997945e-21
-1.9808927e-10 -5.1707407e-13 1.9809334e-09 3.2789124e-10 7.42644e-16 -4.800205e-19 -1.2354949e-15 9.880967e-19
8.4174084e-17 -2.101241e-20 -1.1435278e-19 -4.1471364e-24 -1.3950859e-18 5.8111816e-20 1.8245219e-15 -1.7724599e-15
-1.4337719e-15 1.659916e-15 1.2873325e-18 -4.651715e-22 1.7857248e-15 1.3813789e-18 -1.8022913e-15 -6.682434e-16
1.734927e-20 -2.4101402e-20 -8.445816e-21 1.3079366e-20 1.4750711e-22 6.808902e-26 3.082977e-21 7.865344e-24
-1.5619555e-20 -1.5398114e-22 -2.7156666e-18 2.6889704e-18 2.0635261e-18 -2.5097326e-18 -1.5399214e-22 6.15766e-26
-2.7049298e-18 -2.1598051e-21 2.7172035e-18 1.0367862e-18 -7.5233483e-19 9.763519e-19 3.9115412e-19 -5.6285076e-19
-6.00183e-21 -2.7497007e-24 -1.2525635e-19 -3.2119097e-22 6.936438e-19 6.251799e-21 5.95857e-15 -5.9294653e-15
-4.507662e-15 5.495531e-15 1.2403784e-18 -6.682185e-24 5.894338e-15 4.7743728e-18 -5.950926e-15 -2.2511218e-15
4.423682e-13 -5.4067007e-15 -1.4397327e-12 2.4368015e-14 6.831161e-14 -6.2784977e-18 1.369112e-15 5.942559e-19
-1.1210042e-15 -6.545817e-16 4.3213856e-14 -1.3769573e-16 -6.0920686e-13 2.5222947e-16 -3.8149517e-16 -1.4619897e-15
00000000: 1409 43ac 6cce 292c 1d7e 462c 0807 39ac
00000010: e982 ada3 efdf 3819 04f1 27ab 05d6 94a3
00000020: a559 462c 90df 3f2b fe21 cc24 7510 cba4
00000030: 80e7 9ba4 69c5 bc24 5d38 d41d cb1f 6d97
00000040: 2284 cb24 5302 a71f db3e cca4 8bc4 17a4
00000050: a640 0da9 5d5f 0629 e264 dd28 eb1e 07a9
00000060: 42d8 3e24 7aaa bf1e 9863 23a9 1843 01a4
00000070: 6b4b 0e29 8cfc 8228 d51e 262a 1447 25aa
00000080: c031 ffa9 28f7 182a 39c9 fd23 ebbb 061e
00000090: 27ce 222a 95e8 0225 7708 26aa 1e03 6fa9
000000a0: ae60 e1b4 f6fe bc34 1aa6 e834 9a7e d1b4
000000b0: d44d a62a bfa2 38a5 8100 50b3 a5dd 4a2c
000000c0: e0ca e534 2af7 7d33 d63c b7aa b749 3fa8
000000d0: 609b f02c 75d4 d029 519c de27 9cd6 9228
000000e0: a66e 68a5 51bc 8f1f 2eda e0a9 c304 b925
000000f0: 0ca7 7aa4 a335 7b24 df48 3f24 89e3 6ca4
00000100: 7d9e 4a20 3fd7 1c1b de03 80a4 a38b 329f
00000110: 1914 8024 1a7c b723 00cc 40b2 4406 0734
00000120: d898 9a33 b891 c2b3 e0ff abac 2b89 8b21
00000130: 8047 bbb1 a06b f1ae 6024 8c33 0028 63b1
00000140: 1bb5 e124 7d7e 0ea1 7bfc 36a5 4257 8f20
00000150: 1d8b 5423 66e4 419d 88ae 23a1 32d3 699b
00000160: c95b 10a1 607d 9720 80cd 832a a68c 83aa
00000170: 920c 4caa 27b2 732a 5eee 9923 a6ea 111c
00000180: 2c65 832a baae 5725 f5cf 83aa 85d4 b9a9
00000190: c099 cab4 6801 b034 b90b ce34 0c49 c1b4
000001a0: 61f6 24ac da86 2f1e f6c0 a6b3 0db0 4bac
000001b0: b1e4 cd34 93fb ba33 9137 8c28 4154 8ba8
000001c0: 7762 57a8 0388 8128 4bc7 af21 77b7 7d99
000001d0: d285 8b28 9d7b 6223 5841 8ca8 b4c0 cca7
000001e0: 1077 9520 6c73 5aa1 1cc4 8d1e 86b2 8020
000001f0: 9ec6 a71d badd 2318 978f e01f 8371 931b
00000200: 7a46 2ca0 fc8e b39d 443b 5525 b5a5 3ca5
00000210: b715 34a5 1c2e 2a25 6f12 1e22 6dca e09b
00000220: 96a9 2725 d568 0b20 c8a8 3ca5 6d0e 78a4
00000230: bca5 90ae 716b 2b2e 8ec0 8d2e 6bbb 43ae
00000240: ae14 e329 f771 9223 0791 09ad cded 1b27
00000250: 7125 8d2e ae86 0e2d a245 b3a4 5748 4421
00000260: 8418 a726 873b e7a1 3f37 c020 cc2e 3522
00000270: 7a70 b999 e21f 0396 b77a 6920 668d 2f18
00000280: 19a6 9121 6657 411f c28e 28a2 723f 2f9f
00000290: c8af 3420 cd03 fd1a d3d9 489f 2a17 289a
000002a0: 32e1 381f 1e3d 951e 5d94 f0b0 9e36 0731
000002b0: c6e8 0931 0296 0ab1 0524 f4a8 c255 351e
000002c0: 2ccd 59af 1d8b 11ab f320 0831 9742 b42f
000002d0: 750d 5626 53ad 0da1 b70d b2a6 3dd1 9121
000002e0: 9c17 c224 e474 c69e 0201 07a0 406f a098
000002f0: dbe0 cda1 7036 891f 7d78 0327 3a70 ffa6
00000300: d9a0 cea6 1738 ef26 0cfa bd21 e796 0c9c
00000310: cfac 0027 05db cb21 68de 01a7 a99b 40a6
00000320: f6db a31e 9da1 e39e 7689 1f9e ef0f 771e
00000330: 3d53 321b 8b94 a815 73f1 681d 4c23 1819
00000340: c485 939e db26 3a9b 7e61 48a2 3769 4622
00000350: e842 1822 822f 39a2 422a 3a9b cf74 9815
00000360: ae96 47a2 b530 239d 867e 4822 ad00 9921
00000370: d00c 5ea1 8815 9021 8ae5 e620 cd1f 26a1
00000380: 23be e29d 6fbf 5498 69e0 13a0 e525 c29b
00000390: 3eba 4c21 b12f ec1d 1cae d627 aaa1 d5a7
000003a0: d867 a2a7 54ff c527 2c0c b721 9440 0199
000003b0: ac5d d427 ad24 b022 9b67 d6a7 de35 22a7
000003c0: fa07 f92a 03cc c2a7 d69f caab d17c db28
000003d0: f6d2 9929 bca2 e7a2 514f c526 b564 2f21
000003e0: c18d a1a6 9bab 3ca6 2f9e 4229 9bc0 1ea5
000003f0: fb79 2bab 8066 9125 c0ea dba5 e6b1 d2a6

exp_avg_sq f4 [40, 10]
6.341201e-10 8.893249e-11 1.3117725e-09 1.425695e-09 1.2448599e-09 2.3463993e-16 6.905587e-10 3.6323944e-10
1.3579908e-09 3.300654e-14 5.4063545e-14 1.5042761e-14 6.161176e-14 1.5537945e-14 2.0877151e-14 1.7921071e-17
2.930296e-14 1.764238e-14 2.1250446e-14 5.329815e-15 4.6000477e-07 5.1677915e-11 8.347619e-08 5.361862e-14
1.4386161e-06 2.3743312e-09 7.793091e-15 1.0011602e-14 1.4122149e-10 5.638754e-15 3.3591192e-11 1.4496808e-13
3.395581e-11 1.1916738e-13 5.141789e-13 1.3467378e-15 4.8697757e-14 1.4659748e-14 3.5581093e-14 1.4035685e-15
1.8730012e-05 1.9377797e-08 0.00011188358 6.478836e-07 4.0022518e-05 1.0954602e-08 1.1402525e-10 3.2363873e-15
9.691903e-07 1.501392e-11 1.9377916e-08 3.6002512e-12 7.740858e-08 4.7870024e-12 1.077344e-06 1.4961891e-07
7.1092513e-16 3.1078023e-17 4.1898523e-11 1.24513215e-17 8.101458e-14 9.961683e-14 7.6894335e-14 9.5263546e-14
1.0562835e-13 4.2710233e-17 7.803354e-14 8.597743e-14 9.965333e-14 4.5214724e-14 2.777286e-09 2.0858686e-09
2.9591787e-09 2.5674212e-09 6.894535e-11 3.8162784e-16 9.5506096e-11 1.5459225e-13 2.9438811e-09 5.0072817e-11
2.1778173e-09 3.305912e-13 1.0814656e-09 5.6211614e-15 5.1718203e-09 1.2639438e-11 4.0635998e-16 5.7433e-17
7.762705e-12 6.8599604e-17 8.76386e-14 7.045794e-14 8.895046e-14 3.702547e-14 8.20401e-14 3.340399e-17
3.2013428e-15 1.6706697e-15 8.1590415e-14 3.477316e-16 1.8285094e-05 1.2445054e-05 1.9053476e-05 9.916998e-06
1.6672257e-05 5.83884e-16 1.5638738e-06 7.688444e-06 1.4251218e-05 1.8630581e-07 7.439521e-13 9.2335915e-14
8.2751227e-13 5.2260777e-14 4.2633968e-13 7.56456e-17 1.4703255e-13 5.571369e-14 4.1369032e-13 7.448408e-15
1.2460715e-07 1.0952486e-11 2.003018e-06 3.4078873e-12 8.192752e-07 8.4203317e-10 1.0292574e-13 5.083053e-14
1.3889967e-11 1.9987743e-14 5.2118136e-11 2.35174e-13 5.256368e-11 1.892226e-13 1.4909862e-12 3.7475008e-15
2.6654524e-14 5.825451e-15 6.1118706e-14 7.765204e-16 7.67955e-06 1.2058137e-09 4.34498e-06 3.4968564e-09
2.2824774e-05 9.8005195e-09 3.3672996e-15 1.4002974e-15 1.4688797e-08 3.933957e-15 1.5306132e-12 8.1080916e-16
4.474993e-12 2.5292063e-15 3.9002954e-10 6.126989e-11 6.7769274e-16 2.795116e-17 3.3703073e-15 1.1768812e-17
2.8029227e-14 4.3457872e-16 2.3434722e-14 1.4474562e-16 3.154976e-14 9.641748e-17 3.570056e-16 2.730707e-18
1.6880364e-14 1.0919985e-17 1.8392596e-11 2.515215e-12 2.0344188e-11 8.284768e-13 1.1004271e-11 2.3755748e-16
3.291395e-12 1.2094444e-12 1.0980172e-11 1.5311859e-13 1.0809596e-11 9.284001e-15 6.755975e-12 3.6968228e-14
3.0677766e-11 1.8637723e-14 1.1616818e-12 4.3967977e-15 4.63871e-12 2.9262697e-15 4.1256616e-12 2.367685e-12
4.473637e-12 1.2865724e-12 2.7468455e-12 3.9817546e-17 4.5301566e-13 1.9286475e-13 2.7349616e-12 1.6657933e-14
9.050561e-12 1.2743373e-12 1.5978377e-11 1.4724937e-11 1.5768725e-11 3.60496e-15 2.9602325e-12 4.0426603e-12
1.6241336e-11 4.8238246e-16 1.5005836e-14 5.018408e-15 1.7083345e-14 4.33358e-15 6.523059e-15 4.659232e-16
8.254403e-15 4.891066e-15 6.467165e-15 1.5767728e-15 0.0002838133 3.3988282e-08 0.00022599997 1.7133727e-09
0.00092699943 8.8750255e-08 3.648498e-14 2.1200506e-14 2.3848548e-07 1.13612775e-14 2.9947867e-12 1.471135e-14
2.2931234e-12 6.6798344e-15 6.4520962e-12 1.8029156e-14 1.1656697e-16 2.332991e-17 2.3853315e-14 7.277284e-18
2.3655262e-05 3.0692595e-09 8.771638e-06 1.1757292e-10 7.377575e-05 1.8385109e-08 2.1865018e-15 1.4403266e-15
2.266335e-08 9.869835e-16 4.67955e-12 4.928156e-15 2.5587488e-10 1.3235329e-14 2.941798e-11 1.7361251e-12
00000000: 3c4e 2e30 8b90 c32e e449 b430 2ff2 c330
00000010: 9d17 ab30 be42 8725 c0d1 3d30 68b1 c72f
00000020: 0ea4 ba30 f3a5 1429 067b 7329 3f7e 8728
00000030: c3bc 8a29 10f4 8b28 6f0b bc28 ef4a a523
00000040: 03f8 0329 8fe8 9e28 3168 bf28 de06 c027
00000050: 93f6 f634 2948 632e 8543 b333 0f7a 7129
00000060: 7916 c135 ad29 2331 4a63 0c28 5d5a 3428
00000070: 5146 1b2f 5328 cb27 52bc 132e 3438 232a
00000080: d856 152e a92b 062a 7fba 102b db15 c226
00000090: b150 5b29 140b 8428 353e 2029 8a46 ca26
000000a0: 651e 9d37 3a74 a632 0aa3 ea38 39ea 2d35
000000b0: dadd 2738 d932 3c32 82be fa2e cf34 6927
000000c0: 2015 8235 5810 842d 7d74 a632 5c58 7d2c
000000d0: d13b a633 7c6d a82c 4299 9035 efa6 2034
000000e0: 04e9 4c26 7452 0f24 8b45 382e b4af 6523
000000f0: ba6d b629 3151 e029 9126 ad29 b283 d629
00000100: 99da ed29 58f7 4424 46b7 af29 9d9a c129
00000110: 3c66 e029 07a1 4b29 88da 3e31 fd56 0f31
00000120: 6c5a 4b31 8d6e 3031 c89c 972e 54fe db25
00000130: 2705 d22e 2f0e 2e2a 4e4d 4a31 fb38 5c2e
00000140: 91a8 1531 371b ba2a b0a2 9430 1086 ca27
00000150: d0b3 b131 f85a 5e2d 2640 ea25 766e 8424
00000160: 1e90 082d 0f2e 9e24 3758 c529 3da8 9e29
00000170: 734c c829 76bf 2629 e6bc b829 780c 1a24
00000180: 5aae 6627 d5c4 f026 acb9 b729 2074 c825
00000190: f162 9937 1acb 5037 07d5 9f37 2f61 2637
000001a0: 66db 8b37 094b 2826 4be6 d135 9efd 0037
000001b0: 8418 6f37 5a0b 4834 6667 512b 08ec cf29
000001c0: 8bec 682b 935c 6b29 0602 f02a 486d ae24
000001d0: 3f8b 252a 83e9 7a29 0fe3 e82a b82d 0628
000001e0: c1cb 0534 9dad 402d 966b 0636 0acf 6f2c
000001f0: 2aec 5b35 d174 6730 a6c4 e729 9ceb 6429
00000200: da5a 742d 9908 b428 ce37 652e 2564 842a
00000210: 712d 672e b40b 552a 70d6 d12b 9804 8727
00000220: 2615 f028 4de2 d127 89a0 8929 18d1 5f26
00000230: 6bd7 0037 ccb9 a530 18cb 9136 594d 7031
00000240: d477 bf37 245f 2832 b7a3 7227 dbcd c926
00000250: 035a 7c32 59bc 8d27 276a d72b 28b3 6926
00000260: 2773 9d2c 9f3f 3627 c76b d62f e2bb 862e
00000270: e654 4326 e8e6 0024 32db 7227 a518 5923
00000280: ff76 fc28 8084 fa25 ca14 d328 5ee1 2625
00000290: 6616 0e29 d652 de24 bacc cd25 997d 4922
000002a0: 780b 9828 2c70 4923 72c8 a12d 16fe 302c
000002b0: 0af3 b22d 0c32 692b d596 412d 4cf1 8825
000002c0: 809c 672c d436 aa2b 4c2a 412d 6e65 2c2a
000002d0: 182a 3e2d e63e 2728 6ab4 ed2c 777d 2629
000002e0: 18ec 062e aadf a728 ff7d a32b 4d69 9e27
000002f0: c935 a32c 26dc 5227 a828 912c 6c9c 262c
00000300: f166 9d2c a811 b52b c54a 412c 43a0 3724
00000310: 7006 ff2a 7b25 592a b074 402c 940a 9628
00000320: 1a38 1f2d d758 b32b 1b8c 8c2d 9c85 812d
00000330: 03b4 8a2d e3e1 8127 cf4e 502c 0c3d 8e2c
00000340: 3ddc 8e2d 8b09 0b26 1a29 8728 a5ce b427
00000350: 83df 9928 3822 9c27 9a04 eb27 104b 0626
00000360: b7b2 1428 1f38 b027 1201 e927 a63c e326
00000370: c7cc 9439 83fa 1133 68fa 6c39 f17b eb30
00000380: e101 733a f896 be33 5150 2429 0af5 be28
00000390: 3209 8034 a5aa 4c28 48bd 522c 1082 8428
000003a0: 3d5d 212c 99aa f027 5103 e32c 6764 a228
000003b0: 7f64 0625 312e d723 00da d628 013e 0623
000003c0: 4a6f c637 fcea 5231 e629 1337 d645 012f
000003d0: 0eb8 9a38 48ed 9d32 d78d 1d27 ac92 cf26
000003e0: 3cad c232 443d 8e26 a4a5 a42c 378e b127
000003f0: 30ab 8c2f 2f6d 6e28 b361 012e 8056 f42b

exp_avg f4 [40]
-2.822854e-12 2.0833109e-16 -2.442858e-12 2.6803855e-13 -4.332644e-07 -9.877064e-12 -1.28147335e-14 -7.199134e-08
4.4323508e-16 1.1945589e-12 -3.837937e-07 2.0249275e-14 4.1349627e-19 3.243815e-16 -6.092258e-11 -1.6635361e-15
7.2459764e-18 -2.006849e-09 4.385439e-15 2.4541103e-15 -2.6473563e-17 -4.576762e-18 1.0664877e-16 6.615816e-14
4.1178168e-12 8.838378e-13 -1.6101874e-14 -9.2767055e-10 -2.003462e-19 -3.9327686e-12 -0.014467623 -0.015734702
-5.3340507e-08 -0.0043656854 2.0777471e-10 -1.457156e-12 -0.007866507 2.419891e-07 -0.0001719622 -0.014719146
00000000: 04a4 46ac 7c30 7025 9ee6 2bac 6de4 962a
00000010: 689b e8b4 57c2 2dad 87d9 66a8 a899 9ab3
00000020: f481 ff25 851e a82b 340c ceb4 a663 b628
00000030: ca15 f420 43fe ba25 5df8 85ae a6bd efa6
00000040: 28aa 0523 dce8 09b1 8900 9e27 58d6 3027
00000050: ef2c f4a3 4cda a8a2 52ea f524 95f9 9429
00000060: ffe1 902c 3ac7 782b 6508 91a8 03ff 7eb0
00000070: ec86 6ca0 3b5f 8aac 9c09 6dbc 10e6 80bc
00000080: 8218 65b3 060e 8fbb 6273 642f 9413 cdab
00000090: 86e2 00bc bbea 8134 c050 34b9 9328 71bc

exp_avg_sq f4 [40]
1.5537851e-09 1.05373175e-11 2.553393e-06 1.6740154e-09 0.000559828 2.122236e-06 9.013099e-11 5.878168e-09
1.4978623e-08 1.230422e-10 1.9435602e-05 1.0480875e-12 1.0626121e-05 5.6338503e-11 0.00013529259 4.5024148e-10
3.2585537e-14 2.536263e-11 1.04314384e-10 5.2700756e-12 1.6629738e-11 5.0506275e-12 0.0066183666 7.154327e-11
0.00048318857 1.2005164e-09 9.751773e-13 2.1181651e-10 1.5206833e-14 4.9448664e-11 0.0037393402 0.0067214402
0.0012177784 0.008079733 0.00021822024 2.114867e-09 0.0001449812 0.00018087066 0.0033986252 0.0005047225
00000000: f48c d530 dc5f 392d f55a 2b36 2e13 e630
00000010: 6cc1 123a bd6b 0e36 3d33 c62e eaf8 c931
00000020: 57aa 8032 4d49 072f a309 a337 5581 932b
00000030: d846 3237 84c7 772e 54dd 0d39 db85 f72f
00000040: 91c0 1229 9117 df2d c763 e52e 9f6c b92c
00000050: d746 922d 02b4 b12c e2de d83b 4853 9d2e
00000060: 7954 fd39 6aff a430 773e 892b 0ce5 682f
00000070: 92f8 8828 3f7a 592e b80f 753b 873f dc3b
00000080: dd9d 9f3a db60 043c 0dd2 6439 2255 1131
00000090: 1806 1839 19a8 3d39 78bb 5e3b 5b4f 043a

exp_avg f4 [40]
-2.8228544e-12 2.0833106e-16 -2.442858e-12 2.680386e-13 -4.332643e-07 -9.877064e-12 -1.2814733e-14 -7.199071e-08
4.4323508e-16 1.1945589e-12 -3.837937e-07 2.0249275e-14 4.1349627e-19 3.243815e-16 -6.092255e-11 -1.6635361e-15
7.245975e-18 -2.0068487e-09 4.385439e-15 2.4541105e-15 -2.6473563e-17 -4.576762e-18 1.0664877e-16 6.615816e-14
4.1178168e-12 8.838378e-13 -1.6101878e-14 -9.276705e-10 -2.003462e-19 -3.932768e-12 -0.014467623 -0.015734702
-5.3340496e-08 -0.0043656854 2.0777471e-10 -1.457156e-12 -0.007866502 2.4198923e-07 -0.0001719622 -0.014719149
00000000: 06a4 46ac 7a30 7025 9ee6 2bac 6fe4 962a
00000010: 649b e8b4 57c2 2dad 86d9 66a8 5099 9ab3
00000020: f481 ff25 851e a82b 340c ceb4 a663 b628
00000030: ca15 f420 43fe ba25 59f8 85ae a6bd efa6
00000040: 26aa 0523 dbe8 09b1 8900 9e27 59d6 3027
00000050: ef2c f4a3 4cda a8a2 52ea f524 95f9 9429
00000060: ffe1 902c 3ac7 782b 6708 91a8 02ff 7eb0
00000070: ec86 6ca0 3a5f 8aac 9c09 6dbc 10e6 80bc
00000080: 7f18 65b3 060e 8fbb 6273 642f 9413 cdab
00000090: 80e2 00bc bfea 8134 c050 34b9 9628 71bc

exp_avg_sq f4 [40]
1.5537851e-09 1.05373175e-11 2.5533911e-06 1.6740154e-09 0.000559828 2.1222363e-06 9.013099e-11 5.878169e-09
1.4978632e-08 1.230422e-10 1.9435602e-05 1.0480875e-12 1.0626121e-05 5.6338503e-11 0.00013529259 4.5024148e-10
3.2585537e-14 2.536263e-11 1.043143e-10 5.2700682e-12 1.6629738e-11 5.0506275e-12 0.006618353 7.154326e-11
0.00048318857 1.2005164e-09 9.751777e-13 2.1181651e-10 1.5206833e-14 4.9448664e-11 0.0037393402 0.006721441
0.0012177782 0.008079733 0.00021822024 2.114867e-09 0.00014498121 0.0001808706 0.0033986254 0.0005047225
00000000: f48c d530 dc5f 392d ed5a 2b36 2e13 e630
00000010: 6cc1 123a be6b 0e36 3d33 c62e ecf8 c931
00000020: 5caa 8032 4d49 072f a309 a337 5581 932b
00000030: d846 3237 84c7 772e 54dd 0d39 db85 f72f
00000040: 91c0 1229 9117 df2d bb63 e52e 8e6c b92c
00000050: d746 922d 02b4 b12c c5de d83b 4653 9d2e
00000060: 7954 fd39 6aff a430 7b3e 892b 0ce5 682f
00000070: 92f8 8828 3f7a 592e b80f 753b 893f dc3b
00000080: db9d 9f3a db60 043c 0dd2 6439 2255 1131
00000090: 1906 1839 15a8 3d39 79bb 5e3b 5b4f 043a

exp_avg f4 [1, 10]
-0.12086105 0.11184602 0.12903784 -0.124978274 -4.1821403e-07 -1.2240896e-11 0.0042306483 5.5251405e-08
0.12883842 0.023265043
00000000: 0086 f7bd 870f e53d 7f22 043e 9cf4 ffbd
00000010: e686 e0b4 1858 57ad 40a1 8a3b 904d 6d33
00000020: 38ee 033e 5596 be3c

exp_avg_sq f4 [1, 10]
0.129255 0.04000405 0.14767897 0.065062955 0.0017688648 1.6846468e-06 0.0023006005 0.00018198407
0.07207596 0.0010217609
00000000: 6c5b 043e 49db 233d 2839 173e ba3f 853d
00000010: 41d9 e73a 061c e235 acc5 163b fad2 3e39
00000020: 909c 933d 9bec 853a
