ckpt/ADAM_lstm_bs{32}_lr{1.0e-02}_eps{1.0e-04}_epoch{200}/ADAM_lstm_bs{32}_lr{1.0e-02}_eps{1.0e-04}_epoch{200}.pth (torch, 30847 bytes, 39 tensors)

lstm.weight_ih_l0 f4 [24, 28]
00000000: 2776 f13d 255a 093d 0e55 46be 627f 943d
00000010: 5d23 003e 72c1 ba3e 052d bb3e 3530 403e
00000020: 4a45 f13d ce87 f53e d457 a8bd fba9 a0bd
00000030: 2479 9c3c 4ccc dc3e acf2 87bd d699 ad3c
00000040: 23f9 3b3e 642c a9be 33a4 bdbe a4bf 953e
00000050: e9a8 bdbc 1f45 2e3d fd68 f53e 1217 fd3d
00000060: ceb9 013f 93c3 c63e 0f93 923d 4bb6 b93d
00000070: e58e 8e3f e76a 533d 8f40 833f 3609 c53f
00000080: 047c 4e3e 0adb 01be 9f98 1d3f 8085 5ebe
00000090: 731f f33e 3cc4 1b3e 8688 d23e e28c bd3e
000000a0: d27b 04bd 9b84 243f b589 a23e ab48 073f
000000b0: 24c7 39bd 4fef d33d 4ec4 5a3e af9e a0be
000000c0: 5c97 0b3e 0f3b 0c3d 1726 1dbe 14df 0ab9
000000d0: d534 533f 9b27 da3e 89e1 863e 6b8e 90bd
000000e0: 0518 0e3d 45a7 f33e e957 f43e 778f d13d
000000f0: c734 cdbc 03ac f13d 0f0d b53d 9f21 4abe
00000100: 7537 f43d 22e9 833e d939 513e 9a15 d53c
00000110: cc0f 92bc f45d 333f 3f20 cb3e d987 f53e
00000120: 6818 aabd f89a 9cbe 6e79 5d3e 3ba1 a7bd
00000130: d556 87bc 0f43 003f a815 583e 3803 9cbd
00000140: 0263 fbbd 9848 a43d 0b02 ae3e e1a5 ecbd
00000150: 86d8 46be 7986 853d c1c0 d63e 9c86 0d3e
00000160: 507e 16be 90b2 61be 1479 053f f47f e73e
00000170: 891a cb3e 20aa aa3e 2e3d db3e 8fe1 dbbd
00000180: bd08 483e f48f 713e e8fa 013f fe48 d83e
00000190: e35f 923d 1d0e 1bbe 3465 243e 7e9a 873e
000001a0: 2a9c 303c 32c7 e73e 567b 69be 7a0a 9d3e
000001b0: 9ca3 bf3e a366 253d 58a0 8d3d 81ea aa3e
000001c0: e760 71be 42cb 5ebe 6e82 713e bfdb c3be
000001d0: 1829 adbd cb09 c13d dc94 51bc 7600 22be
000001e0: d200 bd3e 4cde e53e 7f14 e83e 5947 0ebd
000001f0: a567 ff3e 9bed 11bd ca7b 153f cca7 d03d
00000200: 6820 ce3d 2c1c 54be 318c 8ebe 2d74 70be
00000210: c827 cf3e afdd 8fbe 3866 f73d e254 4c3e
00000220: 1137 40be ecb4 1d3e 4654 883e 0d67 273e
00000230: 4456 2bbf c463 ce3d 40eb 4fbf b6ea cfbf
00000240: ae75 3f3f 8239 803f 2c3e 17be ec49 4e3f
00000250: d704 bb3e 41e9 4f3f 6410 703f 8023 1bbe
00000260: c163 133e 7613 d53e 25a7 383f 698d ad3e
00000270: 554c 4cbe 932c 553e d1f7 9ebe 86e3 a73d
00000280: c826 0f3f 8ff0 223c a66e 073f ae76 5d3e
00000290: e9ee 3b3f df09 253d 4f90 3d3e 9dda a73e
000002a0: 7610 123f e1b2 48be a48d 033f 7467 c33e
000002b0: 6381 08be cc4e 16bd 1f4f 2b3f 0944 af3e
000002c0: 6004 d73e 9fe0 13be 02ae 19bd 3a0e 553e
000002d0: d91f e63e ab1e 523e 7175 8d3d f559 253f
000002e0: fa8c 563d e97c 69be ac60 efbd 38cb bd3e
000002f0: 95d8 e83e 6537 c1be 0661 103e f10c a63e
00000300: e49c 463e 6037 723e 4b2c 523e 781b 99bd
00000310: 7f7a 2d3f f3be 24bb 110b 8d3f efb9 713f
00000320: 857a f23e 1f54 513e eb74 313f adf9 6abe
00000330: 7f02 723f 066f f83e 024b 993e 7b9f 293f
00000340: 051b 583e dc55 623d 8a5d ec3e 3a35 e93e
00000350: aaf3 29be 1a13 dbbd 41ac f9bd 31e8 babd
00000360: 668e 203e 1415 753e fa06 ddbd 60dd c63e
00000370: c05d 0e3c 3b5a 423e ccf5 e93d d42a 6dbe
00000380: 9ba7 d63c 34e7 a03e e4e0 bd3e 7fdf c33e
00000390: 6a9a 953d 1edb a13d e8e1 e73e b62c 753e
000003a0: aa51 6b3d 3eb7 3c3e b6de a33e 32ff 003e
000003b0: 9458 19bd 7b1b d63d a09a 4e3e d4ee 203f
000003c0: 8b34 6abe 0657 3cbe bf92 74bd e378 163e
000003d0: c2e0 433d 421f 193e 7c59 fc3d 008f e03c
000003e0: 4d0e e93e 7433 1a3e 6ad3 42be af40 293d
000003f0: 0282 083e e2dd e33e 33ee 9f3e 578a a4be
0.11790114 0.033533234 -0.19368383 0.07250859 0.1251349 0.36475712 0.36557785 0.1876839
0.11780794 0.47955173 -0.08219877 -0.07844921 0.019100733 0.43124616 -0.06638083 0.021191519
0.18356757 -0.3304168 -0.37039337 0.29247773 -0.023151832 0.042546388 0.47931662 0.12357916
0.5067414 0.38821086 0.071569555 0.09067973 1.1137358 0.051615622 1.0254077 1.5393436
0.20164496 -0.12681213 0.61561006 -0.21730614 0.4748493 0.15211576 0.41119784 0.37021548
-0.032344647 0.6426484 0.31745687 0.5284526 -0.04535593 0.10348379 0.21363947 -0.31371066
0.13631958 0.03423601 -0.15346561 -0.00013243809 0.8250249 0.42608342 0.26343945 -0.07058414
0.034690876 0.47588554 0.4772332 0.10232442 -0.02504958 0.11800387 0.08840381 -0.19739388
0.1192464 0.25763804 0.20432223 0.026011277 -0.017829798 0.70065236 0.3967304 0.47955206
-0.083054364 -0.30586982 0.21628353 -0.08185049 -0.016520897 0.50102323 0.21102011 -0.076178014
-0.122747436 0.08021659 0.33985934 -0.115550764 -0.19418535 0.06519789 0.41943935 0.1382088
-0.14696622 -0.22040772 0.52137876 0.45214808 0.39668682 0.3333292 0.42820114 -0.10736381
0.19534583 0.2359007 0.5077348 0.4224319 0.07147195 -0.15142103 0.16054231 0.26485056
0.01077942 0.4526916 -0.22800955 0.30672055 0.37429512 0.040381085 0.06915349 0.33382037
-0.23572122 -0.21757224 0.23584911 -0.3825359 -0.08455104 0.09425696 -0.0127918385 -0.15820488
0.36914688 0.44896162 0.45328137 -0.03473601 0.49883762 -0.03562699 0.5839201 0.10188255
0.10064775 -0.20713872 -0.27841333 -0.23481818 0.40460038 -0.2809882 0.120800436 0.19954255
-0.18771006 0.15401047 0.26626796 0.16347905 -0.66928506 0.100776225 -0.8121834 -1.6243503
0.7478894 1.001755 -0.1476981 0.80581546 0.3652713 0.8121529 0.9377501 -0.15150261
0.14393522 0.4161641 0.7213004 0.3389695 -0.19950993 0.20817785 -0.31048444 0.081976935
0.5591855 0.009945049 0.5290321 0.21627304 0.7341142 0.040292617 0.1851208 0.32783976
0.5705637 -0.19599487 0.51388 0.38164866 -0.13330607 -0.03669624 0.66917604 0.34231594
0.41995525 -0.14441155 -0.037519462 0.20806208 0.44946173 0.20519511 0.06907166 0.6459039
0.05238054 -0.22801556 -0.116883606 0.37069106 0.4547774 -0.37737575 0.14099512 0.32431749
0.19395787 0.23653936 0.20524709 -0.074759424 0.6776504 -0.0025138229 1.1019002 0.9442434
0.473591 0.20442246 0.6931903 -0.22946806 0.9453506 0.48522204 0.2994004 0.6625897
0.21104057 0.055257663 0.46165115 0.4554842 -0.16596857 -0.10697003 -0.12191058 -0.09126318
0.1567932 0.23933822 -0.10792346 0.3884077 0.008689344 0.18979733 0.11423835 -0.23160869
0.026202967 0.31426394 0.3708564 0.3825645 0.07304843 0.079031214 0.4528954 0.23942837
0.057450928 0.18429276 0.32005852 0.1259735 -0.03743799 0.1045446 0.20176172 0.6286442
-0.22871606 -0.18392572 -0.05971026 0.14694552 0.047821768 0.1495333 0.12321755 0.027411938
0.45518723 0.1505869 -0.1902596 0.041321453 0.13330844 0.4450522 0.3123642 -0.32136795

lstm.weight_hh_l0 f4 [24, 6]
00000000: ebbd 56bf eab3 74be 4cc4 5f3e 70fa 0ebf
00000010: cd82 7a3e 6c17 12be 2111 8cbe 9ca7 b93e
00000020: 8120 e9bd 73bd 30bd 9cdd 993e 0ca6 1bbf
00000030: 4ba5 dcbe 0910 68be 6c64 85be c1c9 57bd
00000040: d082 093f 0c7b 653d ba86 1dbf 1479 943e
00000050: 6139 b4be 9fef 37bf 3712 2e3f f947 ef3e
00000060: 7114 b53c 59ca 893e 0830 44bd 3f79 bbbe
00000070: d6ad d93e 27db 8f3e 53f4 afbe 51a2 593f
00000080: 0d3e 07bd 666f 28bf 9030 f8bd 0797 3ebf
00000090: 48a0 a4bd 52a5 b9be 4216 0cbf e629 723e
000000a0: fed7 1b3f fa02 b13d 740c 943e afa4 0c3f
000000b0: 56bd 8d3e 6fdd 16bc 4f58 51be ea60 2bbf
000000c0: 0c65 bfbe d050 cebd 6676 d9be cf6c 70be
000000d0: a3a1 6a3e ac6c a13e f651 2c3e 71f5 a6bc
000000e0: ffcf 5b3e f809 d4be a9bf ab3e 6fa5 febd
000000f0: 2dbb 82be c003 4b3e f51c 2fbf 33fa 4bbf
00000100: 7b00 ce3e 461e c2bd 3cf7 e6bd d562 5a3f
00000110: ccbd 933e ead0 3abf fbae 113f ccd4 4bbf
00000120: 2911 abbe 13bf 143f deb7 9e3e 2a45 09be
00000130: e63a 5ebe df13 1a3e 18a1 febe 0ce6 c7bd
00000140: 3812 11bf 8be8 06bf efc8 083f eb67 69be
00000150: 2817 123f 155a 663f 5454 0b3d 15b4 99bc
00000160: 9c67 073e 0672 20bf 9c62 cc3e c50b 643e
00000170: 8c53 aebd 22c6 ce3e 3f1a cebe 4295 00bd
00000180: 7062 c2be 3354 20bf e7fa 283e 9e60 ecbe
00000190: 61f8 f53e 9e8e aabe eb14 cc3e 3878 44bd
000001a0: ead6 3a3e 2c17 003f 0efd d9be c192 063f
000001b0: 76ad ae3e 14a3 903e 4e92 853e 1570 c83e
000001c0: df6e febd 6ba2 f83f 4361 36be 0b9e 333f
000001d0: ff18 f83d ab90 80bf cf03 96bc 902d d4bf
000001e0: 5751 17be 902e aabe a4bc 17bf 938e 993f
000001f0: 92d7 83bd d3fe 743f 05cb 0fbf c11a cb3f
00000200: 7f83 ae3e 1b2b b7bf 73f0 ec3c 863c 1abf
00000210: 3536 f7be 612a 16be 6a5c 19bf a821 9a3f
00000220: e4ff 8b3e c66c 7b3f 9ff6 adbe bde2 b53f
00000230: a71b 443f 5bda ecbf 5fee 85be 548d 67bf
-0.8388354 -0.23896757 0.21852225 -0.5585089 0.24463959 -0.14266747 -0.27356818 0.36260688
-0.11383153 -0.043149423 0.30051887 -0.6080024 -0.4309486 -0.22662367 -0.26053178 -0.052682642
0.5371523 0.05602555 -0.615337 0.28998625 -0.35200027 -0.7185001 0.67996544 0.46734598
0.022104474 0.26912192 -0.04789737 -0.3661594 0.4251544 0.28096887 -0.34366092 0.850133
-0.03301816 -0.6579498 -0.121186376 -0.744492 -0.08038384 -0.36258942 -0.5472146 0.23648795
0.6087645 0.08643146 0.2891575 0.5493879 0.27683514 -0.009208067 -0.20443843 -0.66944754
-0.3738178 -0.100740075 -0.42473143 -0.23479007 0.22913222 0.31528223 0.1682814 -0.020380707
0.21466063 -0.41413856 0.33544663 -0.12433898 -0.2553343 0.1982565 -0.6840356 -0.7967865
0.40234742 -0.094784304 -0.11277625 0.85307056 0.2885574 -0.7297503 0.56907624 -0.7962158
-0.3341153 0.58104056 0.30999655 -0.1340529 -0.21702155 0.15046643 -0.4973228 -0.09760675
-0.56668425 -0.5269858 0.534316 -0.22793548 0.57066584 0.89981204 0.03401597 -0.018762628
0.13223118 -0.62673986 0.39918983 0.22270115 -0.08512029 0.40385538 -0.402544 -0.031392343
-0.37965727 -0.6262848 0.16501962 -0.46167463 0.4804106 -0.33311933 0.3985971 -0.047966212
0.18246046 0.5003536 -0.42575878 0.5256768 0.34116715 0.2824942 0.26088184 0.39148012
-0.12423491 1.9424566 -0.1781054 0.7016303 0.121141426 -1.0044149 -0.018312363 -1.6576405
-0.14777122 -0.3323865 -0.5927222 1.1996635 -0.06437601 0.9570133 -0.5616916 1.586754
0.340847 -1.431003 0.028923249 -0.602486 -0.48283544 -0.14664604 -0.5990664 1.2041521
0.27343667 0.9821285 -0.3397722 1.420982 0.76604694 -1.8504137 -0.26158425 -0.90450025

lstm.bias_ih_l0 f4 [24]
00000000: b6fc 053f 7fc4 783d 5080 e1bd 61b7 5e3e
00000010: 9090 bb3e da6a 383f 6962 96bd 10cb de3b
00000020: 9fca 233e a4ef 743e ea1e 373e 6122 223f
00000030: ebd6 3bbd 1392 213f 9242 c93d a9e6 0dbf
00000040: 9039 9abd 4f95 2cbf 1be3 2fbf ec42 803f
00000050: 6482 bcbe e258 3b3f 9f7b 38bf 621a 8c3f
0.5233873 0.06073427 -0.11010802 0.21749641 0.3663373 0.7203804 -0.07342989 0.0067991093
0.15995263 0.2391954 0.17882887 0.6333371 -0.04585926 0.63113517 0.098271504 -0.55430084
-0.075305104 -0.67415327 -0.6870591 1.0020423 -0.3681823 0.731825 -0.7206363 1.0945551

lstm.bias_hh_l0 f4 [24]
00000000: 07b0 873e 3257 793e 6502 0f3b 1819 003f
00000010: be4e 5d3e c20d 4b3f 5c4f e8bd df17 333e
00000020: 70e3 263d cedf 1d3e 5e92 9a3e b25b 193f
00000030: 8d05 c6bd d412 773e 1621 003f 8341 ca3c
00000040: c00b b53d e121 20bf a37a 0cbf 8320 343f
00000050: bbbd 7bbf 1171 683f 51cf 0fbf a044 423f
0.26501486 0.24349669 0.0021821496 0.5003829 0.21612069 0.7931787 -0.113432616 0.17489575
0.040744245 0.15417406 0.30189794 0.5990554 -0.096690275 0.24128276 0.50050485 0.024689442
0.08840132 -0.62551695 -0.5487463 0.7036211 -0.9833638 0.90797526 -0.56175715 0.75885963

lstm.weight_ih_l1 f4 [24, 6]
00000000: 55d5 afbe 979b 2e3f 687d 46be 6bdd 85bf
00000010: 3be5 a1be 2035 edbf 52ac bb3e 2108 4f3f
00000020: f821 cb3e 9a69 56be ceac 47bf d91c b7bf
00000030: 90ec ad3e b1e8 493f e2b9 213f 825a 763d
00000040: 682b 94bc cdf8 583f d0b6 df3e 8423 e43e
00000050: 475d 483e c09b 493f 3081 39bf f414 2a3e
00000060: fadf 24bf 4f41 9c3e 77c4 e8be f398 6cbf
00000070: 4ca4 133f 05f6 acbf 3bf4 febe 09a9 cc3e
00000080: 1a80 cdbf 1cd9 293e dd4f df3f ea99 313f
00000090: ef62 9e3d ebdd 553f ce8e 0a3f d625 ae3e
000000a0: 9657 90bf 59db 4dbe 3222 c03e 3065 a13e
000000b0: 3b64 483f 1909 0bbf 0a81 87bd 690a bcbf
000000c0: a8b9 5ebe df0a 333f 9a8c fb3d 7124 8d3e
000000d0: ba95 553d 1f85 cebe 5481 f6bc 7e64 f5bd
000000e0: 0f38 5a3f ff1b 563f c44b d2be cede a13e
000000f0: fcba de3e f520 623f c63a a43e 9a35 32bf
00000100: 82d4 d0be 3547 86bf 03ec 4cbf a13f 033f
00000110: 4790 a9bf aeab 8abe 1757 be3f 8b11 583f
00000120: 2fa4 2ebe 7d0d ea3e 08af e53d a9bc 8abf
00000130: 8d8f a3bd 4879 b7bf 95b8 713e 9f3c e13e
00000140: e3e6 9dbd 0e30 583f 19ba 95be 5a56 aa3f
00000150: a99a 40be b0fa 6c3d bd7a 1a3e 2189 8dbe
00000160: 7721 4ebd 66ee a63d f78d c5be b731 07be
00000170: 6473 0abf 23ec b6be ec37 fa3e a024 08bf
00000180: 0d67 3f3e b0dd b7bd 73cb b0be b577 b23f
00000190: 8d63 9e3e 8e97 ac3f 6132 c7be 57dc 0dbf
000001a0: a8c9 83be 1c87 353f cac5 553e 53bd 233f
000001b0: 79f5 7fbd 3cd2 833f 52a0 bb3e cd14 26be
000001c0: 77eb 8abe a780 dfbf 9f55 fa3d f83f a93f
000001d0: 545c f93e af54 d7bf 22a8 67be a1b4 00c0
000001e0: 41c6 663e 3f7d 7a3f c05f 623f e64a 09bf
000001f0: 4141 6bbf a734 17bf 1a2e b53e 32f5 e3be
00000200: e295 383f b62d c43f 4279 89bf c6db 1c3f
00000210: 4e58 cfbc 5c29 613f 0c05 9cbe 958f 16bf
00000220: 43e5 883e 4355 b0bf df57 85bd d34e a63d
00000230: deb6 b7bf bbeb 843f b5ea f03f 6fd7 0240
-0.34342447 0.6820616 -0.19383776 -1.0458196 -0.316202 -1.8531837 0.36654907 0.8087178
0.39674354 -0.20938721 -0.77998054 -1.4305679 0.33969545 0.78870684 0.6317426 0.06014491
-0.018087104 0.8475464 0.43694162 0.44558346 0.19566832 0.7875328 -0.7246275 0.16609555
-0.6440426 0.30518577 -0.4546239 -0.9242088 0.5767257 -1.3512579 -0.49795708 0.39972714
-1.6054718 0.16586727 1.7446247 0.6937548 0.07733714 0.83541745 0.5412415 0.34013242
-1.1276729 -0.20103206 0.3752609 0.31522512 0.7827794 -0.54310757 -0.06616409 -1.4690677
-0.2175051 0.6993846 0.12282677 0.27566865 0.052144744 -0.40335938 -0.030090965 -0.11982058
0.8524179 0.8363647 -0.4107343 0.316153 0.43502033 0.8833154 0.3207609 -0.6961304
-0.4078713 -1.0490481 -0.80047625 0.51268965 -1.3247155 -0.27084106 1.4870328 0.8440177
-0.17054819 0.45713416 0.11215025 -1.0838825 -0.079863645 -1.4333887 0.23605569 0.43991563
-0.07710054 0.84448326 -0.29243544 1.3307602 -0.18808998 0.05785626 0.15085883 -0.27643684
-0.050324883 0.0815094 -0.38584873 -0.13202558 -0.5408232 -0.35727033 0.4887079 -0.53180885
0.18691655 -0.089778304 -0.3453022 1.3942782 0.30935326 1.3483751 -0.38905624 -0.55414337
-0.2573979 0.70909286 0.20876232 0.6396076 -0.06248996 1.0298533 0.36645752 -0.16218872
-0.2713277 -1.7461137 0.12223362 1.3222647 0.48703253 -1.6822718 -0.22622731 -2.0110247
0.22536565 0.9784736 0.8842735 -0.5362991 -0.91896445 -0.59064716 0.35386735 -0.44523007
0.72103703 1.532645 -1.074013 0.6127285 -0.025310662 0.87953734 -0.304726 -0.5881284
0.26737413 -1.377602 -0.06510901 0.08120503 -1.4352682 1.0384439 1.8821627 2.044399

lstm.weight_hh_l1 f4 [24, 6]
00000000: 2357 293f d2a5 05c0 7855 483f 2b7f d13e
00000010: d4a8 8bbf 3e34 873e b67f 8bbe d3d2 d53d
00000020: b558 debe 2816 2e3e 0300 3bbf cc46 f4bc
00000030: 7d3a 133f fb39 30bf 7a90 8fbe 088d 25bf
00000040: 79d3 64bf 5529 32be 1e63 453e 1f1b 9e3d
00000050: 37ea 60bf bdcc f13e f967 823e 9065 a8be
00000060: d042 033f 3fbb 3cbf 22f8 58be 0d1a 043f
00000070: 03b2 ed3d 1e33 f8bd 1024 84bf 0064 233f
00000080: 1188 4a3e 9f0e 053f a8a0 7c3f 62a3 0fbe
00000090: 077d 323f a4d1 4cbf 4d4d b43f d137 e73d
000000a0: 9010 58bf 935a d5be 369e db3e 749d 4ebf
000000b0: aad3 efbd 6fec 0c3e c1b1 9bbf d968 aabe
000000c0: a4e7 423f a598 13bf 11ea e93c 307c 94be
000000d0: 8224 63bf 714c 20be 4b36 aabe 57c5 003f
000000e0: 64ba a0be 3b0b 89bd b5f6 b0be 074e 13bf
000000f0: 26b1 ec3e e97f 7ebf 401b d8be 729c 1d3f
00000100: 3c84 b6be 234a 8fbd e4d8 033e f633 0e3e
00000110: f227 873f 7447 e13e abc9 753e 974a 8a3d
00000120: 1c0f 13be 78f7 74bf 350c 383f 4f6b 033e
00000130: 7cfa 72bf 70bb 71bc e2ed 7d3e dade b5bc
00000140: 92f8 e0bd 2cfe f93d 3e0c b3bc d70a fabe
00000150: 4b7d a03e f2bc 8bbe fbce 35be a6de 80be
00000160: 0331 5dbf e0e3 21be eaea c7bb 1341 0ebf
00000170: e978 753e 2e57 82be 988b 36bf ec7a 15bf
00000180: fcf0 8ebe 59e6 0a3f d4b5 353d 5dd8 e2be
00000190: ead3 123f c18c 813e 5066 1cbf b64d d93d
000001a0: 4a13 cc3c 4f21 65be 56c1 9a3f 2148 573e
000001b0: 2e99 0a3f d831 f5bf 9890 8a3f 350b 323e
000001c0: e918 2dbf a484 5abe 14b3 7d3f a712 babf
000001d0: 8a38 0b3d b23e 5dbd 6ea5 01c0 3715 4a3d
000001e0: e1a7 9b3f b83d 15c0 5571 643f 7880 14bf
000001f0: 7aff 5cbf 02b2 d3be 1120 1cbf 8471 503f
00000200: 9be0 9dbf 2dbc f6bd 21d4 583f a702 5ebe
00000210: 4667 853f bed5 14c0 0a14 0f3f 6c6d 1a3f
00000220: e6d8 28bf 3a66 9a3e 8706 e5bd 552c 313f
00000230: 9195 953e 05d5 233e e500 ffbd a460 1cbd
0.66148585 -2.0882459 0.78255415 0.40917334 -1.0910897 0.26407045 -0.27245873 0.10440602
-0.43427053 0.1700064 -0.7304689 -0.029818915 0.5751112 -0.6883847 -0.28039914 -0.6466832
-0.8938518 -0.1739858 0.19276091 0.07720017 -0.87857383 0.47226515 0.2546995 -0.32889986
0.5127382 -0.73723215 -0.21188405 0.5160225 0.11606219 -0.12119125 -1.0323505 0.6382446
0.19778468 0.51975435 0.9868264 -0.1402717 0.69722027 -0.80007386 1.408609 0.11289943
-0.8440027 -0.41670665 0.42894143 -0.80709004 -0.117102936 0.13762067 -1.2163621 -0.33283117
0.76134706 -0.5765479 0.028553994 -0.29000998 -0.8872758 -0.1565416 -0.33244547 0.50301117
-0.31392205 -0.06691595 -0.34563223 -0.57540935 0.46228904 -0.99413925 -0.4220829 0.6156684
-0.35647762 -0.06996562 0.12875706 0.13887009 1.0559065 0.43999827 0.24002711 0.06752508
-0.14361233 -0.9569011 0.71893626 0.12833904 -0.9491346 -0.014754161 0.24797776 -0.02220099
-0.10984911 0.122066826 -0.021856423 -0.48836395 0.3134559 -0.2729259 -0.17754738 -0.25169867
-0.8640291 -0.15809584 -0.006101002 -0.55568045 0.23971905 -0.25457138 -0.71306753 -0.5839069
-0.2791823 0.5425773 0.044362858 -0.44305697 0.57354605 0.253027 -0.61093616 0.10610525
0.024911541 -0.22375987 1.2090251 0.21023609 0.54139984 -1.9155836 1.0825377 0.17387088
-0.67616135 -0.21339661 0.99101377 -1.4536942 0.033989467 -0.05401487 -2.025722 0.04933664
1.2160608 -2.331892 0.8923543 -0.5800853 -0.86327326 -0.41346747 -0.6098643 0.8142321
-1.2334169 -0.120476104 0.84698683 -0.216807 1.0422142 -2.3255458 0.5588995 0.60323215
-0.6595596 0.30156118 -0.111828856 0.6920827 0.29215673 0.15999229 -0.124513425 -0.0381781

lstm.bias_ih_l1 f4 [24]
00000000: dcf5 62bc 6c65 1cbf 9f2a be3c 02c7 a4be
00000010: 5688 3d3e 9150 3d3e e3a6 30bd 8330 e7be
00000020: e194 033e b480 6bbe ac4b 52be 3e72 203e
00000030: 8a70 c0bd 04f9 cfbe ac94 2fbe 020e 433d
00000040: 1d08 fcbd e057 aabe 3ae2 7c3d 685f 203f
00000050: 2e8d 733d 4850 71bf dcb3 0f3f b72f fb3d
-0.013852563 -0.6109226 0.023213683 -0.3218308 0.1850904 0.18487765 -0.043127906 -0.451542
0.12849762 -0.22998315 -0.20536679 0.1566858 -0.09396465 -0.4061967 -0.17146558 0.04762078
-0.12306235 -0.33270168 0.061739184 0.6264558 0.05946081 -0.94263124 0.5613382 0.1226496

lstm.bias_hh_l1 f4 [24]
00000000: c9bb 113f b619 50be c99f 0fbe a619 04bf
00000010: 2d3e b23e 629d e23e 3b36 3abe 8e9e 6cbe
00000020: 0d95 20be 19a7 58be 2a62 393e 0a15 6d3e
00000030: 0ec3 f03e c8c8 a13d 3405 f13e ed5c b63d
00000040: c89f eebe 632b 14bf 269b 173f 3342 1a3e
00000050: 02e0 5e3e 1a95 2fbf b994 2c3f d7f1 09bf
0.5692716 -0.20322308 -0.14025797 -0.51601636 0.3481306 0.442607 -0.1818475 -0.23107359
-0.15681858 -0.21157493 0.18103853 0.23152557 0.47023815 0.07899624 0.47074282 0.08904443
-0.46606278 -0.578787 0.5922111 0.15064315 0.2176514 -0.68586886 0.6741443 -0.53884643

lstm.weight_ih_l2 f4 [24, 6]
00000000: 6283 2bc0 9d27 2240 6924 15c0 24d9 573e
00000010: 565e 0840 c625 5cbf 3a52 22c0 e231 e43f
00000020: e4ab 14c0 857d a9bd 8130 fe3f d8ad 57be
00000030: b14f c4bf 5c07 0340 791d cfbf d8ba 633e
00000040: 23e9 d63f e909 e4be 76ee 25c0 36dd 1340
00000050: e30a 10c0 e95c 803e b0ae a63f c6cc 25bf
00000060: 9d25 bdbf f508 0a40 6646 edbf 3bf4 e13d
00000070: a074 ba3f 4c35 a2be cdc9 f1bf 346a 1a40
00000080: 1ba1 12c0 1879 693e ee11 0040 f450 37bf
00000090: 462c 31bf d47b 483f 507b 77bf d14d c73d
000000a0: d737 383f 3d12 4ebe 8605 cfbe 2dba 363f
000000b0: a082 c4be 7212 89be 77bb 453f 2bec 283e
000000c0: 202c d63d e289 413f 0265 a0bd 432c 8b3e
000000d0: c2cf 213f ba19 0fbf b21c 38be 12d9 9c3f
000000e0: 7a54 28bf 6bb5 913e 9d6b 993f 0616 b4bd
000000f0: 0ae7 b0be 0194 3e3f 8d9c 00be 452e 313e
00000100: 65de 8b3e 4acc 353e d251 81bf 78ec ac3f
00000110: c270 3abf 72da 353e cfa6 7d3f 0cb2 7dbe
00000120: c672 e83e d178 37be 3d1c bebe 30b2 d3bb
00000130: 11b5 9fbd 26f5 143f d617 583f 2643 163f
00000140: 3335 6dbe a1c3 443e a78e 0f3f 6228 81bd
00000150: 98ea 86bf 8188 21bf bf77 07bf 020f 013f
00000160: ab34 973e 4721 d93c 7451 e7be f989 0f3f
00000170: 0721 303e 040c 703d 7603 42c0 d3ca f8bf
00000180: 30be 373d 9144 1dbe 8e57 4b3f 4f8b 063e
00000190: 2651 30bf 96d8 7a3e b83f 15bf 727d 113f
000001a0: 711a 19bf 86f4 d6be 3f1d 10bd c76e dd3e
000001b0: 9ade 1fc0 aa28 1140 2a19 05c0 0d80 d63d
000001c0: c68f f63f a636 4dbf ec34 3c3e 33ed cb3f
000001d0: 2a65 74bf c170 82be 44c9 073f b2ea d7b9
000001e0: 29e5 3fbf c55e 813f 1e37 debf cdbb 19bf
000001f0: d93f 993f 40b0 a23e a7d0 a0bf 10c7 3b40
00000200: 5e0a a1bf df5d ebbe f186 e63d 2d24 95bf
00000210: afd0 93bf 836a 1440 a0d3 ccbf e2e7 e23e
00000220: d608 af3f aad1 44be 4ead fdbf f051 ef3f
00000230: 16e7 26c0 472a 843d a25f 3140 739c 7cbe
-2.679894 2.5336678 -2.3303473 0.21078926 2.1307578 -0.8599514 -2.5362687 1.7827723
-2.3229914 -0.08275894 1.9858552 -0.2106241 -1.533682 2.0473242 -1.6180869 0.22239244
1.6789898 -0.4453881 -2.5926795 2.3103766 -2.2506645 0.25070885 1.302206 -0.64765584
-1.4777104 2.1567967 -1.8537109 0.110329114 1.4566841 -0.31681287 -1.888971 2.4127321
-2.291083 0.228001 2.0010943 -0.716079 -0.6920818 0.78313947 -0.96672535 0.09731639
0.71960205 -0.20124145 -0.40433902 0.7137783 -0.3838091 -0.26771885 0.77239174 0.16496341
0.10457635 0.7560102 -0.07831766 0.27182207 0.6320764 -0.5589863 -0.17979696 1.2253745
-0.657539 0.28458723 1.1985966 -0.08793263 -0.3455127 0.74444586 -0.1255972 0.17302807
0.2731811 0.17753711 -1.0103095 1.3509665 -0.72828305 0.17759112 0.99082655 -0.2477495
0.45400065 -0.17917182 -0.3713092 -0.0064604506 -0.077982076 0.58186567 0.8441137 0.5869621
-0.23164825 0.19215252 0.56077045 -0.063065305 -1.0540342 -0.63098913 -0.52917093 0.50413525
0.2953237 0.026505126 -0.4517933 0.56069905 0.17200099 0.05860521 -3.0314612 -1.9436897
0.04485911 -0.15358187 0.7943047 0.1313908 -0.6887382 0.24496683 -0.5830035 0.5683204
-0.5980597 -0.41983432 -0.03518414 0.4324858 -2.4979615 2.268107 -2.079661 0.104736425
1.9262626 -0.8016151 0.18379563 1.5931762 -0.95466864 -0.2547665 0.5304148 -0.00041182857
-0.74959046 1.0107046 -1.736057 -0.60052186 1.197261 0.31775093 -1.2563676 2.9340248
-1.2581289 -0.45970055 0.11256207 -1.1651665 -1.154806 2.319001 -1.6002083 0.44317538
1.3674572 -0.19220605 -1.9818513 1.869688 -2.6078544 0.06453376 2.771462 -0.24669056

lstm.weight_hh_l2 f4 [24, 6]
00000000: 1a61 69be ee90 57be 0e3a 2cbe 5b21 df3d
00000010: 0eef 4b3d e891 61bd 8b88 68bd c61f 663e
00000020: ef12 47bf fab6 bd3d da72 9dbd 06b1 0a3e
00000030: f051 51be 7c9f 35bf e107 883e 1b9d 423f
00000040: 9125 90bc 1519 eb3e 06ed babd 0293 6c3e
00000050: 766c 1ebf 4c52 743e 1790 a8bd ee4d 223d
00000060: aca4 02bd 5174 a0be 71d7 8bbe cc22 bb3e
00000070: 8200 71bd 26fe 573d 5bea 0cbe 42a5 8d3e
00000080: 21a9 d53d c4f9 453d 144a 48bd 7b8e df3e
00000090: d585 9dbe c475 753e 2834 adbe a28a fb3e
000000a0: a175 e7be d7e9 c0bd 71cd b23c cd77 afbe
000000b0: 7c86 6bbe b357 703e 99f1 6ebe 4292 2d3e
000000c0: 6ada 093d f4ee 16bf c339 de3e df4c 643f
000000d0: 3cb8 863e 2527 f23d c48c 9e3d d333 e73e
000000e0: 73de febe 1601 953e 222f 2dbe a350 76be
000000f0: 19df 8f3d 569f 2bbf 0522 8c3d fc59 0b3f
00000100: af50 b7be c9a3 2fbe 25c3 1ebf ef21 36be
00000110: cf72 8fbe 6a9e a13e f6f2 8ebe f578 dd3d
00000120: 8744 c0be 0a98 c53d 3411 2fbf 277e c9bd
00000130: 3731 2a3e 8af9 8a3e 4aaf 013d be30 a33d
00000140: ceec ad3e 1b48 22bc 1e24 903d 9231 09be
00000150: 4dce 15be 1e02 253f 247d dbbe cd6c 923e
00000160: 55bc eebd 979b a83e 5701 e93e 185f 11bf
00000170: 1734 763d cd8f 89be 8a21 a63e c385 b4be
00000180: 44f2 053d ddff 8bbe 4c7c f03d 1f29 713e
00000190: 9da5 003d 9285 823e 265a b0bd b824 44bf
000001a0: 4415 533f 5d20 0b3f 46ac 23be 2260 35be
000001b0: 262b cebe b34c 853e caa9 eebe 73ad 2e3f
000001c0: 86b7 8f3d 5919 bdbd 592f 613e 3e25 613c
000001d0: e651 1fbe 1231 163e 9d3b 943e 645d 583d
000001e0: 0864 a43d 4988 33bf 8f3d 86be db89 5f3e
000001f0: 8373 91be f2ec 8fbe 5eda 313e e011 1f3d
00000200: 5028 f1be 1332 d13e 81f2 cb3d 92f9 d23c
00000210: e0c6 bdbe 23b6 25bf 6039 033e 51a1 4a3f
00000220: cd9c da3d aa3b 7a3e 78d7 94bd 9756 cf3e
00000230: 127b 18bf 156e 293e 8039 9abe 96d3 5d3d
-0.22790948 -0.2105138 -0.16819021 0.10895034 0.049788527 -0.055070788 -0.056770843 0.22473058
-0.77763265 0.09263416 -0.07687922 0.13544092 -0.20441413 -0.7094648 0.2656851 0.76020974
-0.017596038 0.45917574 -0.0912724 0.23102954 -0.6188425 0.23859519 -0.08230608 0.0396251
-0.031895325 -0.31338742 -0.27312806 0.36549985 -0.058838375 0.05273261 -0.13761275 0.27665144
0.104326494 0.0483339 -0.04889877 0.4366339 -0.30766168 0.23970705 -0.33828855 0.49129206
-0.4520693 -0.094196014 0.021826478 -0.34271088 -0.2300052 0.23470955 -0.2333435 0.16950324
0.03365556 -0.58958364 0.43403444 0.89179796 0.26312435 0.118238725 0.07741693 0.45156726
-0.4977909 0.2910239 -0.16912511 -0.24054198 0.070249744 -0.6704 0.06842426 0.5443418
-0.35803744 -0.17152323 -0.62016517 -0.17786382 -0.2801728 0.31566173 -0.2791974 0.10814086
-0.37552282 0.0964814 -0.68385625 -0.09838515 0.16620336 0.27143508 0.03166131 0.07968281
0.3396973 -0.009904887 0.07038139 -0.13397816 -0.14629479 0.64456356 -0.42868912 0.28598633
-0.11657015 0.32931206 0.45508835 -0.56785727 0.06010827 -0.26867524 0.32447463 -0.35258302
0.032701746 -0.27343646 0.11742458 0.23550843 0.03140794 0.2549253 -0.086109444 -0.7661853
0.82454324 0.5434626 -0.15983686 -0.17712453 -0.40267295 0.2603508 -0.46613914 0.6823341
0.07017426 -0.0923335 0.21990718 0.013741789 -0.15558586 0.14667156 0.2895173 0.05282344
0.08026892 -0.7012983 -0.2621884 0.21829931 -0.2840844 -0.28110462 0.17368457 0.038835406
-0.47101068 0.40858516 0.09958363 0.02575377 -0.37065792 -0.64731044 0.12814856 0.791524
0.106744386 0.24436823 -0.0726766 0.4049575 -0.5956279 0.16545899 -0.30121994 0.054156862

lstm.bias_ih_l2 f4 [24]
00000000: a9e5 ddbf 287b 2ac0 e0de 0ec0 cd0e c9bf
00000010: fd12 1fc0 7b64 a3bf 71e1 b1be 4718 f7be
00000020: 28d9 31bf 46e4 1abf e0f8 59bf 3b3a 9cbe
00000030: 4744 193c e3a5 01bd 4655 a83d 01dd ddbe
00000040: 5ffd 1fbe 63b4 0bbf 82a8 c5bf f04e 97bf
00000050: a1f6 d1bf 0456 c6bf 78ba efbf 17c1 c8bf
-1.7335712 -2.6637669 -2.2323532 -1.5707642 -2.485534 -1.2765039 -0.3474231 -0.4826071
-0.6947198 -0.6050457 -0.8514538 -0.30513176 0.0093546575 -0.031652343 0.082193896 -0.43332675
-0.15623997 -0.54572123 -1.544205 -1.1820965 -1.640339 -1.5495 -1.8728781 -1.5683926

lstm.bias_hh_l2 f4 [24]
00000000: bfc4 b4bf da55 31c0 e393 fdbf ea12 b3bf
00000010: 2b7a 04c0 852d c7bf e34b 2abf 95ee 3fbf
00000020: 00c8 5abf 1ace 59bf 4928 8bbf aa2d 27be
00000030: 5261 d1be f4e0 8d3d 7803 073c b086 5fbe
00000040: a8b6 abbe 97de 48be e743 7abf b20d adbf
00000050: 2a07 c9bf b7fb 9dbf 274e fabf 2135 7abf
-1.4122542 -2.770865 -1.9810756 -1.3990147 -2.0699565 -1.5560766 -0.66522044 -0.7497342
-0.85461426 -0.8508011 -1.0871669 -0.16326013 -0.40894562 0.06927672 0.008240573 -0.21828723
-0.33537793 -0.19616161 -0.9775986 -1.3519804 -1.5705311 -1.2342442 -1.95551 -0.9773732

fc.weight f4 [1, 6]
00000000: cbd6 17be f190 913b 9981 2bbc cf63 843d
00000010: fb4a 21be 92b6 84be
-0.14828031 0.004442327 -0.01046791 0.064643495 -0.15751259 -0.2592054

exp_avg f4 [24, 28]
00000000: 9ae3 c4a6 e9a1 c5a6 1b66 d0a6 bde3 dba6
00000010: faec b4a4 64be cea4 76ee a8a6 7280 96a5
00000020: 7c68 c8a6 fe24 e8a5 84dd 09a6 f73f e2a6
00000030: 7a57 2aa6 8f42 9fa6 2415 caa6 85c4 78a6
00000040: 2536 ada3 e391 67a5 3fae 21a6 1133 f2a3
00000050: fd16 a6a4 a350 53a6 191e 71a4 cbe0 06a5
00000060: 7ff7 88a3 0608 00a4 baad 54a3 aa8c 0ea5
00000070: 504a 921b 6e56 9a1b 8048 a11b 6fff a01b
00000080: 31a3 0419 4755 8d19 f783 4b1b 6c5a ab19
00000090: d275 901b 271f 391a 5203 491b 92af 9b1b
000000a0: 62ba a11a 0854 421b 1acd b01b cb21 541a
000000b0: caf3 9f16 20ef a299 c66a a298 dc90 a11b
000000c0: 7cb0 af18 a8b1 7d99 4e7e d319 06c1 a319
000000d0: 4bae 8e18 0c1b be17 7d15 3797 578c e218
000000e0: 1375 8a29 5982 b128 9a99 9229 b2d1 a029
000000f0: 5ba3 2d27 9016 5627 ae94 6f29 e696 f727
00000100: d483 8d29 55e0 6f28 b5f6 b828 04c6 7e29
00000110: 5094 1528 d3d3 6829 6a7b 9d29 f7d5 df28
00000120: 6a4c 8527 9479 0727 ee78 0027 0f8a a025
00000130: e6dc 5d25 99d8 f425 b53b ff27 f571 5029
00000140: d077 5927 26f3 0128 ed52 ae27 caba c727
00000150: 4aa8 d224 18e6 a322 7851 dc24 ac19 f524
00000160: 56e1 4f20 8bd0 3521 875a b524 a8a1 0122
00000170: 51da d824 4dde 9e23 1843 9223 e92b cc24
00000180: fa88 0f23 6e08 b224 4585 fb24 f119 bd23
00000190: 2e92 8d1d ef9c 081f efc6 151f 9e2c 9c20
000001a0: 183b 6722 d8e4 3121 77b5 0b21 7b5f 0122
000001b0: 961e dc23 8c4f b624 b88f 5720 d4e2 521f
000001c0: 7403 149f 900a b89e 5e5b 179f d2c5 249f
000001d0: bed0 1d9d deeb 3a9d 37d0 0c9f 481d 9a9d
000001e0: c5dd 169f 498e 0a9e 41fb 249e 767c fa9e
000001f0: 7452 059e 2a76 0b9f bdf0 179f fefe 829e
00000200: a5af 1e9c 19e1 9d9e 1d9c c29d 5277 401e
00000210: c6ef 3e9c 170e 2e9e b9a5 7a9c fab6 8d9e
00000220: b73e b39c a442 bb9b e9f1 639c d558 ec9b
00000230: ff24 2b1f 1054 1e1f 02da 341f 1000 411f
00000240: b504 941c 468d 051d 0afb 171f 251a 1c1d
00000250: 52d1 301f 1fba 011e bd5d a71e 6691 271f
00000260: bd5a 4a1e 4a74 151f 2419 431f c95b 411e
00000270: ea60 7f1b 19e9 551e 62d3 391d b8ff 7d1e
00000280: c06f 141c 9a36 201e acde 661c 5e64 af1d
00000290: cbb8 5a1c 3ebc 709a f869 269b a7f1 821c
000002a0: 935b 43a8 187c 33a8 27c8 4ea8 c1c1 5ba8
000002b0: fe64 17a6 74ad 2da6 435b 28a8 4b88 f9a6
000002c0: 7e0f 47a8 808e 5aa7 7131 8fa7 bc0b 5ea8
000002d0: 4a86 97a7 19a3 1fa8 99f2 4ea8 f86e daa7
000002e0: d064 1fa5 29ab 9ba6 5825 64a7 f113 82a5
000002f0: d62b 2ea6 b3d6 f5a7 0ba2 21a6 f58b 51a6
00000300: 56af 8ea5 a37c c5a5 002f f1a4 f229 97a6
00000310: a217 0c9a 0ef6 2999 92d4 109a f4a9 2d9a
00000320: f6aa 3c96 05e5 9996 ee9b 179a ad8d 3a97
00000330: fa63 159a f7ab 0099 ce2f f498 8656 eb99
00000340: 92b2 6f98 1861 169a 04c1 229a 0d26 5799
00000350: e32f 0296 82cc 1596 eb87 3c99 e418 5319
00000360: 0141 b497 0448 3a99 2a4f ce17 d596 0a9a
00000370: 09eb 9a97 9ed0 4117 6a1f fd15 d5fd 1a17
00000380: 5534 db2a 2597 0a2a d932 e82a 1c36 002b
00000390: dfdc 2328 7d7c 5328 cf47 bf2a eef3 0129
000003a0: dd55 e12a 1744 b529 3a4c 102a 5a2e c52a
000003b0: 9b6d 4929 c7ff b92a 545d 002b 00e0 132a
000003c0: 45f3 cc28 4cee 1d28 6d60 6928 e4fc 1427
000003d0: 300e e026 fb07 b127 487b 8029 4fff 922a
000003e0: e62e 8628 2ad8 5929 1a08 3229 fea7 fd28
000003f0: 9f99 7927 5589 5325 ffad 8227 e137 9127
-1.3661924e-15 -1.3713507e-15 -1.4460575e-15 -1.5257906e-15 -7.846401e-17 -8.966079e-17 -1.1721977e-15 -2.610789e-16
-1.3906108e-15 -4.0270652e-16 -4.7831633e-16 -1.5699238e-15 -5.909915e-16 -1.1050882e-15 -1.4022296e-15 -8.630862e-16
-1.8779629e-17 -2.0085484e-16 -5.6094243e-16 -2.625932e-17 -7.202997e-17 -7.3314614e-16 -5.228404e-17 -1.169881e-16
-1.4849968e-17 -2.7762372e-17 -1.1529331e-17 -1.2364196e-16 2.4201697e-22 2.5533017e-22 2.6682068e-22 2.663485e-22
6.857196e-24 1.4613502e-23 1.6834407e-22 1.7717507e-23 2.389894e-22 3.8282268e-23 1.6627403e-22 2.5756059e-22
6.688916e-23 1.6074456e-22 2.9249301e-22 4.386787e-23 2.5841688e-25 -1.684699e-23 -4.1983832e-24 2.672883e-22
4.5414643e-24 -1.3115671e-23 2.1867903e-23 1.6931767e-23 3.688213e-24 1.228529e-24 -5.915761e-25 5.8561338e-24
6.14874e-14 1.9707477e-14 6.510348e-14 7.141804e-14 2.4097128e-15 2.9710697e-15 5.319762e-14 6.8719876e-15
6.2845264e-14 1.3315809e-14 2.0535096e-14 5.657108e-14 8.303322e-15 5.1698077e-14 6.9936095e-14 2.4850766e-14
3.6997764e-15 1.8800921e-15 1.7829125e-15 2.7849128e-16 1.9243538e-16 4.2474025e-16 7.0841452e-15 4.628412e-14
3.017975e-15 7.213663e-15 4.838461e-15 5.5436113e-15 9.1358075e-17 4.442486e-18 9.5547805e-17 1.062953e-16
1.760814e-19 6.160119e-19 7.8649597e-17 1.756834e-18 9.404491e-17 1.7224542e-17 1.5857767e-17 8.8545284e-17
7.7810514e-18 7.7209475e-17 1.09079665e-16 2.0502408e-17 3.7473535e-21 2.8928933e-20 3.171653e-20 2.6456953e-19
3.1337622e-18 6.0272805e-19 4.73352e-19 1.7533307e-18 2.3865401e-17 7.9064676e-17 1.8258761e-19 4.4656858e-20
-3.1343075e-20 -1.9486126e-20 -3.205107e-20 -3.4891984e-20 -2.0886694e-21 -2.4738836e-21 -2.9818384e-20 -4.0793737e-21
-3.194718e-20 -7.335083e-21 -8.734046e-21 -2.6521255e-20 -7.058012e-21 -2.9532138e-20 -3.2174628e-20 -1.3869748e-20
-5.250483e-22 -1.671612e-20 -5.151279e-21 1.018907e-20 -6.3175626e-22 -9.214397e-21 -8.2932253e-22 -1.5004633e-20
-1.1861438e-21 -3.097962e-22 -7.542066e-22 -3.9100331e-22 3.624126e-20 3.3527336e-20 3.8296814e-20 4.086939e-20
9.795035e-22 1.767544e-21 3.218315e-20 2.0659944e-21 3.7442595e-20 6.867692e-21 1.7720582e-20 3.5483896e-20
1.0712555e-20 3.164817e-20 4.1313652e-20 1.0236316e-20 2.112442e-22 1.13243296e-20 2.4593828e-21 1.344659e-20
4.9113526e-22 8.481621e-21 7.6388413e-22 4.642589e-21 7.236899e-22 -4.9782898e-23 -1.3765439e-22 8.665144e-22
-1.08445315e-14 -9.963405e-15 -1.1478698e-14 -1.2198956e-14 -5.252552e-16 -6.0256505e-16 -9.345663e-15 -1.7314788e-15
-1.10500784e-14 -3.0330827e-15 -3.9744078e-15 -1.232602e-14 -4.2056516e-15 -8.861639e-15 -1.1487902e-14 -6.0627467e-15
-1.3825208e-16 -1.0801679e-15 -3.16616e-15 -2.2564918e-16 -6.0427786e-16 -6.8233938e-15 -5.6077705e-16 -7.270112e-16
-2.4751886e-16 -3.425851e-16 -1.0459671e-16 -1.0489099e-15 -2.8970412e-23 -8.7867856e-24 -2.9950215e-23 -3.591285e-23
-1.5240465e-25 -2.4863015e-25 -3.1352027e-23 -6.027866e-25 -3.0893238e-23 -6.652173e-24 -6.3120792e-24 -2.4333377e-23
-3.098018e-24 -3.1097705e-23 -3.3656732e-23 -1.1122924e-23 -1.0516427e-25 -1.2100655e-25 -9.746821e-24 1.0913471e-23
-1.1648637e-24 -9.630518e-24 1.3332422e-24 -2.8659572e-23 -1.0011348e-24 6.2624975e-25 1.0223545e-25 5.0080465e-25
3.8938527e-13 1.2309301e-13 4.124676e-13 4.5549827e-13 9.0962114e-15 1.1739847e-14 3.3978243e-13 2.885533e-14
4.0027609e-13 8.0498264e-14 1.2816216e-13 3.5026393e-13 4.4726033e-14 3.3040083e-13 4.5604254e-13 1.3133938e-13
2.2754051e-14 8.766923e-15 1.2955007e-14 2.0676218e-15 1.5546968e-15 4.913602e-15 5.705728e-14 2.6111966e-13
1.4897327e-14 4.8371172e-14 3.9530967e-14 2.8161498e-14 3.463897e-15 1.8347863e-16 3.6270895e-15 4.030617e-15

exp_avg_sq f4 [24, 28]
00000000: 747b aa1c a167 db1d fb43 bd1c 4f91 3a1c
00000010: 038d 431d cb48 4a1d d4d8 b91b 2517 a41d
00000020: 05cc aa1c 59f2 fc1b 0e30 6e1d bf25 941d
00000030: ef1d e81b 8777 011c 4fdf c41b 9052 071d
00000040: 488c 881b 1b75 821c af32 c91c f1a6 1e1c
00000050: a942 0a1c ae50 801c 46c6 3f1b 2ae1 db1a
00000060: d370 331b 9545 d41b 57fc ad1b 6da3 221b
00000070: 8c24 501c f73f 201e d685 611c d5ba a61b
00000080: 3964 671d 82a0 551d fdaa 641c 7f0d 261e
00000090: af17 851c 001f 961c 87b8 7f1d c2c9 9d1d
000000a0: 64c8 2a1c 4cc4 a81c 4334 0b1d c1fd a41d
000000b0: 60e6 031d 151a 3e1c 9118 261c 2e0b 041d
000000c0: 3870 061c 1b02 941c b223 921c cc85 c41b
000000d0: 5551 091c e120 ff1b a5be 9d1c fec8 071d
000000e0: 0de5 e51f 4d50 c321 1cff 0c20 cd91 0e1e
000000f0: 5d1d 6121 35b3 8021 35ca 0f20 79b4 1f22
00000100: 1c7b fb1f 8ac2 7d20 64c0 b921 2791 a821
00000110: d01e e11f 4d02 6120 be8d c020 7393 4c21
00000120: ba10 0220 5030 ae21 f57e 561d f698 981e
00000130: 52e5 451d fd2e 291d 1cc0 621e 27ca 3120
00000140: 3ad7 fb20 a080 2320 51cd c41f 1b29 6d21
00000150: 6670 ab1c 4933 281f 7fb8 b61c f981 7a1b
00000160: e9f7 211e 73cf 2c1e 97c3 0b1d 3e0c df1e
00000170: c0c6 5a1d 0688 391d 3bdd 3e1e 9149 1a1e
00000180: 154f 0b1d d34e 591d 9680 b41d 879a 451e
00000190: 3eb8 7b1d c6f3 b51c c1a2 e81d 032d 151e
000001a0: 2d68 991c e9c1 3f1d 432b 221d fe64 d51b
000001b0: 5873 c21b b0b8 311d 5709 201c 6234 361c
000001c0: d15b 0f1d 025e 881e 1ff3 1f1d 36c2 dd1c
000001d0: b469 df1d 4098 b51d 5109 4a1d 6a2b af1e
000001e0: 833c 6f1d c14d 1e1d a2ed cc1d c504 c41d
000001f0: 2950 f11c 3c5b 911d 8035 da1d d3b2 7b1e
00000200: 9548 c21b 3b73 841c ef38 d31c 2f18 8c1c
00000210: 440b af1d cef4 5d1d 4fcd 061d e005 df1d
00000220: 9648 b51d 2e82 0b1c 3053 f81b f755 fd1c
00000230: c5fd e11b 8410 111f cec2 f91b 05d0 671b
00000240: baf2 841d 08cc 1a1d cd4e 221d cfff 901e
00000250: 2f1f 551d 2b41 061d fb04 141d 0674 ff1c
00000260: f8c0 ff1c 5291 7b1d d6d8 c71d 0669 641e
00000270: 4289 c11b eeea 891a a87d 0e1d e558 511e
00000280: a9f5 021d d367 961d 1ea6 221c dc76 091c
00000290: 0f7e 031c 2276 9f1c 8b15 ef1b fba5 891c
000002a0: 9c0b c31c 6ccc 0d1e 092f d91c fcd8 511c
000002b0: 24a4 7d1d 5d40 6a1d 67b2 3f1c c17f 051e
000002c0: 49d1 fb1c 3346 5b1c 4ae7 901d 1bbc ae1d
000002d0: 4a4a 3f1c 2c7d 8f1c 7051 a91c 6bdc 8d1d
000002e0: cdb6 b11b a35c 8a1c c796 a61c e5ee 5f1c
000002f0: 179e 491c 9665 631d 4137 a11b 7b43 711b
00000300: 7906 6c1c b640 431d ad88 881b 06da 591b
00000310: 06f1 c41c ca13 871e 9197 d61c 5d1f 801c
00000320: 2a5d ac1d 49a7 9e1d 60c4 001d 7971 871e
00000330: 456a 141d 31fc ff1c 25d9 bd1d 37cb d41d
00000340: 1021 931c 1b42 341d b624 901d 7670 151e
00000350: 725b 211d f8cc a31c 6b11 a31c 0197 601d
00000360: beb5 7d1c 956a b21c a61c 171d 3aef 8d1c
00000370: 2a89 bc1c c6a9 ae1c 7c8e d61c b068 091d
00000380: 73df b320 9d78 9622 12c6 de20 5896 df1e
00000390: 793a 4122 8b31 4f22 94f0 2421 5dab 1023
000003a0: dead 0221 8b99 7321 27ac 9322 e429 7f22
000003b0: 905a c320 d82f 8121 df05 d821 33d9 6a22
000003c0: 7437 3420 3e2a 9d22 09e5 7c1d 3fa3 021e
000003d0: 84fb 631d e529 671d 464c 881e 883d 0521
000003e0: 8c92 1722 a30e 4f21 456e 2021 b4d9 5a22
000003f0: 0f64 d41c 0c07 ec1e cba8 e61c 9baa 631c
1.1281568e-21 5.8075967e-21 1.2524543e-21 6.1730045e-22 2.5880936e-21 2.677211e-21 3.0745805e-22 4.343437e-21
1.1302394e-21 4.1846516e-22 3.1523881e-21 3.9214302e-21 3.8400525e-22 4.2837005e-22 3.256979e-22 1.7909785e-21
2.2589967e-22 8.632949e-22 1.3314166e-21 5.249358e-22 4.5746526e-22 8.491185e-22 1.5863215e-22 9.094005e-23
1.4842988e-22 3.5117424e-22 2.878352e-22 1.3453132e-22 6.8868663e-22 8.483557e-21 7.4619234e-22 2.7583134e-22
3.062441e-21 2.8273296e-21 7.565987e-22 8.790758e-21 8.807324e-22 9.934181e-22 3.3844367e-21 4.1766167e-21
5.650728e-22 1.1168049e-21 1.8423515e-21 4.3672814e-21 1.7456807e-21 6.2899437e-22 5.4956544e-22 1.7475834e-21
4.448192e-22 9.794363e-22 9.670697e-22 3.2511944e-22 4.5434617e-22 4.2207459e-22 1.0438669e-21 1.7971012e-21
9.7364205e-20 1.3234969e-18 1.194287e-19 7.547568e-21 7.6271827e-19 8.721053e-19 1.2179476e-19 2.164406e-18
1.065063e-19 2.1494301e-19 1.2587013e-18 1.1422544e-18 9.534218e-20 1.9059003e-19 3.2619862e-19 6.9313036e-19
1.1016963e-19 1.1803487e-18 2.83883e-21 1.6156889e-20 2.6191289e-21 2.2391256e-21 1.2004068e-20 1.505937e-19
4.266348e-19 1.3849195e-19 8.3348896e-20 8.0353126e-19 1.1344885e-21 3.5617806e-20 1.2091441e-21 2.0721512e-22
8.574536e-21 9.148504e-21 1.8497614e-21 2.3616107e-20 2.8954811e-21 2.4554869e-21 1.0104266e-20 8.167905e-21
1.8437381e-21 2.8760462e-21 4.777856e-21 1.0461049e-20 3.3314824e-21 1.2040589e-21 6.1578172e-21 7.8973025e-21
1.015162e-21 2.5378889e-21 2.1462887e-21 3.530316e-22 3.2169147e-22 2.3521236e-21 5.295163e-22 6.028645e-22
1.897336e-21 1.4438441e-20 2.1169165e-21 1.4674756e-21 5.9136903e-21 4.8067724e-21 2.6739294e-21 1.8546801e-20
3.166267e-21 2.0951324e-21 5.4244057e-21 5.18857e-21 1.5968763e-21 3.8475515e-21 5.7759437e-21 1.3324809e-20
3.2141513e-22 8.764814e-22 1.3977526e-21 9.270674e-22 4.6333763e-21 2.9375668e-21 1.7840894e-21 5.9033683e-21
4.7985353e-21 4.6159495e-22 4.1081917e-22 1.6764357e-21 3.7387122e-22 3.0718606e-20 4.1319484e-22 1.9175087e-22
3.5191082e-21 2.0487212e-21 2.148126e-21 1.5352393e-20 2.8206437e-21 1.7768443e-21 1.9590212e-21 1.6904476e-21
1.6924366e-21 3.3294702e-21 5.2899065e-21 1.2091938e-20 3.2017872e-22 5.704142e-23 1.8858506e-21 1.1082751e-20
1.733236e-21 3.981202e-21 5.3816005e-22 4.548312e-22 4.350719e-22 1.0552274e-21 3.9553155e-22 9.108804e-22
1.2907019e-21 7.506751e-21 1.4372014e-21 6.9432745e-22 3.356913e-21 3.1002917e-21 6.342718e-22 7.06738e-21
1.6663886e-21 7.255175e-22 3.835563e-21 4.6251913e-21 6.3292615e-22 9.495302e-22 1.1204533e-21 3.7550296e-21
2.9400326e-22 9.15602e-22 1.1023934e-21 7.4093275e-22 6.670965e-22 3.0095719e-21 2.6670923e-22 1.9956857e-22
7.8094216e-22 2.584149e-21 2.2587637e-22 1.8020266e-22 1.3032495e-21 1.4301866e-20 1.4200511e-21 8.478437e-22
4.562435e-21 4.199522e-21 1.7042182e-21 1.4340612e-20 1.9642577e-21 1.6939674e-21 5.0252406e-21 5.632605e-21
9.73619e-22 2.3856977e-21 3.815444e-21 7.911251e-21 2.1355449e-21 1.0839418e-21 1.0790938e-21 2.972422e-21
8.3945574e-22 1.1806603e-21 1.9999494e-21 9.392436e-22 1.2476252e-21 1.155824e-21 1.4198163e-21 1.8185921e-21
3.0471646e-19 4.0785286e-18 3.7739335e-19 2.3673224e-20 2.6187333e-18 2.807996e-18 5.5883764e-19 7.842543e-18
4.4275825e-19 8.2534815e-19 4.0026703e-18 3.458112e-18 3.3094214e-19 8.754044e-19 1.4638283e-18 3.1827898e-18
1.5264941e-19 4.259966e-18 3.347033e-21 6.915901e-21 3.017323e-21 3.0594254e-21 1.4431106e-20 4.514359e-19
2.0541897e-18 7.01537e-19 5.435605e-19 2.965976e-18 1.4054848e-21 2.4990386e-20 1.5263755e-21 7.53285e-22

exp_avg f4 [24, 6]
00000000: 42e9 b824 0728 0da7 d062 8fa6 64dd 0c27
00000010: d79c a7a6 6cc1 0c27 a6fc da18 2fc9 7799
00000020: 19dc b098 5977 4919 3f02 6e99 fc2a f318
00000030: 71fc 10a8 ea2b b929 f2df 7d29 0a8d b8a9
00000040: e077 9329 3dd2 b7a9 85a0 e2a3 dd5a fc24
00000050: 5464 d924 6a06 fba4 3d4d f224 60f4 f9a4
00000060: def7 771d cbbb a29e 3243 029e ac82 971e
00000070: 841b 399e ec43 821e c45a 869c 8f6d 6d1d
00000080: 741b 221d 00d0 529d 69f7 491d 3369 1d9d
00000090: b001 4d26 7eb9 87a8 3ef5 12a8 076c 8728
000000a0: c50c 2da8 6d4a 8728 68ed 4919 0c2c 069a
000000b0: f4a3 7499 c6d6 e319 d2af fb99 1d19 9c19
000000c0: ecc0 74a9 ee54 0d2b bc84 d02a 60d4 0cab
000000d0: 30d1 f22a 3532 0cab b0e2 82a6 fa65 9527
000000e0: 37b5 8027 bb98 94a7 d67c 8f27 8bfa 93a7
000000f0: 011c 161d 73fc 289f 6d81 1c9e badc 261f
00000100: 3f70 129e 5351 231f 1bf4 049c e2d6 061d
00000110: 1cb3 ae1c 3772 f59c 0a1a e91c 141f c39c
00000120: 509c e6a4 09da 2627 b680 9b26 9382 26a7
00000130: 84ed ac26 7462 26a7 c8d7 d71b dea3 879c
00000140: 225c fc9b e2d7 601c d48e 789c f376 111c
00000150: 9733 baa7 a11b 6729 e34d 2929 6c45 66a9
00000160: 0f82 4529 0629 65a9 e368 2425 d3a3 30a6
00000170: 628e 19a6 a6b3 2f26 b28b 2aa6 05ed 2e26
00000180: 9747 ca1c 5a1a 5a9e 76a4 689d cee5 501e
00000190: 308f 8b9d 5cbf 411e 2a17 691a 88aa 4b9b
000001a0: 153e 079b 7a8a 341b a1f1 2b9b 6ca3 041b
000001b0: 4270 ce2d 54d3 17af f52c f7ae 6136 172f
000001c0: 9c60 0caf 0ea0 162f d8b6 d827 c394 6da9
000001d0: 7ef2 31a9 3cc1 6c29 56ff 4fa9 5dde 6b29
000001e0: 7452 92ae e637 7030 9f6f 2c30 b18a 6fb0
000001f0: f50c 4d30 bde3 6eb0 bc18 87ab da6f b02c
00000200: b872 8e2c acb9 afac 2501 a12c e414 afac
00000210: e61e 482e 705e 32b0 1d38 f8af 9ae6 3130
00000220: 172f 14b0 2f80 3130 51dd 4cac e769 f72d
00000230: d0a7 c12d 9794 f6ad d010 e12d 327f f5ad
8.0192434e-17 -1.958938e-15 -9.949401e-16 1.954892e-15 -1.1630464e-15 1.9533757e-15 5.660679e-24 -1.28102294e-23
-4.5717176e-24 1.04155585e-23 -1.2304765e-23 6.285743e-24 -8.048345e-15 8.223268e-14 5.6371527e-14 -8.195708e-14
6.5489064e-14 -8.163303e-14 -2.4570952e-17 1.0944151e-16 9.427871e-17 -1.08864764e-16 1.0508162e-16 -1.08400524e-16
3.2818322e-21 -1.7230087e-20 -6.896038e-21 1.6041792e-20 -9.7995086e-21 1.3792377e-20 -8.890839e-22 3.142333e-21
2.1454714e-21 -2.7900802e-21 2.6730037e-21 -2.0833164e-21 7.112595e-16 -1.5068455e-14 -8.1578065e-15 1.503486e-14
-9.606198e-15 1.5020288e-14 1.04394e-23 -2.774613e-23 -1.26476144e-23 2.3557996e-23 -2.6023805e-23 1.6140165e-23
-5.4346217e-14 5.0211126e-13 3.7040325e-13 -5.003272e-13 4.3132989e-13 -4.980767e-13 -9.082006e-16 4.146637e-15
3.572361e-15 -4.1243843e-15 3.982582e-15 -4.1072335e-15 1.9866812e-21 -3.5784205e-20 -8.285336e-21 3.5334448e-20
-7.7523876e-21 3.4583862e-20 -4.3990635e-22 1.7845844e-21 1.1560653e-21 -1.6242264e-21 1.5425378e-21 -1.2912051e-21
-1.00011404e-16 2.3155325e-15 1.0790173e-15 -2.3107912e-15 1.1999276e-15 -2.30905e-15 3.5708212e-22 -8.975909e-22
-4.1749442e-22 7.4394405e-22 -8.224092e-22 4.8130214e-22 -5.1681304e-15 5.1316268e-14 3.7593094e-14 -5.1130473e-14
4.3855595e-14 -5.0883797e-14 1.426027e-16 -6.128429e-16 -5.3275503e-16 6.095879e-16 -5.916992e-16 6.06896e-16
1.3385744e-21 -1.1546273e-20 -3.0789969e-21 1.1058951e-20 -3.6941046e-21 1.0256907e-20 4.8201982e-23 -1.6846868e-22
-1.1186998e-22 1.4933995e-22 -1.4222863e-22 1.0971589e-22 2.3469341e-11 -1.3808449e-10 -1.12402455e-10 1.3752689e-10
-1.2767248e-10 1.3699283e-10 6.0150283e-15 -5.27536e-14 -3.9512224e-14 5.257013e-14 -4.6184702e-14 5.237335e-14
-6.653958e-11 8.739093e-10 6.273186e-10 -8.7144786e-10 7.459698e-10 -8.690753e-10 -9.599192e-13 5.014639e-12
4.048619e-12 -4.994413e-12 4.5760223e-12 -4.9761185e-12 4.550218e-11 -6.4890227e-10 -4.5150808e-10 6.471993e-10
-5.3909005e-10 6.4574385e-10 -2.9112999e-12 2.8127679e-11 2.2016083e-11 -2.803295e-11 2.5587005e-11 -2.7909761e-11

exp_avg_sq f4 [24, 6]
00000000: e106 431c d75d ef1c 6cbc ae1c 107d 701c
00000010: 766f 2e1d d2cf 201c 3c98 911d 7922 3f1d
00000020: 1de5 de1d b46d 471d 2d20 221e 810d 471c
00000030: e42e 341d a895 a122 33ea 0e1f d53f a122
00000040: 90e6 d31e 5749 a122 9e31 cb1c 81a8 191e
00000050: a925 131d 4405 cf1c 031c 411d 92f9 8a1c
00000060: d2d0 f71b d2d1 2c1e d7b1 471c fe53 841b
00000070: f012 f71c 6abe a31b 3b49 e91c bdb4 8a1c
00000080: fca3 151d 5bee 841e 0e56 3d1d 69d9 c61d
00000090: add8 871c 4c9c 351e 9a5c ed1c f1ba 2b1e
000000a0: 7ae3 5b1d 3826 261e 47e8 2b1e c50e 001e
000000b0: e36a 761e 6427 db1d 81aa 8e1e 3797 211d
000000c0: f8f8 ec1d 76c6 9d23 20e3 1e20 d4c7 9d23
000000d0: 924d e31f 99d2 9d23 8a56 8b1d 705a b41d
000000e0: 11de af1d de77 b71d 4968 fa1d 6ec4 221d
000000f0: 312c 081c 1014 a61d 08b4 701c 0b4f 921b
00000100: bc0a 071d 61e6 8c1b 09b0 191d b1ff 051d
00000110: ff25 001e 0695 ba1f 6eb4 ee1d aac8 601f
00000120: 8444 581c 92a7 b11e 1009 d41c 3d44 981e
00000130: d9cd f81c eea5 971e ae38 ae1e 7cf5 171e
00000140: e7f9 2c1f b06e 631e 7af4 af1f 1465 d21c
00000150: 93e4 9a1e 927d 1a26 c252 f620 2989 1a26
00000160: 7625 bf20 4793 1a26 9abc a01e a9de 8d20
00000170: 8fff b31e 9b97 981e 246c e51e 7bf4 af1e
00000180: adf0 921d 4467 db1f d0af bd1d b210 8e1d
00000190: 1e2e c91d 018b 6c1d 2dda 931d bdbd 081e
000001a0: 446b b51c 5e89 071e a8ba b81c e7ce c21d
000001b0: d37d e320 9e4c 7023 132b 5323 e4b2 6d23
000001c0: 4d16 5523 6f7c 6b23 55b4 3b1f b224 b122
000001d0: b879 791f 96ae bf22 85ee 951f 335a bf22
000001e0: 52f4 8c20 f383 a226 66d4 bb24 f19f a226
000001f0: b028 a924 bf55 a226 6c89 d61f ba9b bf21
00000200: 018a a221 6a5e 7622 438e a821 907e 2022
00000210: 2f9f 9520 845e ac26 ddd3 1125 4927 ac26
00000220: ccae e024 4e2f ac26 d092 4621 d26f 9325
00000230: 2a52 9125 24d1 9225 35a6 9125 73b9 7625
6.452898e-22 1.583995e-21 1.156306e-21 7.957098e-22 2.3086332e-21 5.320816e-22 3.8538587e-21 2.5296461e-21
5.899981e-21 2.6394146e-21 8.582862e-21 6.586103e-22 2.3847044e-21 4.3797592e-18 3.0263395e-20 4.3706722e-18
2.2435852e-20 4.371679e-18 1.3446239e-21 8.134598e-21 1.9474758e-21 1.3699472e-21 2.555782e-21 9.196586e-22
4.099767e-22 9.148994e-21 6.607343e-22 2.1891847e-22 1.6349984e-21 2.708914e-22 1.5437576e-21 9.178794e-22
1.9804764e-21 1.4074625e-20 2.505843e-21 5.263496e-21 8.98956e-22 9.614382e-21 1.5707281e-21 9.091323e-21
2.9102011e-21 8.79587e-21 9.1006985e-21 6.779318e-21 1.3045235e-20 5.8009546e-21 1.5105354e-20 2.1386349e-21
6.2726108e-21 1.7106026e-17 1.345827e-19 1.7106605e-17 9.626657e-20 1.7111166e-17 3.6882473e-21 4.7739113e-21
4.6551726e-21 4.8563636e-21 6.6282277e-21 2.1542073e-21 4.505574e-22 4.396058e-21 7.9642024e-22 2.4204754e-22
1.787265e-21 2.3309936e-22 2.034039e-21 1.7734593e-21 6.784121e-21 7.90206e-20 6.3184635e-21 4.759983e-20
7.155696e-22 1.880991e-20 1.4031326e-21 1.6121849e-20 1.6464474e-21 1.6056374e-20 1.8446409e-20 8.0446384e-21
3.662913e-20 1.20401696e-20 7.4519835e-20 1.3922762e-21 1.639992e-20 5.359966e-16 4.1728786e-19 5.361537e-16
3.2381448e-19 5.362908e-16 1.7018663e-20 2.4033673e-19 1.9058059e-20 1.6156329e-20 2.4291044e-20 1.862996e-20
3.889473e-21 9.2920946e-20 5.020967e-21 3.760435e-21 5.325194e-21 3.1306203e-21 3.9136164e-21 7.239017e-21
1.2005303e-21 7.175247e-21 1.2224348e-21 5.1565304e-21 3.853856e-19 1.302665e-17 1.1447454e-17 1.2885677e-17
1.15514755e-17 1.2765725e-17 3.9747957e-20 4.80148e-18 5.2828484e-20 5.1955504e-18 6.349855e-20 5.1866156e-18
2.38786e-19 1.1276773e-15 8.145814e-17 1.128436e-15 7.3360994e-17 1.126425e-15 9.085987e-20 1.2983884e-18
1.1014076e-18 3.33892e-18 1.1421779e-18 2.1751045e-18 2.534692e-19 1.1960516e-15 1.2648527e-16 1.1945546e-15
9.744063e-17 1.194772e-15 6.7279314e-19 2.5576207e-16 2.5209167e-16 2.5468682e-16 2.5266117e-16 2.1399931e-16

exp_avg f4 [24]
00000000: 6e2a 0da7 e46c ad1b 6030 b929 8e5f fc24
00000010: 485f 3f9f 101e 4c1f 70bb 87a8 b3b1 329a
00000020: b557 0d2b 6467 9527 7a5b 2d9f c0a5 281d
00000030: e6dd 2627 5d4c b91e 9d21 6729 4ca6 30a6
00000040: a9e7 d49e 166c 079e dcd4 17af 5598 6da9
00000050: 983a 7030 7171 b02c 4660 32b0 206d f72d
-1.9590682e-15 2.8690818e-22 8.224042e-14 1.09449455e-16 -4.0524638e-20 4.3223547e-20 -1.5069299e-14 -3.695308e-23
5.021498e-13 4.1467904e-15 -3.6709843e-20 2.2320306e-21 2.315742e-15 1.961922e-20 5.132146e-14 -6.128764e-16
-2.2542185e-20 -7.169192e-21 -1.3808993e-10 -5.27567e-14 8.739476e-10 5.0148154e-12 -6.4892836e-10 2.812911e-11

exp_avg_sq f4 [24]
00000000: 173d 381e bf1c c41e d027 a422 f3fb 761f
00000010: 4b3c 6c1f c620 4f1f 313d a61e 3c78 271f
00000020: fb6f 9e23 151f 491f db81 031f ec5b 6920
00000030: 56da 4a1f de22 2520 c0d4 1a26 bb1e ce21
00000040: 0331 1d21 0acd bb1f 85e8 7a23 5ccc c622
00000050: 0d58 a326 ac2f 0823 3dc0 ac26 c088 9525
9.753512e-21 2.0764196e-20 4.4494442e-18 5.2300934e-20 5.0024817e-20 4.3861065e-20 1.7601242e-20 3.546308e-20
1.717782e-17 4.2589116e-20 2.7847743e-20 1.9766282e-19 4.2955767e-20 1.398758e-19 5.3717813e-16 1.3967237e-18
5.3258536e-19 7.953679e-20 1.3601765e-17 5.388438e-18 1.1334263e-15 7.38267e-18 1.1987004e-15 2.5940045e-16

exp_avg f4 [24]
00000000: 6c2a 0da7 e46c ad1b 6030 b929 895f fc24
00000010: 485f 3f9f 121e 4c1f 70bb 87a8 b3b1 329a
00000020: b757 0d2b 6667 9527 7a5b 2d9f c0a5 281d
00000030: e7dd 2627 5f4c b91e 9d21 6729 4ba6 30a6
00000040: aae7 d49e 166c 079e dbd4 17af 5198 6da9
00000050: 983a 7030 7271 b02c 4460 32b0 206d f72d
-1.9590678e-15 2.8690818e-22 8.224042e-14 1.0944942e-16 -4.0524638e-20 4.3223554e-20 -1.5069299e-14 -3.695308e-23
5.021499e-13 4.1467912e-15 -3.6709843e-20 2.2320306e-21 2.3157421e-15 1.9619223e-20 5.132146e-14 -6.1287635e-16
-2.2542187e-20 -7.169192e-21 -1.3808991e-10 -5.2756685e-14 8.739476e-10 5.014816e-12 -6.4892824e-10 2.812911e-11
