ckpt/MXN/ADAM_lstm_bs{32}_lr{1.0e-03}_eps{1.0e-04}_epoch{400}/ADAM_lstm_bs{32}_lr{1.0e-03}_eps{1.0e-04}_epoch{400}.pth (torch, 24447 bytes, 15 tensors)

lstm.weight_ih_l0 f4 [40, 27]
1.0541128 0.060506273 0.3606647 -0.72542626 -0.47597802 -0.3902643 -0.09178692 -0.5885093
0.35531157 -0.96130204 -0.5872237 -0.64829373 0.29247147 0.16897973 -0.20029461 0.16385789
0.33220738 -0.27882403 0.15469085 0.024998028 0.22443943 0.29172534 0.5696045 -0.705925
-0.528174 0.11107968 -0.5074756 1.2619839 0.045718256 0.2296017 -0.33383977 -0.11914722
-0.21348982 0.3884823 -0.8046934 -0.14141291 0.008500937 -0.4151089 0.000594934 1.0798434
0.2933991 0.48847666 -0.56719047 -0.5127456 -0.31671697 -0.10463866 -0.1754377 -0.2402201
-0.36227462 0.10973486 -0.08134998 -0.21644567 -0.1825053 -0.16236691 -0.6846415 -0.34397095
0.083112404 -0.37141353 -0.2995343 0.28231618 0.68274724 -0.4204137 -0.116164885 -0.057667855
-0.3499865 -0.09748162 -0.5648763 -0.41175735 -0.20602183 0.29608664 0.08756223 -0.012586929
-0.15393811 0.22939104 0.4835166 -0.16280174 -0.3347977 -0.9066486 -0.36092934 -0.7399199
0.15055105 0.8565089 -0.29937515 0.48759916 -0.5864073 -0.6566169 -0.44705692 -0.24372748
-0.010037441 0.26847693 -0.75927514 0.2684689 -0.033982694 0.7427659 0.619427 0.24538273
-0.45437288 0.11139249 -0.5101796 0.14787953 -0.18986651 -0.62932616 -0.07278162 -0.49042547
0.14327252 -0.095105916 0.74106836 0.4112417 0.831303 -0.20591632 0.16433905 0.16294794
0.08066584 0.057007898 0.27543023 -2.091633 0.2593194 0.21770757 -0.51439047 -0.11350124
0.33738294 0.20626502 0.28262454 -0.12983763 -0.4270806 -0.65351623 -0.25953034 -0.58820254
-0.21859306 -0.86213607 -0.71109337 0.24939208 -0.08946703 -0.3874745 -0.07841463 0.040662766
-0.3883749 -0.25774255 -0.47771317 0.071838014 -0.1855563 0.020229058 -0.6303644 -0.20320894
-0.25810146 -0.34859613 -1.5017077 0.1459575 0.48877734 0.344845 -0.2544057 -0.0030520088
0.62148315 0.39131907 -0.5535981 -0.59313273 -0.26388475 0.0016623706 0.7573573 -0.77113503
0.23929243 -0.21987452 0.5823039 1.0056944 0.21715038 0.56208885 0.6219717 -0.24146056
-0.3363576 0.7056739 -0.15910676 -0.008658219 0.4497973 -0.53506154 0.43039748 0.20794234
-0.41484565 0.34558347 0.057498783 0.40751874 1.7209196 1.0535865 -0.8280626 -0.44512668
0.51659507 -0.16899763 0.1515338 -0.09275067 -0.15553388 0.9238977 0.0324318 0.13906209
-0.2004603 0.21350339 -0.41655752 -0.13894728 -0.23783362 0.42618856 0.98238856 -0.20621717
-0.31468 0.5047591 0.35422355 0.10916208 -0.03805415 -0.58537585 0.1164886 -0.0854067
0.23680858 0.051885325 -0.45433697 -0.5523818 -0.6534625 -0.27162093 0.2710856 0.52049667
0.749458 0.43841508 -0.28361523 0.22130473 0.22337058 0.43570542 -0.42365944 -0.3763051
0.030152561 0.10475161 0.9097891 -0.08787906 -0.054713875 -0.15897608 -0.074538104 0.75484794
-0.42512628 0.61951673 1.5324742 1.822833 0.9243146 -0.038287394 0.23930934 -0.17356044
-0.33990225 -0.28621075 0.39043882 0.47425604 -0.23182377 0.24407831 0.67011863 0.7423092
0.17208487 0.07113889 -0.5178177 0.34279758 -0.5841276 -0.64666146 0.32140887 0.5207586
00000000: 2bed 863f 6dd5 773d 0ba9 b83e 89b5 39bf
00000010: 64b3 f3be b9d0 c7be c8fa bbbd 8ca8 16bf
00000020: 66eb b53e e417 76bf 4b54 16bf 94f6 25bf
00000030: d2be 953e 0609 2d3e 081a 4dbe 5dca 273e
00000040: 1617 aa3e 06c2 8ebe 4767 1e3e aac8 cc3c
00000050: 73d3 653e 065d 953e 9ad1 113f 80b7 34bf
00000060: 6936 07bf be7d e33d ece9 01bf b088 a13f
00000070: 1143 3b3d b51c 6b3e 0ced aabe 7503 f4bd
00000080: 139d 5abe 27e7 c63e 6300 4ebf 8cce 10be
00000090: 8447 0b3c 2789 d4be 58f5 1b3a 4f38 8a3f
000000a0: 6838 963e 9d19 fa3e 6533 11bf 4c43 03bf
000000b0: ba28 a2be cb4c d6bd f1a5 33be 42fc 75be
000000c0: 0f7c b9be acbc e03d d19a a6bd efa3 5dbe
000000d0: abe2 3abe 8343 26be aa44 2fbf f61c b0be
000000e0: d636 aa3d ea29 bebe 8f5c 99be bf8b 903e
000000f0: 86c8 2e3f 7740 d7be dbe7 edbd 2135 6cbd
00000100: 6e31 b3be 72a4 c7bd bc9b 10bf dcd1 d2be
00000110: 63f7 52be ab98 973e d453 b33d 6839 4ebc
00000120: f4a1 1dbe 7ce5 6a3e 7d8f f73e 80b5 26be
00000130: 9b6a abbe 1f1a 68bf bbcb b8be 646b 3dbf
00000140: 0e2a 1a3e 2b44 5b3f b347 99be 99a6 f93e
00000150: ca1e 16bf 0c18 28bf a5e4 e4be b293 79be
00000160: 1474 24bc cf75 893e db5f 42bf c174 893e
00000170: 7031 0bbd e825 3e3f c592 1e3f 9c45 7b3e
00000180: 90a3 e8be bf21 e43d 219b 02bf bb6d 173e
00000190: 5e6c 42be 851b 21bf 880e 95bd 0c19 fbbe
000001a0: 08b6 123e e4c6 c2bd a8b6 3d3f 468e d23e
000001b0: 46d0 543f badb 52be 7f48 283e d3db 263e
000001c0: 2234 a53d 1d81 693d 3105 8d3e 51dd 05c0
000001d0: 83c5 843e bcee 5e3e 18af 03bf 5773 e8bd
000001e0: 75bd ac3e 2337 533e 2ab4 903e 28f4 04be
000001f0: 4faa dabe d74c 27bf 29e1 84be 7194 16bf
00000200: dcd6 5fbe f3b4 5cbf 370a 36bf a360 7f3e
00000210: 7d3a b7bd 0f63 c6be d997 a0bd 008e 263d
00000220: 13d9 c6be d5f6 83be d296 f4be cf1f 933d
00000230: 7902 3ebe 69b7 a53c 905f 21bf 0116 50be
00000240: e025 84be 317b b2be f537 c0bf e275 153e
00000250: 0641 fa3e 868f b03e 7741 82be 3604 48bb
00000260: 8519 1f3f f95a c83e 9bb8 0dbf 8cd7 17bf
00000270: e71b 87be e7e3 d93a 2be2 413f 1b69 45bf
00000280: 1309 753e c926 61be de11 153f 98ba 803f
00000290: ab5c 5e3e 0ee5 0f3f 8a39 1f3f 7041 77be
000002a0: 1037 acbe 0ba7 343f e2ec 22be 34db 0dbc
000002b0: d54b e63e cbf9 08bf 0f5d dc3e d6ee 543e
000002c0: a666 d4be 51f0 b03e d883 6b3d 4ca6 d03e
000002d0: 1847 dc3f ecdb 863f e9fb 53bf a5e7 e3be
000002e0: 933f 043f b70d 2dbe ad2b 1b3e 10f4 bdbd
000002f0: 4644 1fbe 8f84 6c3f 35d7 043d 4b66 0e3e
00000300: 7745 4dbe a2a0 5a3e 0747 d5be 3248 0ebe
00000310: a88a 73be 6335 da3e d17d 7b3f 982a 53be
00000320: bd1d a1be e437 013f ca5c b53e 5e90 df3d
00000330: abde 1bbd 31db 15bf 9391 ee3d b5e9 aebd
00000340: f37d 723e b585 543d db9e e8be e568 0dbf
00000350: 5249 27bf e611 8bbe bbcb 8a3e 453f 053f
00000360: 7bdc 3f3f f177 e03e 0436 91be b59d 623e
00000370: 42bb 643e c814 df3e e4e9 d8be 10ab c0be
00000380: 8102 f73c 0388 d63d f0e7 683f f0f9 b3bd
00000390: a81b 60bd a0ca 22be 6fa7 98bd b73d 413f
000003a0: 27aa d9be a698 1e3f 1d28 c43f 9752 e93f
000003b0: e29f 6c3f 3ed3 1cbd 820d 753e d4b9 31be
000003c0: ab07 aebe 378a 92be 99e7 c73e b0d1 f23e
000003d0: 3663 6dbe aaef 793e e58c 2b3f fa07 3e3f
000003e0: 0437 303e 44b1 913d b38f 04bf 2a83 af3e
000003f0: 6389 15bf 9b8b 25bf b48f a43e 7050 053f

lstm.weight_hh_l0 f4 [40, 10]
-0.1080162 -0.25133663 0.100692086 0.119083494 0.3528874 0.92001027 -0.03729736 -0.2870173
0.006570606 -0.9522645 0.08247432 -0.044710208 0.45155007 0.02730493 0.2601648 0.47023857
0.49424258 -0.062985554 -0.117148206 0.12508549 0.43556008 0.009179389 -0.5430204 -0.6283046
0.5049917 0.017931137 0.038843688 -0.3545153 -0.5454087 0.035848785 -0.05251709 -0.39798477
0.20482187 -0.08401325 -0.65893584 0.5692508 0.012727673 -0.27038965 -0.34351715 -0.583277
0.5884653 -0.30958012 0.6050152 -0.4394429 0.06272324 0.7200783 0.282207 -0.014846662
-0.49420267 -0.10584384 -0.005855598 -0.28026107 0.5092919 -0.09961921 -0.23496835 0.016279133
0.24353874 0.34547073 -0.42724264 0.90422785 0.047858186 -0.3317152 0.1366003 0.34115756
-0.7932645 0.8290039 -0.07899173 -0.67530316 0.28322047 0.039274633 -0.0008075979 -0.02877204
0.6119361 0.0016618972 -0.4576664 -0.12708604 0.034906004 1.0377378 0.10405486 0.7935427
0.34952512 -0.50622386 -0.5969132 -0.3624117 -0.20534621 -0.58390945 0.76721174 0.195129
0.17674571 -1.4223359 0.15996143 -0.35661006 0.6801002 -0.05275039 -0.08106205 -0.47101513
0.06771112 -0.05820786 0.054593604 -0.332592 0.29550606 0.116445884 -0.3587106 0.07501804
0.3994902 0.2228377 -0.20176114 -0.06495321 0.30089226 -0.77491206 -0.15509237 -0.09601465
0.44621968 -0.38879487 0.013186534 0.32087252 0.38080722 0.14522515 0.06316648 0.030245911
-0.15320863 0.37042886 -1.2191612 0.02932273 0.6982918 -0.6968521 -0.39461663 0.13706101
-0.06590751 0.69071233 -0.116230845 -0.5454578 0.43815163 0.34502256 -0.23495704 0.40051585
0.29604384 -0.5006106 0.06711749 -0.3179949 0.3528602 0.18835834 0.037645344 0.04703411
0.44550714 0.76020837 -0.20378235 0.22286923 0.037660655 -0.64592046 -0.41733474 0.43394896
0.062097028 0.19273895 0.6028841 -0.60865796 0.029215027 0.093413785 0.14634581 -0.2560352
0.0345673 -0.6183533 -0.027389167 0.21589486 -0.8083825 0.8703813 -0.4215083 -0.45037037
0.41504034 0.23183492 0.43898588 0.0031023682 0.09495245 -0.3663491 0.28426287 0.033721317
0.140908 0.41934568 -0.17445083 -0.070394754 -0.13452403 -0.33861366 -0.30109274 -0.12310519
0.10496996 -0.5544222 0.065442346 -0.30520025 0.109466925 -0.82447314 0.3368672 0.2224325
0.45788598 -0.38556546 0.4480288 -0.52891374 0.20322917 0.71504307 -0.020783179 -0.11711797
-0.0290956 -0.122080564 -0.3036455 -0.24598028 -0.58465016 0.12830777 -0.21162732 -0.24191003
-0.044567626 0.27901715 0.4327092 -0.033345804 0.14464806 -0.01567915 -0.1939811 0.06300989
0.108076945 -0.49991655 0.074389696 -0.3888099 -0.35377043 -0.2917031 0.07516796 -0.30538103
-0.63395226 -0.08737783 -0.086166374 -0.10377882 0.23911943 -0.20101978 0.24904254 -0.026208287
0.52497387 0.62499475 0.7349193 -0.51264685 0.29236838 -0.2730472 0.36549044 -0.08167529
0.09268757 0.18024233 0.31888604 -0.21323457 0.034760628 -0.3498614 0.33060345 -0.22395462
0.16263124 -0.022402482 0.33069006 0.17177984 0.2844581 0.19952965 0.20036787 0.31381938
00000000: 9937 ddbd 32af 80be a737 ce3d 0ce2 f33d
00000010: a8ad b43e cb85 6b3f 1ec5 18bd eef3 92be
00000020: 3d4e d73b 9bc7 73bf 4ce8 a83d 0d22 37bd
00000030: 9231 e73e 97ae df3c 5234 853e 1cc3 f03e
00000040: 5d0d fd3e 92fe 80bd 66eb efbd 6916 003e
00000050: bb01 df3e 2665 163c 6303 0bbf 92d8 20bf
00000060: 2347 013f 52e4 923c 8f1a 1f3d 0883 b5be
00000070: e89f 0bbf 2dd6 123d 291c 57bd a9c4 cbbe
00000080: d3bc 513e 240f acbd 05b0 28bf 6cba 113f
00000090: bb87 503c 8370 8abe 7be1 afbe a451 15bf
000000a0: a9a5 163f 4981 9ebe 47e2 1a3f a9fe e0be
000000b0: 0b75 803d 0d57 383f 707d 903e 6a3f 73bc
000000c0: 2208 fdbe a8c4 d8bd 51e0 bfbb 617e 8fbe
000000d0: f460 023f 2805 ccbd 8b9b 70be d15b 853c
000000e0: 3862 793e 8ae1 b03e 8cbf dabe 7a7b 673f
000000f0: f206 443d 93d6 a9be f3e0 0b3e 34ac ae3e
00000100: 6213 4bbf 9939 543f 6bc6 a1bd abe0 2cbf
00000110: 4602 913e 70de 203d fab4 53ba 57b3 ebbc
00000120: d8a7 1c3f 04d4 d93a 4053 eabe d822 02be
00000130: 99f9 0e3d 98d4 843f b71a d53d 9d25 4b3f
00000140: f5f4 b23e e397 01bf 4ecf 18bf 078e b9be
00000150: 4746 52be 177b 15bf fd67 443f e6cf 473e
00000160: d4fc 343e 1a0f b6bf eecc 233e 9895 b6be
00000170: 0c1b 2e3f cb10 58bd dc03 a6bd e528 f1be
00000180: 21ac 8a3d 5d6b 6ebd 8b9d 5f3d 8049 aabe
00000190: 924c 973e 2e7b ee3d eaa8 b7be 0fa3 993d
000001a0: fb89 cc3e 912f 643e 799a 4ebe 3006 85bd
000001b0: 8d0e 9a3e a360 46bf 89d0 1ebe 54a3 c4bd
000001c0: e876 e43e 1f10 c7be 550c 583c 6749 a43e
000001d0: 2af9 c23e e7b5 143e 6d5d 813d 46c6 f73c
000001e0: b9e2 1cbe daa8 bd3e 790d 9cbf 3936 f03c
000001f0: 40c3 323f e664 32bf 310b cabe b959 0c3e
00000200: 84fa 86bd 86d2 303f 700a eebd 1fa3 0bbf
00000210: 6955 e03e cca6 b03e 9498 70be 6a10 cd3e
00000220: 0f93 973e 0428 00bf e574 893d 3ad0 a2be
00000230: 18aa b43e 02e1 403e 0132 1a3d d7a6 403d
00000240: 8319 e43e 049d 423f 52ac 50be d537 643e
00000250: 0f42 1a3d 0b5b 25bf e6ac d5be 8f2e de3e
00000260: 7459 7e3d 5c5d 453e 9d56 1a3f 02d1 1bbf
00000270: 5a54 ef3c ba4f bf3d addb 153e 0c17 83be
00000280: 7196 0d3d 674c 1ebf 3f5f e0bc 8b13 5d3e
00000290: 28f2 4ebf 4fd1 5e3f f0cf d7be f296 e6be
000002a0: 2b80 d43e 2266 6d3e c2c2 e03e 1a51 4b3b
000002b0: 6e76 c23d 1c92 bbbe e78a 913e 5d1f 0a3d
000002c0: 304a 103e 7ab4 d63e 3da3 32be 202b 90bd
000002d0: abc0 09be c55e adbe d428 9abe 931e fcbd
000002e0: 7efa d63d 9dee 0dbf a306 863d 3543 9cbe
000002f0: 3230 e03d ac10 53bf dc79 ac3e 58c5 633e
00000300: 0870 ea3e d668 c5be 0864 e53e e466 07bf
00000310: 4f1b 503e 100d 373f 7c41 aabc 8cdb efbd
00000320: e559 eebc 6005 fabd 6c77 9bbe 41e2 7bbe
00000330: a2ab 15bf 1d63 033e d5b4 58be 43b7 77be
00000340: 8b8c 36bd 56db 8e3e 0f8c dd3e 9c95 08bd
00000350: 9f1e 143e 9071 80bc fba2 46be 540b 813d
00000360: 7257 dd3d 10f5 ffbe a059 983d 1712 c7be
00000370: 6621 b5be 1c5a 95be a9f1 993d e75a 9cbe
00000380: b24a 22bf 26f3 b2bd ff77 b0bd fd89 d4bd
00000390: b9db 743e 21d8 4dbe 0205 7f3e c3b2 d6bc
000003a0: b064 063f a8ff 1f3f ac23 3c3f d33c 03bf
000003b0: 4fb1 953e d8cc 8bbe 9021 bb3e 6045 a7bd
000003c0: fbd2 bd3d 7291 383e 0845 a33e 2a5a 5abe
000003d0: 2961 0e3d 0921 b3be db44 a93e 5c54 65be
000003e0: ce88 263e 6985 b7bc 3550 a93e 0ee7 2f3e
000003f0: 7ea4 913e 8051 4c3e 3c2d 4d3e efac a03e

lstm.bias_ih_l0 f4 [40]
-0.08478665 -0.36064163 -0.38210285 0.15053563 -0.5865884 -0.3525606 0.2708581 0.09284762
-0.37683043 -0.07705725 0.18359894 -0.4461839 0.28396466 0.17767057 0.06625494 -0.22773707
0.19294257 -0.09766856 0.07584689 -0.3253921 0.09551622 0.2137919 0.37423623 0.4786471
0.22194615 -0.16295892 0.25153464 -0.023581626 -0.058134336 -0.15751024 0.39347824 0.00047601247
-0.05566666 0.2451719 -0.14396082 -0.32014063 -0.07341215 0.2183892 0.35935587 0.1405195
00000000: a0a4 adbd 05a6 b8be fca2 c3be 0326 1a3e
00000010: a82a 16bf d382 b4be eaad 8a3e e526 be3d
00000020: ebef c0be 31d0 9dbd 5c01 3c3e 3772 e4be
00000030: d163 913e 46ef 353e acb0 873d e833 69be
00000040: bd92 453e 7406 c8bd 9d55 9b3d cb99 a6be
00000050: 029e c33d 44ec 5a3e e49b bf3e 3c11 f53e
00000060: da45 633e b4de 26be 26c9 803e 412e c1bc
00000070: 451e 6ebd 5d4a 21be fb75 c93e 5091 f939
00000080: b902 64bd 580e 7b3e 776a 13be 79e9 a3be
00000090: 1c59 96bd 6ba1 5f3e 7efd b73e 58e4 0f3e

lstm.bias_hh_l0 f4 [40]
-0.40346202 -0.3000753 -0.12217109 0.28811762 -0.20106177 -0.38385007 0.38815 0.06652345
-0.09349155 -0.45386273 -0.09115881 -0.18601345 -0.005373665 0.46183544 -0.26444727 0.10372548
0.15908787 -0.1373241 0.4615353 -0.21583104 -0.23436876 0.093644194 0.33648464 0.6276899
-0.10736759 -0.27414677 -0.2240118 -0.2616573 0.2635979 0.20766342 -0.06083368 -0.23161691
-0.29430255 0.4092115 0.038193017 0.085204914 0.35551307 0.19696951 0.64005446 -0.0791285
00000000: 9392 cebe 78a3 99be d634 fabd 2784 933e
00000010: 23e3 4dbe ff87 c4be 99bb c63e 723d 883d
00000020: 7f78 bfbd b260 e8be 78b1 babd 4f7a 3ebe
00000030: 9215 b0bb b275 ec3e a265 87be 066e d43d
00000040: eee7 223e b09e 0cbe 5b4e ec3e d002 5dbe
00000050: 5dfe 6fbe 87c8 bf3d b747 ac3e 49b0 203f
00000060: 8ae3 dbbd f75c 8cbe 5963 65be f2f7 85be
00000070: 4ef6 863e b8a5 543e bd2c 79bd fc2c 6dbe
00000080: d3ae 96be 2b84 d13e 4870 1c3d ea7f ae3d
00000090: cf05 b63e 60b2 493e 9cda 233f 1f0e a2bd

fc.weight f4 [1, 10]
-1.6983161 1.8223861 -1.8195618 1.6517521 1.5229186 -1.5811219 -1.8620269 1.8342427
1.7883524 -1.653674
00000000: 6c62 d9bf f343 e93f 67e7 e8bf 9d6c d33f
00000010: ffee c23f 3462 cabf e656 eebf 77c8 ea3f
00000020: bbe8 e43f 97ab d3bf

exp_avg f4 [40, 27]
0.00019371757 0.00029625397 0.0002517089 3.84003e-06 8.189585e-06 0.00016716376 0.00022434427 2.7904538e-05
0.00021021407 0.000109293105 0.00020223802 0.00015725975 0.00021369586 0.00022039958 0.00021951628 9.009772e-05
5.5469634e-05 7.128796e-05 2.9989424e-05 6.771486e-05 -6.2905247e-06 -1.4757436e-06 -5.8168414e-05 -9.46954e-05
-7.1408285e-05 0.0001224129 9.22967e-05 6.837913e-05 0.0002459883 0.00022336014 1.6095122e-05 2.2263204e-05
0.00010898695 0.00035692865 9.5499054e-05 6.6408094e-05 0.00015458776 7.012929e-05 0.0004251385 8.31357e-05
0.00011166564 0.000110787834 0.0003758557 0.0008068456 0.00015670875 -0.0003354925 -0.0002171039 -0.00024527733
-0.0007932858 -3.9847182e-05 -1.721124e-05 -1.8272269e-05 0.0002241399 0.0004821609 -0.0023437021 -0.0012444295
-0.0027824412 1.2710817e-05 1.3064814e-05 -0.0022415894 -0.0024258608 3.996025e-05 -0.0025944957 -0.00022974475
-0.0016082702 -0.0005999423 -0.0024065482 -0.002431571 -0.002451008 -0.00034872102 -0.00021983511 -0.00016779901
-3.22275e-06 8.521193e-05 6.108911e-05 0.00037001632 -0.00021610377 -0.0002865084 0.0007562805 -0.0006416864
-0.0021313592 -0.00056999165 -0.0005336693 -0.0007492991 5.866814e-07 9.4250123e-07 -0.0007008399 -0.0006878995
-7.381084e-06 -0.0007603579 -9.026992e-05 -0.00041186324 -0.00018461059 -0.0005951585 -0.0006024345 -0.00060442043
8.446742e-05 5.1869024e-06 -4.957707e-05 -0.000121916666 -0.00027956773 -0.0001381743 -0.00019957068 -6.501716e-05
-9.0148105e-06 -6.3481707e-06 1.8636341e-06 8.375554e-06 -0.010237248 -0.011801413 -0.013554512 -1.2933308e-05
-1.2169392e-05 -0.012126371 -0.012517138 -0.00019596796 -0.013426184 -0.0015902541 -0.007382039 -0.0038414218
-0.010676265 -0.01080741 -0.010814686 -0.0011489551 -0.0013639133 -0.0027293123 -0.0031600364 -0.0024376046
-0.0023046106 -0.00092980627 -0.00059754995 -7.453859e-05 0.0006318332 0.00028630102 -0.0001761105 0.006765776
0.007083712 0.0088025555 -2.0037556e-05 -1.0617256e-05 0.007947512 0.007878348 6.0667906e-05 0.009016693
0.0010771134 0.004753932 0.002825616 0.007013644 0.0071014147 0.007072841 -0.00024626424 0.0011620594
0.0019814475 0.002665277 0.0010058548 0.00057592295 -0.0002089503 -0.00037023748 0.0003216918 -4.9034614e-05
0.0010699226 0.0010820695 -0.013028469 -0.0094686095 -0.014529856 -4.2380954e-05 -7.241605e-05 -0.011765907
-0.011712192 -3.4227967e-05 -0.013774084 -0.0024528988 -0.0071200226 -0.005535703 -0.013628975 -0.013620617
-0.0136323515 -0.0015583034 -0.0044593853 -0.0022858111 -2.5215209e-06 -2.7338965e-05 -0.0006030161 0.00022356138
-3.8943726e-05 -0.0009108607 -0.0017459046 -0.00072921155 -0.0025036323 -0.0054843705 -0.0035826901 -0.0073061134
-3.586628e-05 -3.3106266e-05 -0.00695555 -0.0072130198 -0.0002446082 -0.0067144013 -0.001031638 -0.004943545
-0.0013772696 -0.005732684 -0.00584086 -0.0059145857 -1.7677987e-05 0.0013687789 0.00041088922 -0.0019442966
-0.0011857543 -0.0011175699 -0.0023987459 -0.0013073703 -0.00069208775 -0.00042829209 0.00019465212 -0.0006604612
-9.554845e-05 -2.4661345e-05 -0.0001410888 -2.601225e-07 -3.4849975e-07 -0.00012673822 -0.00014749405 -3.1488041e-06
-0.00012743425 -1.9462602e-06 -9.9070145e-05 -4.009587e-05 -9.937366e-05 -0.00010038561 -0.000100480225 -1.5490774e-06
4.6329507e-07 -3.9311058e-07 -2.2864656e-06 -2.1318951e-07 -4.6312806e-10 2.1950647e-05 4.807672e-06 1.0457647e-06
-1.4376785e-05 -0.00013696644 -2.007421e-05 -0.004637672 -0.0017062905 -0.005437565 -1.0405496e-05 -1.588361e-05
-0.0051881676 -0.004931519 -7.791475e-05 -0.005001196 -0.0010009456 -0.0034952646 -0.00096876 -0.004780195
00000000: aa20 4b39 8952 9b39 ccf7 8339 9bd9 8036
00000010: 0066 0937 ae48 2f39 f53d 6b39 8a14 ea37
00000020: e96c 5c39 4a34 e538 db0f 5439 18e6 2439
00000030: 8c13 6039 101b 6739 f42d 6639 d8f2 bc38
00000040: 11a8 6838 6f80 9538 cc91 fb37 2302 8e38
00000050: 3213 d3b6 2a12 c6b5 dcf9 73b8 3597 c6b8
00000060: 08c1 95b8 f65b 0039 6a8f c138 c466 8f38
00000070: fef7 8039 c835 6a39 0304 8737 dec1 ba37
00000080: ec8f e438 2722 bb39 aa46 c838 9344 8b38
00000090: d618 2239 6012 9338 20e5 de39 2459 ae38
000000a0: 092e ea38 c456 e838 800e c539 7e82 533a
000000b0: 2f52 2439 0be5 afb9 62a6 63b9 9198 80b9
000000c0: 82f4 4fba 9621 27b8 db60 90b7 6647 99b7
000000d0: 1907 6b39 8aca fc39 cc98 19bb 201c a3ba
000000e0: 9e59 36bb 8b40 5537 f330 5b37 a1e7 12bb
000000f0: 31fb 1ebb fe9a 2738 6a08 2abb a3e7 70b9
00000100: 98cc d2ba 7245 1dba 2eb7 1dbb fe5a 1fbb
00000110: 17a1 20bb 8bd4 b6b9 8a83 66b9 34f3 2fb9
00000120: 6c46 58b6 ceb3 b238 f71c 8038 c0fe c139
00000130: ea99 62b9 8236 96b9 2041 463a d836 28ba
00000140: 46ae 0bbb 7e6b 15ba f1e5 0bba 9d6c 44ba
00000150: 707c 1d35 3100 7d35 92b8 37ba 2754 34ba
00000160: 07ab f7b6 c152 47ba 4b4f bdb8 59ef d7b9
00000170: 0794 41b9 6904 1cba b2ec 1dba f871 1eba
00000180: 1a24 b138 270b ae36 f9f0 4fb8 83ad ffb8
00000190: f292 92b9 e2e2 10b9 d943 51b9 d259 88b8
000001a0: 513e 17b7 5f02 d5b6 fb21 fa35 bb84 0c37
000001b0: 21ba 27bc b75a 41bc be13 5ebc 23fc 58b7
000001c0: 242b 4cb7 b0ad 46bc af14 4dbc c07c 4db9
000001d0: 7ff9 5bbc 1370 d0ba 08e5 f1bb 5dc0 7bbb
000001e0: 80eb 2ebc 9011 31bc 1530 31bc 8998 96ba
000001f0: 56c5 b2ba 43de 32bb 9d18 4fbb 38c0 1fbb
00000200: f308 17bb 3ebe 73ba e6a4 1cba 9a51 9cb8
00000210: 9ca1 253a ac1a 9639 4daa 38b9 71b3 dd3b
00000220: 7c1e e83b 9838 103c 5316 a8b7 c420 32b7
00000230: 4836 023c 3014 013c ab75 7e38 c0ba 133c
00000240: ee2d 8d3a dfc6 9b3b f82d 393b b6d2 e53b
00000250: fcb2 e83b 4ac3 e73b 071d 81b9 3e50 983a
00000260: 2cdb 013b eeab 2e3b e3d6 833a 89f9 163a
00000270: ab19 5bb9 6f1c c2b9 bea8 a839 84aa 4db8
00000280: a53c 8c3a 3ad4 8d3a 5c75 55bc 3a22 1bbc
00000290: a20e 6ebc 34c2 31b8 12de 97b8 cac5 40bc
000002a0: 7ee4 3fbc 0090 0fb8 b2ac 61bc d0c0 20bb
000002b0: 144f e9bb d864 b5bb 104c 5fbc 0229 5fbc
000002c0: 3a5a 5fbc fc3f ccba 0920 92bb 8ccd 15bb
000002d0: 6637 29b6 fb55 e5b7 ba13 1eba cd6b 6a39
000002e0: 8257 23b8 d4c6 6eba d6d6 e4ba 8f28 3fba
000002f0: fb13 24bb 3cb6 b3bb 91cb 6abb 1f68 efbb
00000300: 206f 16b8 95db 0ab8 62eb e3bb 325b ecbb
00000310: c23e 80b9 7b04 dcbb 0738 87ba 76fd a1bb
00000320: 8085 b4ba 3dd9 bbbb af64 bfbb 24cf c1bb
00000330: 304b 94b7 9968 b33a 9e6c d739 c5d7 feba
00000340: 506b 9bba 6c7b 92ba 4734 1dbb 115c abba
00000350: 396d 35ba 648c e0b9 881b 4c39 cd22 2dba
00000360: 2f61 c8b8 d6df ceb7 3df1 13b9 f7a6 8bb4
00000370: 7119 bbb4 08e5 04b9 a2a8 1ab9 0b50 53b6
00000380: df9f 05b9 7f9c 02b6 e1c3 cfb8 9d2c 28b8
00000390: d466 d0b8 1d86 d2b8 e9b8 d2b8 e5e9 cfb5
000003a0: caba f834 b50c d3b4 2e71 19b6 16e9 64b4
000003b0: 7b9b feaf a822 b837 9751 a136 345c 8c35
000003c0: d233 71b7 a69e 0fb9 0a65 a8b7 9df7 97bb
000003d0: 9ca5 dfba 9a2d b2bb 4493 2eb7 cb3d 85b7
000003e0: 8101 aabb 9498 a1bb 2a66 a3b8 13e1 a3bb
000003f0: 2932 83ba cf10 65bb 62f4 7dba 2fa3 9cbb

exp_avg_sq f4 [40, 27]
0.0004997307 0.0009796215 0.000708498 2.0727688e-05 2.1280774e-05 0.0003391012 0.0005286577 0.00013270653
0.00038437455 0.00017013733 0.0011096359 0.00013102566 0.00057392044 0.00061008404 0.0006221383 4.1783558e-05
3.6777717e-05 0.0002171391 0.0002266237 0.00018603928 6.0320657e-05 4.5996203e-05 9.910975e-05 0.00017772478
9.2371025e-05 3.7875358e-05 6.077524e-05 0.0019344284 0.0030844167 0.0031572513 3.2631986e-05 3.997259e-05
0.0018596754 0.0030086038 0.00044921663 0.00166979 0.00018525626 0.004783132 0.00057147595 0.00215988
0.0022740767 0.0023254454 0.0005095455 0.00039277325 0.00042680046 0.00028657497 0.0003067597 0.0003132077
0.00025059594 0.00039119765 0.0002043266 0.00031341368 0.00019983329 0.00036826008 0.0010156652 0.0010535867
0.0014222164 1.5615595e-05 2.231007e-05 0.00068311475 0.0012856025 0.00013474868 0.0007694935 0.00024785582
0.0017647941 0.00020387642 0.0011069498 0.001119703 0.0010822109 0.00018072248 3.5178018e-05 6.103419e-05
1.7582586e-05 8.645493e-05 1.9924157e-05 7.33026e-05 4.4226657e-05 2.7461525e-05 3.6547714e-05 2.87668e-05
0.00014528928 8.561111e-05 0.00024093881 0.00010213476 0.00010852272 0.000102791586 4.6322013e-05 7.397281e-05
0.00021215735 6.219599e-05 0.00017624738 0.00033030027 2.8680692e-05 9.579307e-05 9.97891e-05 0.00010038699
3.9012582e-05 6.1137216e-05 3.904421e-05 2.5411167e-05 3.0928615e-05 1.9060266e-05 3.494336e-05 6.918129e-05
3.630931e-05 1.3284934e-05 4.6699497e-06 8.997797e-06 0.00042092212 0.00027635405 0.00082342036 9.787244e-07
1.8230653e-06 0.0006715971 0.0008781098 2.1360229e-05 0.0005875591 2.7173832e-05 0.0005992151 8.614043e-05
0.0004546894 0.00046929406 0.0004740746 3.8155107e-05 1.26601735e-05 1.8841394e-05 2.6414986e-05 3.020393e-05
1.6048849e-05 4.419883e-06 3.8927763e-05 0.00031596082 7.5438336e-05 1.6821883e-05 3.2227093e-05 0.00011438107
5.290271e-05 0.00022034755 2.3514706e-06 2.7627977e-06 0.00017933162 0.00023207237 1.4654613e-05 0.00015844588
5.649238e-06 0.00018465782 1.2601855e-05 0.00012442881 0.00012814626 0.00012940614 3.5429723e-06 5.6083272e-06
6.688473e-06 8.461861e-06 1.811171e-06 5.3988406e-06 4.644756e-05 0.0001289429 3.353768e-05 7.381823e-06
2.5772682e-05 7.911205e-06 0.00019321169 5.335375e-05 0.00027533973 4.3959403e-08 4.6206818e-08 0.00020217418
0.00022135524 9.645903e-07 0.00022462559 5.853095e-06 0.000117546326 1.6612812e-05 0.00020603427 0.00021210568
0.00021631412 7.0688698e-06 9.76634e-06 2.6282662e-06 9.736531e-12 2.1171085e-09 7.849355e-06 9.615029e-06
3.2527046e-06 3.9929113e-05 2.8052178e-05 1.1637213e-05 0.00018418886 0.00024123154 0.00037397465 0.0003650881
3.940859e-05 3.7661554e-05 0.00022616604 0.00032845538 0.00012351353 0.00021967634 4.6673824e-05 0.00057063997
6.8662666e-05 0.0002605606 0.00026968386 0.00027515704 3.58674e-05 7.175402e-05 2.8665734e-05 7.5450254e-05
4.486317e-05 7.190484e-05 5.9429098e-05 5.6392597e-05 6.4953274e-05 0.00010528248 2.7729198e-05 2.6783679e-05
1.4699264e-05 1.351377e-05 1.8643694e-05 2.3667812e-05 1.3689589e-05 8.538535e-06 2.2770917e-05 0.0001302635
1.3515583e-05 1.837891e-05 2.9506089e-05 1.6700578e-05 1.5837732e-05 1.6362235e-05 1.6688286e-05 1.7297303e-08
4.3898442e-08 4.801268e-09 2.5195665e-10 1.3392634e-09 2.6632685e-08 2.2292575e-07 3.744266e-05 2.9161558e-05
6.025464e-05 1.600065e-05 9.441938e-05 0.0004190079 0.00055421656 0.0005982847 3.480143e-05 3.4018783e-05
0.00033374547 0.00047192725 0.00012848075 0.00039323934 9.8429424e-05 0.0006747664 9.534937e-05 0.00047020603
00000000: 5c00 033a a566 803a 7fba 393a 5fe0 ad37
00000010: 1d84 b237 65c9 b139 9e95 0a3a 2327 0b39
00000020: e185 c939 e466 3239 3471 913a ef63 0939
00000030: 2673 163a 0cee 1f3a ff16 233a c140 2f38
00000040: c641 1a38 d5af 6339 d6a1 6d39 8a13 4339
00000050: d000 7d38 0cec 4038 24d9 cf38 a25b 3a39
00000060: 51b7 c138 5bdc 1e38 ebe8 7e38 a58c fd3a
00000070: ed23 4a3b e3e9 4e3b 54de 0838 3ea8 2738
00000080: 5ac0 f33a ff2b 453b d684 eb39 dbdc da3a
00000090: 5941 4239 d2bb 9c3b 1acf 153a c68c 0d3b
000000a0: ad08 153b 8066 183b 0593 053a 22ed cd39
000000b0: 30c4 df39 713f 9639 97d4 a039 0736 a439
000000c0: 6b62 8339 a919 cd39 8140 5639 ac51 a439
000000d0: 578a 5139 0813 c139 1220 853a 8118 8a3a
000000e0: aa69 ba3a 3cfe 8237 8326 bb37 0e13 333a
000000f0: a981 a83a 534b 0d39 d6b7 493a a5f2 8139
00000100: aa50 e73a a9c7 5539 1217 913a 00c3 923a
00000110: f9d8 8d3a 5280 3d39 1c8c 1338 f6fe 7f38
00000120: 517e 9337 234f b538 cd22 a737 09ba 9938
00000130: 0380 3938 2d5d e637 cf4a 1938 3c50 f137
00000140: cb58 1839 1d8a b338 85a4 7c39 2f31 d638
00000150: b196 e338 d091 d738 e249 4238 da21 9b38
00000160: 8e76 5e39 386f 8238 0ccf 3839 272c ad39
00000170: 5197 f037 83e4 c838 dd45 d138 db86 d238
00000180: 71a1 2338 cb36 8038 67c3 2338 112a d537
00000190: 59b9 0138 9ce3 9f37 2690 1238 6c15 9138
000001a0: d34a 1838 5be2 5e37 90b2 9c36 3ef5 1637
000001b0: 36af dc39 9de3 9039 ceda 573a b75c 8335
000001c0: 0cb0 f435 1e0e 303a f330 663a be2e b337
000001d0: 6c06 1a3a 5cf3 e337 a514 1d3a 4ba6 b438
000001e0: 6163 ee39 950b f639 378d f839 bc08 2038
000001f0: 0867 5437 960d 9e37 c095 dd37 725e fd37
00000200: a4a0 8637 824e 9436 5e46 2338 8ba7 a539
00000210: a634 9e38 b81c 8d37 942b 0738 dfdf ef38
00000220: dae3 5d38 180d 6739 f5cd 1d36 8168 3936
00000230: f70a 3c39 7458 7339 15dd 7537 7e24 2639
00000240: 968e bd36 b5a0 4139 8e6c 5337 1b79 0239
00000250: 005f 0639 32b1 0739 cdc3 6d36 2a2f bc36
00000260: 8c6d e036 6bf7 0d37 5d17 f335 b027 b536
00000270: b0d0 4238 d934 0739 cfaa 0c38 60b1 f736
00000280: 6a32 d837 5eba 0437 de98 4a39 27c8 5f38
00000290: 795b 9039 e0cd 3c33 ef74 4633 b8fe 5339
000002a0: 981b 6839 1277 8135 7989 6b39 b465 c436
000002b0: 3483 f638 be5b 8b37 e70a 5839 af68 5e39
000002c0: 61d2 6239 2131 ed36 1cda 2337 4561 3036
000002d0: 7049 2b2d 917c 1131 b9b0 0337 3c50 2137
000002e0: 0a49 5a36 8f79 2738 9851 eb37 733d 4337
000002f0: d222 4139 19f3 7c39 0712 c439 4c69 bf39
00000300: a74a 2538 c9f6 1d38 fc26 6d39 8934 ac39
00000310: 6983 0139 eb58 6639 a3c3 4338 0097 153a
00000320: fdfe 8f38 da9b 8839 5b64 8d39 f442 9039
00000330: 5470 1638 a57a 9638 3277 f037 0c3b 9e38
00000340: 762b 3c38 9ecb 9638 8243 7938 1787 6c38
00000350: 8637 8838 1acb dc38 009c e837 83ad e037
00000360: dc9c 7637 33b9 6237 0765 9c37 3d8a c637
00000370: 56ac 6537 bb40 0f37 2c04 bf37 5897 0839
00000380: fdc0 6237 692c 9a37 d883 f737 3818 8c37
00000390: 45db 8437 a241 8937 d2fd 8b37 2c95 9432
000003a0: d98a 3c33 66f8 a431 bf83 8a2f 2411 b830
000003b0: e5c5 e432 5d5d 6f34 c00b 1d38 f89f f437
000003c0: edb9 7c38 2239 8637 0503 c638 4aae db39
000003d0: d848 113a 35d6 1c3a c0f7 1138 64af 0e38
000003e0: 8ffa ae39 016d f739 cab8 0639 b12b ce39
000003f0: e56b ce38 cee2 303a 4ef6 c738 fc85 f639

exp_avg f4 [40, 10]
-0.00015687027 0.00017717111 -0.00021633641 0.00021473845 2.9924306e-05 -0.0001931153 -0.00023804387 0.00010446199
0.00022018132 1.0600815e-05 -0.0003147945 8.119558e-05 -0.00040102337 0.00038781337 -8.2455736e-05 -0.00081673765
-0.0005443622 -0.0011233687 0.00038982715 0.00032943292 0.0025681623 -0.0025217037 0.0017593012 -0.0025261247
-0.0015732858 0.0023593942 0.0018104987 -0.0024893174 -0.002492148 0.0024371988 0.00078714645 -0.00076771923
0.0007778267 -0.0007606146 -0.00031973486 0.00034583878 0.00068360235 -0.00048414085 -0.00076541887 0.0001968626
0.013566646 -0.013553476 0.012695533 -0.013514332 -0.007973062 0.0031870445 0.012324394 -0.008401822
-0.013525372 0.0048056603 -0.008676123 0.008698199 -0.0071490374 0.008777926 0.0053732656 -0.0044056224
-0.008023432 0.006679284 0.008624891 -0.0031646593 0.014605692 -0.014536895 0.014374734 -0.014525853
-0.009712854 0.014311699 0.010166133 -0.01405634 -0.0145638175 0.013270885 0.007862373 -0.007616067
0.007921452 -0.007767399 -0.00267691 0.002783183 0.0062549682 -0.0044765887 -0.007870005 0.002255518
5.2308726e-05 -6.444814e-05 1.2709986e-05 -7.170655e-05 -3.630995e-05 9.539988e-06 6.151256e-05 -6.4148335e-05
-5.0027036e-05 3.342277e-05 0.005511112 -0.005643598 0.0053051165 -0.005471914 -0.0016294295 0.0046326024
0.002797263 -0.0060565206 -0.005535754 0.0042313496 -0.00015877097 0.00017885666 -0.00022317987 0.00021158377
2.3399954e-05 -0.00017127128 -0.0002384928 0.00010790239 0.0002152106 3.1948496e-06 0.00065851415 -0.0008839037
0.000550878 -0.0005654101 -0.0004735957 -0.0004283411 0.00025905232 -0.0019398124 -0.0005735066 0.0007115272
0.0002539609 -0.00024174084 0.00017358633 -0.00024322205 -0.00013057128 0.0002695617 0.00014726634 -0.00024606753
-0.00024477736 0.00027964 0.0016986331 -0.0016545265 0.0016796984 -0.0016501358 -0.0006869959 0.0007500959
0.0014868818 -0.0010197088 -0.0016633999 0.00041953 0.015893415 -0.01573845 0.015368153 -0.015760407
-0.009373815 0.0038254315 0.014708273 -0.008993298 -0.015833857 0.004683419 -0.003102076 0.003060121
-0.002977045 0.0030633053 0.001915429 -0.0012096146 -0.002919561 0.001805857 0.0030701112 -0.0008682915
0.012994388 -0.012927268 0.012698475 -0.012906438 -0.008524853 0.012336433 0.009319572 -0.012266379
-0.012943773 0.0112414565 0.021035777 -0.020535856 0.021648536 -0.020758385 -0.0069022593 0.011021545
0.01699108 -0.013145402 -0.021022683 0.0056971335 6.8603767e-06 -7.5081603e-06 2.6035011e-06 -8.438732e-06
-3.6346457e-06 8.545686e-07 7.4915124e-06 -6.58489e-06 -6.5994363e-06 3.255751e-06 0.010319586 -0.010377363
0.009959558 -0.010212187 -0.004184937 0.0094785085 0.0055614314 -0.010282084 -0.010320774 0.008541371
2.932985e-05 -6.5332904e-05 7.5178395e-05 -6.797838e-05 -1.7832028e-05 -1.1646612e-05 8.270123e-05 -5.3543255e-05
-6.534315e-05 1.1920075e-05 -4.6491758e-05 3.1866504e-05 -5.8831596e-05 5.5007167e-05 6.299774e-06 -0.000111807494
-6.0907783e-05 -7.849133e-05 5.5542012e-05 2.6511148e-05 -0.00016186213 0.00013632476 -0.0001377385 0.000115627125
0.00022034599 -9.1682894e-05 9.233649e-06 8.690547e-05 0.00010851169 -0.0003813603 3.30391e-08 -3.1391302e-08
3.2859987e-08 -3.1964507e-08 -1.2300282e-08 9.711839e-10 3.089251e-08 -1.1869381e-08 -3.2312236e-08 4.7461994e-09
0.012659712 -0.012501 0.0123683065 -0.012612086 -0.0067384597 -0.0043270737 0.012387621 -0.005713158
-0.012686773 0.0021038684 0.018787904 -0.018962016 0.016566504 -0.01881201 -0.012843664 0.010085988
00000000: 8b7d 24b9 02c7 3939 5dd8 62b9 6a2b 6139
00000010: f505 fb37 fe7e 4ab9 6a9b 79b9 9b12 db38
00000020: 79e0 6639 27da 3137 010b a5b9 8c47 aa38
00000030: 7240 d2b9 6e53 cb39 16ec acb8 561a 56ba
00000040: 87b3 0eba 003e 93ba b761 cc39 bdb7 ac39
00000050: 9d4e 283b 2b43 25bb 5a98 e63a 578d 25bb
00000060: b636 ceba 11a0 1a3b 414e ed3a d123 23bb
00000070: 4e53 23bb 69b9 1f3b 8158 4e3a c440 49ba
00000080: 11e7 4b3a fb63 47ba 16a2 a7b9 b251 b539
00000090: c733 333a 49d4 fdb9 64a6 48ba e76c 4e39
000000a0: a346 5e3c 660f 5ebc ed00 503c 376b 5dbc
000000b0: 72a1 02bc bcdd 503b 41ec 493c cca7 09bc
000000c0: 8699 5dbc cd78 9d3b 4c26 0ebc e482 0e3c
000000d0: 7942 eabb 4ad1 0f3c 3812 b03b 0a5d 90bb
000000e0: b774 03bc e5dd da3b 6a4f 0d3c 2c66 4fbb
000000f0: b64c 6f3c 282c 6ebc 0184 6b3c d8fd 6dbc
00000100: aa22 1fbc 9e7b 6a3c da8f 263c 904c 66bc
00000110: 149d 6ebc 206e 593c 2fd1 003c 3390 f9bb
00000120: fac8 013c aa85 febb 196f 2fbb 1066 363b
00000130: 7af6 cc3b 59b0 92bb 32f1 00bc 50d1 133b
00000140: 1166 5b38 5528 87b8 f93c 5537 2961 96b8
00000150: 834b 18b8 f00d 2037 4e00 8138 6087 86b8
00000160: 1fd4 51b8 6d2f 0c38 8f96 b43b eeed b8bb
00000170: 8bd6 ad3b be4d b3bb 9592 d5ba 16cd 973b
00000180: 4952 373b c775 c6bb 4565 b5bb 22a7 8a3b
00000190: c27b 26b9 788b 3b39 6405 6ab9 96dc 5d39
000001a0: 054b c437 4997 33b9 ec13 7ab9 a849 e238
000001b0: 28aa 6139 1967 5636 23a0 2c3a c6b5 67ba
000001c0: cc68 103a 0838 14ba f04c f8b9 f892 e0b9
000001d0: 6ad1 8739 4e41 feba 6057 16ba c885 3a3a
000001e0: 0e26 8539 d07b 7db9 ba04 3639 6c09 7fb9
000001f0: f6e9 08b9 f553 8d39 826b 1a39 a002 81b9
00000200: 7655 80b9 a59c 9239 aba4 de3a b2dc d8ba
00000210: 5329 dc3a 5f49 d8ba 8417 34ba 15a2 443a
00000220: 79e3 c23a c0a7 85ba 7006 daba 5df4 db39
00000230: e832 823c eced 80bc b5ca 7b3c f81b 81bc
00000240: a194 19bc 17b4 7a3b f8fa 703c a058 13bc
00000250: 01b6 81bc 5e77 993b 334c 4bbb 508c 483b
00000260: 871a 43bb bcc1 483b 220f fb3a ee8b 9eba
00000270: 1b56 3fbb 82b2 ec3a eb33 493b 0e9e 63ba
00000280: 6ae6 543c e4cc 53bc 440d 503c 8675 53bc
00000290: d3ab 0bbc c01e 4a3c 1eb1 183c ecf8 48bc
000002a0: 1e12 54bc 162e 383c 3953 ac3c d03a a8bc
000002b0: 4558 b13c 7d0d aabc 592c e2bb b693 343c
000002c0: e130 8b3c d05f 57bc c337 acbc 05af ba3b
000002d0: 3032 e636 9bee fbb6 cfb7 2e36 1494 0db7
000002e0: bdea 73b6 8265 6535 9a5f fb36 c6f3 dcb6
000002f0: ba70 ddb6 607d 5a36 7b13 293c d105 2abc
00000300: 6a2d 233c 0451 27bc cc21 89bb bf4b 1b3c
00000310: ab3c b63b 3076 28bc 7718 29bc 1bf1 0b3c
00000320: 6009 f637 5603 89b8 18a9 9d38 9d8f 8eb8
00000330: fd95 95b7 d165 43b7 e36f ad38 a293 60b8
00000340: d608 89b8 55fc 4737 2500 43b8 66a8 0538
00000350: f2c1 76b8 7fb7 6638 a662 d336 317a eab8
00000360: 3c77 7fb8 b69b a4b8 c8f5 6838 4264 de37
00000370: 89b9 29b9 66f2 0e39 e66d 10b9 d77c f238
00000380: ad0c 6739 e145 c0b8 38ea 1a37 0541 b638
00000390: c590 e338 50f1 c7b9 e0e6 0d33 1ad3 06b3
000003a0: f021 0d33 5949 09b3 3651 53b2 7f7a 8530
000003b0: adae 0433 17ea 4bb2 aec7 0ab3 0314 a331
000003c0: ae6a 4f3c ffd0 4cbc 70a4 4a3c eca2 4ebc
000003d0: 4cce dcbb 20ca 8dbb 73f5 4a3c 7135 bbbb
000003e0: 2fdc 4fbc 0ee1 093b 17e9 993c 3b56 9bbc
000003f0: 7ab6 873c a51b 9abc 3b6e 52bc b33f 253c

exp_avg_sq f4 [40, 10]
0.00094380626 0.00088106125 0.0008105879 0.0016394682 1.30655535e-05 0.0007088027 0.0016131571 0.00066237233
0.0017602474 3.2137592e-05 0.005221216 0.0032611396 0.0029859643 0.007256787 5.532491e-05 0.0017909983
0.007097203 0.0008851461 0.007521549 4.5651508e-05 0.0018750519 0.001574471 0.0005823053 0.002509006
3.9265342e-05 0.0008395889 0.0024445588 0.0011688826 0.0025528758 7.553293e-05 0.000112937494 0.00013017857
0.000111905516 0.00027412004 6.997771e-07 0.0001017919 0.00036014032 0.00021559041 0.00048081277 5.6422723e-06
0.00089754874 0.0007794611 0.00084303453 0.0010911747 0.00017480578 0.00026791746 0.0010368082 0.00012033747
0.0011221386 2.422385e-05 0.00025353924 0.00019518932 0.00018656434 0.0003156199 3.196013e-05 5.5706594e-05
0.00030895442 4.907271e-05 0.0003230392 1.9643585e-05 0.00028936996 0.00027616366 0.0002612969 0.0002936955
0.00010717103 0.00024902698 0.000152064 0.0001960935 0.0002987751 0.00015414838 0.0006350066 0.00044745658
0.0003209307 0.00089092733 3.801622e-05 0.00017787983 0.0008450768 0.00017005278 0.00096666 2.8810373e-05
2.5000443e-05 2.3624052e-05 7.96519e-06 0.00021485057 1.0733329e-06 4.5374095e-06 0.00010061709 1.8032168e-05
0.00011943877 6.8876284e-07 0.00086821336 0.00068112474 0.00053369335 0.0012143777 9.893357e-05 0.00041125366
0.0011167745 0.0004686717 0.0012861256 0.00011542308 0.0016022982 0.0013504641 0.0013704568 0.0025097413
1.1135482e-05 0.0010879878 0.0024853514 0.0009726328 0.0026597322 3.880322e-05 0.0048492076 0.0033015346
0.0028046258 0.006575358 7.1253526e-05 0.0017069083 0.006442903 0.0010524688 0.0068125646 3.879715e-05
0.0004129096 0.0002905416 0.00012375085 0.00055522553 3.8975536e-06 0.00010596417 0.000549104 0.00012018977
0.0005830923 7.2181065e-06 0.00024186337 0.00025537424 0.00022353555 0.00048414004 1.7882734e-06 0.00019421522
0.0005294057 0.0002720271 0.0006288328 8.075034e-06 0.0007752797 0.00065802305 0.0006973078 0.0008424353
0.0001716445 0.00022262576 0.0007968943 0.00010606801 0.0008593436 1.925236e-05 0.0001069651 7.1246504e-05
7.08962e-05 0.00015395733 7.6194956e-06 3.554252e-05 0.00014918181 1.2551132e-05 0.00016087206 2.5096228e-06
0.00030061463 0.000277739 0.0002675985 0.00043720903 9.291007e-05 0.00022935342 0.0002683584 0.00014001806
0.0003282433 0.00010414895 0.0024475234 0.0019504135 0.001186125 0.0033652126 0.000122070196 0.00093717786
0.0031781842 0.0010498367 0.0035624807 0.0001120141 4.0874842e-05 4.1328854e-05 1.0584712e-05 0.00022138559
2.5279578e-06 6.279649e-06 0.00014319319 2.4472754e-05 0.00016237538 7.666104e-07 0.00069989986 0.00060118496
0.0004851517 0.0008922643 0.0001236851 0.00044657668 0.00071531656 0.00044357928 0.0009372537 0.00019873002
0.0044362997 0.003477937 0.00711211 0.0089275 2.7456843e-05 0.0008126655 0.009129231 0.00036087984
0.009462484 3.7289094e-05 0.0005053346 0.00027833774 0.00012825256 0.0008668968 2.220067e-06 0.00017143741
0.00083285326 0.00014105352 0.0009269625 1.3104434e-05 0.016327871 0.012110251 0.004128586 0.020952176
6.666549e-05 0.0048646936 0.020844888 0.006473366 0.021539632 8.391985e-05 2.280305e-10 4.468345e-11
2.164164e-10 4.732271e-09 1.7192391e-12 2.6260018e-11 1.5532517e-09 9.079594e-11 2.3637738e-09 2.5875491e-11
0.0007952945 0.00062818703 0.0007058077 0.0009486252 8.3242594e-05 9.813499e-05 0.00094876724 7.395419e-05
0.00097114843 6.789555e-06 0.008589947 0.007145817 0.007454036 0.009525856 0.0019569765 0.0023136116
00000000: c469 773a 05f7 663a a27d 543a 6de3 d63a
00000010: 2034 5b37 f2ce 393a 9270 d33a 0ea3 2d3a
00000020: 1ab8 e63a 7acb 0638 bc16 ab3b d8b8 553b
00000030: 2bb0 433b 57ca ed3b ab0c 6838 eebf ea3a
00000040: a78f e83b 2609 683a 5377 f63b ef79 3f38
00000050: 4dc4 f53a 7b5e ce3a d9a5 183a 236e 243b
00000060: d7b0 2438 db17 5c3a e434 203b 3135 993a
00000070: 264e 273b 6f67 9e38 dbd8 ec38 8b80 0839
00000080: d1ae ea38 c5b7 8f39 51d8 3b35 1c79 d538
00000090: 37d1 bc39 1c10 6239 9915 fc39 c052 bd36
000000a0: 7a49 6b3a c054 4c3a 17ff 5c3a bf05 8f3a
000000b0: 124c 3739 4677 8c39 83e5 873a b05d fc38
000000c0: b914 933a 5234 cb37 76ed 8439 bcab 4c39
000000d0: 7ca0 4339 c979 a539 ee0c 0638 80a6 6938
000000e0: 29fb a139 6cd3 4d38 965d a939 47c8 a437
000000f0: 94b6 9739 0fca 9039 adfe 8839 25fb 9939
00000100: 02c1 e038 d68f 8239 5f73 1f39 739e 4d39
00000110: eaa4 9c39 e4a2 2139 9276 263a 9b98 ea39
00000120: 9742 a839 1f8d 693a 9b73 1f38 4185 3a39
00000130: 2588 5d3a 3250 3239 7467 7d3a cead f137
00000140: 0bb8 d137 442c c637 3ba2 0537 8349 6139
00000150: 700f 9035 0d40 9836 6402 d338 c943 9737
00000160: 347b fa38 6ce3 3835 d098 633a 828d 323a
00000170: 8ee7 0b3a c12b 9f3a 8e7a cf38 889d d739
00000180: bc60 923a 0db8 f539 3793 a83a 4b0f f238
00000190: 3504 d23a 0e02 b13a e6a0 b33a 797a 243b
000001a0: 88d2 3a37 d09a 8e3a 47e1 223b 48f8 7e3a
000001b0: e74e 2e3b a4c0 2238 1ae6 9e3b 8f5e 583b
000001c0: d0cd 373b 1a76 d73b f26d 9538 57ba df3a
000001d0: fd1e d33b fef2 893a ef3b df3b 1fba 2238
000001e0: ca7b d839 d553 9839 1ec3 0139 8e8c 113a
000001f0: bbc7 8236 1539 de38 bff1 0f3a 640e fc38
00000200: a9da 183a 1033 f236 b49c 7d39 c0e3 8539
00000210: de64 6a39 2dd4 fd39 9b04 f035 40a6 4b39
00000220: d1c7 0a3a dc9e 8e39 41d8 243a 027a 0737
00000230: 243c 4b3a 2e7f 2c3a 89cb 363a e0d6 5c3a
00000240: 78fb 3339 a670 6939 ace6 503a d470 de38
00000250: 9345 613a 2180 a137 7352 e038 2d6a 9538
00000260: 1cae 9438 9b6f 2139 f8aa ff36 7e13 1538
00000270: b06d 1c39 b492 5237 c4af 2839 fe6a 2836
00000280: d09b 9d39 7f9d 9139 764c 8c39 3439 e539
00000290: b7d8 c238 977e 7039 74b2 8c39 d0d1 1239
000002a0: 1218 ac39 8b6a da38 a166 203b 04a5 ff3a
000002b0: c077 9b3a e68a 5c3b f0ff ff38 f1ac 753a
000002c0: 1549 503b ad9a 893a 8278 693b 1de9 ea38
000002d0: 0771 2b38 8558 2d38 fe94 3137 be23 6839
000002e0: fca5 2936 c6b5 d236 2126 1639 d74a cd37
000002f0: 4f43 2a39 11c9 4d35 7c79 373a d798 1d3a
00000300: f55b fe39 d8e6 693a 77b1 0139 8222 ea39
00000310: 1584 3b3a 3490 e839 08b2 753a 2f62 5039
00000320: 615e 913b 1aee 633b b40c e93b a644 123c
00000330: 1f53 e637 0f09 553a c592 153c 7934 bd39
00000340: 8908 1b3c dc66 1c38 6e78 043a dced 9139
00000350: 897b 0639 7640 633a 76fc 1436 e1c3 3339
00000360: d653 5a3a c4e7 1339 66ff 723a 1edb 5b37
00000370: 07c2 853c 136a 463c 1749 873b e6a3 ab3c
00000380: c3ce 8b38 0268 9f3b e6c2 aa3c 881e d43b
00000390: e273 b03c 20fe af38 e1b8 7a2f 1885 442e
000003a0: cdf3 6d2f 7f99 a231 1ef6 f12b 4efc e62d
000003b0: 307a d530 92a9 c72e f36f 2231 6d9a e32d
000003c0: 4f7b 503a ebac 243a f405 393a 29ad 783a
000003d0: 8792 ae38 d2cd cd38 b1b6 783a da17 9b38
000003e0: ab94 7e3a d5d1 e336 d9bc 0c3c 7527 ea3b
000003f0: fc40 f43b 5612 1c3c 9e40 003b f69f 173b

exp_avg f4 [40]
0.00029723087 0.0003792202 -0.0027426383 -0.0007692931 -0.014004301 0.008989761 -0.014641363 -0.0077779363
-0.00014759236 -0.0056072148 0.00021578533 -0.00057596265 -0.00024268085 -0.0016672991 -0.015885435 0.003076502
-0.01298536 -0.021009866 -9.313809e-06 -0.010366335 -0.00013402868 5.433779e-05 0.00012944486 -3.2713686e-08
-0.012791625 -0.020744849 6.9977496e-08 -0.058867916 -3.159253e-05 0.09440739 -3.9652263e-05 -0.0002925251
6.8938803e-06 -0.0005924745 -0.010463375 0.00011221328 -0.00014437709 -7.549924e-05 -0.00027639925 -0.002057027
00000000: a7d5 9b39 13d2 c639 d6bd 33bb 63aa 49ba
00000010: 4c72 65bc ca49 133c 54e2 6fbc 0fde febb
00000020: 06c3 1ab9 babc b7bb 6f44 6239 33fc 16ba
00000030: 2578 7eb9 4689 daba 2c22 82bc 239f 493b
00000040: 8cc0 54bc e21c acbc 8142 1cb7 8fd7 29bc
00000050: 0d8a 0cb9 c2e8 6338 97bb 0739 1481 0cb3
00000060: f793 51bc 1af1 a9bc 8946 9633 7c1f 71bd
00000070: 3982 04b8 a958 c13d 4b50 26b8 0e5e 99b9
00000080: fb51 e736 4a50 1bba 936e 2bbc 0c54 eb38
00000090: ee63 17b9 5955 9eb8 aee9 90b9 30cf 06bb

exp_avg_sq f4 [40]
0.0017538468 0.0076696915 0.0029352307 0.00055361696 0.0012026547 0.00035962506 0.0003028222 0.0009934981
0.00037962222 0.0013414095 0.0026894144 0.006921018 0.00059951097 0.00070248253 0.00087520183 0.0001648439
0.0005153888 0.0036311452 0.000342113 0.0009571335 0.009622538 0.00096140505 0.023602083 1.5316981e-08
0.0009991397 0.010497059 0.0011259663 0.21781728 0.0021973073 0.050308455 4.8865286e-06 0.000108859094
3.6004683e-05 0.00014920044 0.00029165205 4.515447e-05 0.00030113425 1.0889801e-06 2.7215425e-05 6.709703e-05
00000000: 55e1 e53a 0952 fb3b 005d 403b 9b20 113a
00000010: 65a2 9d3a 0f8c bc39 1cc4 9e39 4438 823a
00000020: 0808 c739 3cd2 af3a e340 303b b5c9 e23b
00000030: 8028 1d3a ce26 383a cd6d 653a f3d9 2c39
00000040: 281b 073a 82f8 6d3b a15d b339 24e8 7a3a
00000050: daa7 1d3c cd06 7c3a 2859 c13c 6692 8332
00000060: 91f5 823a dbfb 2b3c 2995 933a 7e0b 5f3e
00000070: b300 103b 3d10 4e3d f6f6 a336 484b e438
00000080: bc03 1738 b072 1c39 e0e8 9839 3e64 3d38
00000090: 8ee1 9d39 1229 9235 ae4c e437 72b6 8c38

exp_avg f4 [40]
0.00029723084 0.0003792207 -0.002742638 -0.0007692931 -0.014004306 0.008989761 -0.014641361 -0.0077779377
-0.00014759236 -0.005607211 0.00021578533 -0.00057596184 -0.00024268084 -0.0016672991 -0.015885435 0.003076502
-0.012985358 -0.021009868 -9.313806e-06 -0.010366337 -0.00013402854 5.433774e-05 0.00012944498 -3.2713686e-08
-0.012791629 -0.020744843 6.9977595e-08 -0.05886791 -3.159253e-05 0.09440739 -3.9652274e-05 -0.00029252504
6.893837e-06 -0.0005924747 -0.010463372 0.000112213136 -0.00014437712 -7.549924e-05 -0.00027639922 -0.0020570275
00000000: a6d5 9b39 24d2 c639 d5bd 33bb 63aa 49ba
00000010: 5172 65bc ca49 133c 52e2 6fbc 12de febb
00000020: 06c3 1ab9 b2bc b7bb 6f44 6239 25fc 16ba
00000030: 2478 7eb9 4689 daba 2c22 82bc 239f 493b
00000040: 8ac0 54bc e31c acbc 7e42 1cb7 92d7 29bc
00000050: 038a 0cb9 b4e8 6338 9fbb 0739 1481 0cb3
00000060: fb93 51bc 17f1 a9bc 9746 9633 7a1f 71bd
00000070: 3982 04b8 a958 c13d 4e50 26b8 0c5e 99b9
00000080: 9c51 e736 4e50 1bba 906e 2bbc f853 eb38
00000090: f063 17b9 5955 9eb8 ade9 90b9 32cf 06bb

exp_avg_sq f4 [40]
0.0017538466 0.0076696915 0.002935231 0.00055361696 0.0012026544 0.0003596251 0.00030282215 0.0009934981
0.00037962227 0.00134141 0.0026894154 0.006921018 0.00059951097 0.0007024826 0.0008752018 0.00016484386
0.0005153886 0.0036311452 0.000342113 0.0009571335 0.00962254 0.00096140493 0.023602083 1.5316978e-08
0.0009991397 0.010497058 0.0011259664 0.21781726 0.0021973075 0.050308455 4.886529e-06 0.000108859094
3.6004683e-05 0.00014920044 0.00029165205 4.5154466e-05 0.0003011343 1.08898e-06 2.7215425e-05 6.709704e-05
00000000: 54e1 e53a 0952 fb3b 015d 403b 9b20 113a
00000010: 63a2 9d3a 108c bc39 1ac4 9e39 4438 823a
00000020: 0a08 c739 40d2 af3a e740 303b b5c9 e23b
00000030: 8028 1d3a cf26 383a cc6d 653a f0d9 2c39
00000040: 251b 073a 82f8 6d3b a15d b339 24e8 7a3a
00000050: dca7 1d3c cb06 7c3a 2859 c13c 6492 8332
00000060: 91f5 823a dafb 2b3c 2a95 933a 7d0b 5f3e
00000070: b400 103b 3d10 4e3d f7f6 a336 484b e438
00000080: bc03 1738 b072 1c39 e0e8 9839 3d64 3d38
00000090: 90e1 9d39 1129 9235 ae4c e437 73b6 8c38

exp_avg f4 [1, 10]
0.0758284 -0.07566582 0.0748174 -0.07491131 -0.037438564 0.05043631 0.058262188 -0.06452797
-0.07551306 0.03816634
00000000: ec4b 9b3d aef6 9abd dd39 993d 1a6b 99bd
00000010: 2e59 19bd 4e96 4e3d 55a4 6e3d 3e27 84bd
00000020: 97a6 9abd 4f54 1c3d

exp_avg_sq f4 [1, 10]
0.047819756 0.034210287 0.030625455 0.06746878 0.0024806375 0.020527268 0.06460338 0.013335349
0.07138485 0.001981274
00000000: a6de 433d 1620 0c3d 3ce2 fa3c 122d 8a3d
00000010: 3192 223b cd28 a83c c74e 843d 827c 5a3c
00000020: 3832 923d 43d8 013b
