ckpt/MXN/THEOPOULA_lstm_bs{32}_lr{1.0e-03}_epoch{400}_eta{0.0e+00}_beta{1.0e+15}_r{0}_eps{1.0e-04}/TP_lstm_lr{1.0e-03}_epoch{400}_beta{1.0e+15}_r{0}_eps{1.0e-04}.pth (torch, 8927 bytes, 5 tensors)

lstm.weight_ih_l0 f4 [40, 27]
0	0x3db6f759	0.089338966
1	0xbebc0dac	-0.3672918
2	0xbe08b0bf	-0.13348673
3	0xbe523188	-0.20526707
4	0xbec7f447	-0.39053556
5	0x3e05a88d	0.13052578
6	0xbe359493	-0.17732458
7	0xbe51e16f	-0.20496152
8	0x3d0d3a5a	0.034479477
9	0xbd634764	-0.055488005
10	0xbeab2eef	-0.33434245
11	0x3d6f5973	0.058434915
12	0xbe26f085	-0.16302688
13	0xbde4cf02	-0.11172296
14	0xbe65cd68	-0.22441638
15	0xbe073bc4	-0.13206393
16	0xbd995d73	-0.07488527
17	0xbe98d0b9	-0.29846743
18	0x3e54a04c	0.20764273
19	0x3d247e80	0.040159702
20	0x3e480f3e	0.19537064
21	0x3c72bfcb	0.014816235
22	0xbc737c24	-0.01486114
23	0x3dca4590	0.09876549
24	0x3e6b4878	0.22976863
25	0x3e770fdc	0.24127144
26	0x3e47c3cf	0.19508289
27	0xbd18fd16	-0.037350737
28	0xbe89d70f	-0.2692189
29	0x3d9a89a9	0.07545788
30	0x3d84c6ba	0.064832166
31	0xbec9e01a	-0.39428788
32	0xbe8105f2	-0.25199848
33	0x3e248fbc	0.16070455
34	0xbeae40de	-0.34033865
35	0x3e56dc1f	0.20982407
36	0x3cdebfd4	0.02719108
37	0x3e5cf16f	0.21576475
38	0xbdcaab79	-0.09895987
39	0x3e93f943	0.2890111
40	0x3e6ee627	0.23329984
41	0xbd902b85	-0.07039551
42	0x3d872a7c	0.065999
43	0x3e38cd8b	0.18047158
44	0xbe34aca0	-0.17643976
45	0xbd0090a6	-0.031387947
46	0x3e93a402	0.28836066
47	0x3e2a1028	0.16607726
48	0x3e42fd9a	0.19042054
49	0xbe3747d6	-0.17898497
50	0x3d15e084	0.036591068
51	0xbdcb0c03	-0.099144004
52	0x3d2733e8	0.040820986
53	0x3e916d5f	0.28403756
54	0x3e863086	0.26208895
55	0xbe59d5be	-0.21272942
56	0xbe290e95	-0.16509469
57	0xbe67819b	-0.22608034
58	0xbea0d866	-0.314151
59	0xbe28e0db	-0.16492026
60	0xbd506237	-0.050874915
61	0xbb28f9b0	-0.002578359
62	0xbc7ee780	-0.015558124
63	0xbe1a58f9	-0.15073003
64	0xbe30b6b4	-0.17257196
65	0xbe5e9fd0	-0.21740651
66	0x3e62a7aa	0.22134271
67	0xbe93fd1f	-0.28904054
68	0xbec10bd9	-0.37704352
69	0x3cee238c	0.029069684
70	0x3b95f190	0.0045759156
71	0xbe407002	-0.18792728
72	0xbea3e6d9	-0.3201206
73	0xbe82efd5	-0.25573602
74	0xbe6be7d6	-0.23037657
75	0x3d86f4e8	0.06589681
76	0xbd0698c2	-0.032860525
77	0xbd831928	-0.064012825
78	0xbd5437af	-0.051810917
79	0x3ded901a	0.11599751
80	0xbdccc6f5	-0.099988855
81	0x3e0285fc	0.12746423
82	0x3e4ff234	0.20307237
83	0xbe7dac9f	-0.24772881
84	0xbe65ae66	-0.22429809
85	0xbe89962d	-0.26872388
86	0x3e26136f	0.16218351
87	0x3dea1af9	0.11430926
88	0xbea7b317	-0.32753822
89	0x3e708b50	0.23490644
90	0xbdf62f69	-0.120207615
91	0x3e1d1572	0.15340212
92	0x3deb3cf8	0.11486238
93	0x3de81f33	0.11334076
94	0x3e320050	0.17382932
95	0xbd4ac175	-0.0495009
96	0xbea7c4ba	-0.32767278
97	0x3d28550b	0.04109673
98	0xbe89c454	-0.269076
99	0x3e711f61	0.23547126
100	0x3e1c5c2f	0.1526954
101	0x3e208b25	0.1567808
102	0xbd9b9094	-0.075959355
103	0x3e6af3ae	0.22944519
104	0xbead516d	-0.33851185
105	0xbe77682f	-0.24160837
106	0x3c560747	0.0130632585
107	0x3e4f216a	0.2022759
108	0xbd968d71	-0.073511966
109	0xbd526f02	-0.051375397
110	0xbd8abf47	-0.067747645
111	0xbe6ffa90	-0.23435426
112	0x3d4c9d40	0.049954653
113	0xbe251611	-0.16121699
114	0xbc2d5526	-0.010579383
115	0x3db19be3	0.08672311
116	0xbcb13f22	-0.02163655
117	0xbd455df9	-0.048185322
118	0x3e80047b	0.25003418
119	0x3e1674fa	0.1469306
120	0x3d442d0e	0.04789453
121	0x3da09c89	0.07842357
122	0xbe155025	-0.14581354
123	0x3c5e5a74	0.01357137
124	0xbdcd8618	-0.10035342
125	0x3db25a8d	0.087086774
126	0xbe5496a2	-0.20760587
127	0x3d4bb3ac	0.049731895
128	0xbe8295f2	-0.25505024
129	0x3e6e346a	0.23262182
130	0x3df5f8ae	0.120103225
131	0xbdb75369	-0.08951456
132	0xbc25a0d3	-0.010109144
133	0x3d992224	0.07477215
134	0xbe8888a7	-0.26666757
135	0xbe330593	-0.17482595
136	0xbe0528ad	-0.13003798
137	0x3eb1c5f8	0.3472135
138	0xbe8bf511	-0.27335408
139	0xbe82767a	-0.25481015
140	0x3e40f2ff	0.18842696
141	0xbd8a9241	-0.06766177
142	0xbdf1f3f8	-0.118141115
143	0x3e936b5f	0.28792855
144	0xbe7cf61f	-0.24703263
145	0x3df3263e	0.118725285
146	0xbd92c358	-0.07166165
147	0x3cd5459d	0.02603417
148	0x3e8016aa	0.2501729
149	0xbc8a8e21	-0.016913475
150	0x3e993c68	0.299289
151	0xbd8d5b9a	-0.06902237
152	0x3d96af30	0.07357633
153	0xbcdb9881	-0.026806118
154	0xbe763f63	-0.24047618
155	0xbdd4babe	-0.10387181
156	0xbdaf12d5	-0.08548514
157	0x3e2562b2	0.1615093
158	0x3e8c79e0	0.27436733
159	0x3dcc1480	0.099648476
160	0xbbb5388b	-0.005530422
161	0xbd4c74cd	-0.049916077
162	0x3e2d8364	0.16944653
163	0xbd934c13	-0.071922444
164	0x3e1fac21	0.15593006
165	0xbe8a45d9	-0.27006415
166	0x3d02d139	0.03193781
167	0xbdbae7c3	-0.09126236
168	0xbdfd8d20	-0.12380433
169	0x3dc679ad	0.096911766
170	0xbcdd95e3	-0.02704901
171	0x3e08de25	0.13365991
172	0x3db0999d	0.086230494
173	0xbe96182f	-0.29315326
174	0x3e41dade	0.18931147
175	0xbe2d1159	-0.16901149
176	0xbdc1504f	-0.09439146
177	0x3e78a813	0.24282865
178	0x3e699320	0.2281003
179	0x3e0f1daf	0.13976167
180	0xbe93f81c	-0.2890023
181	0xbe82ab3c	-0.25521266
182	0xbe6c1fc2	-0.2305899
183	0xbe74e63c	-0.23915952
184	0xbd07374a	-0.033011712
185	0xbc3c5b23	-0.011496338
186	0x3de5b037	0.11215251
187	0xbdcba4cc	-0.09943542
188	0x3dc9e763	0.09858587
189	0x3e60a146	0.21936521
190	0x3e2b3870	0.16720748
191	0x3e1a06ed	0.15041704
192	0xbe04acd4	-0.12956554
193	0x3cbcdbcc	0.023054026
194	0xbe79ad1b	-0.24382441
195	0x3dd21e4c	0.10259685
196	0xbc9916e2	-0.01868767
197	0x3e174fd3	0.14776544
198	0xbe8e33ed	-0.2777399
199	0xbea709a5	-0.32624546
200	0x3dc3797c	0.09544656
201	0xbe5dc19c	-0.21655887
202	0xbe819944	-0.25312245
203	0xbd1e5380	-0.03865385
204	0x3e230b4c	0.15922278
205	0x3dc9e02e	0.09857212
206	0x3d2eb9f1	0.042657796
207	0x3dbdec0d	0.09273539
208	0x3d4064ed	0.04697125
209	0x3e370460	0.17872763
210	0xbe707100	-0.23480606
211	0xbe7be9e8	-0.24600947
212	0xbe71f982	-0.23630336
213	0x3dc5b5da	0.09653826
214	0xbe99d7ae	-0.30047363
215	0xbe35841f	-0.17726181
216	0x3e778718	0.24172628
217	0xbcc0aa10	-0.023518592
218	0xbdba0f55	-0.090849556
219	0xbd3f484e	-0.046699814
220	0x3ef04e92	0.46934944
221	0x3df5a38f	0.11994087
222	0xbd89f2d8	-0.06735772
223	0x3d4c5157	0.04988226
224	0xbd208ba8	-0.039195687
225	0xbdb378a9	-0.087632485
226	0x3edf5b30	0.43624258
227	0x3ed18b32	0.4092651
228	0x3d8d0312	0.06885351
229	0x3e9b8468	0.30374455
230	0x3e449ec9	0.19201197
231	0x3eb84537	0.35990307
232	0xbb4b98e2	-0.0031066467
233	0x3e009e40	0.12560368
234	0xbe6c00f8	-0.23047245
235	0x3e44d700	0.19222641
236	0x3d30a104	0.043122306
237	0xbe2fdc3e	-0.1717386
238	0xbd4ec376	-0.050479375
239	0x3e99a4f0	0.3000865
240	0xbd189286	-0.03724911
241	0x3d08fea8	0.033445984
242	0x3ccb65d9	0.024828838
243	0x3ed76c24	0.42074692
244	0xbd855182	-0.06509687
245	0xbe6ca4d0	-0.23109746
246	0xbd0cf6ce	-0.03441506
247	0x3dc03b86	0.09386353
248	0xbda94d6e	-0.08266722
249	0xbd8271e8	-0.06369382
250	0xbeb08cf9	-0.34482554
251	0x3cf042c8	0.029328719
252	0x3df5b030	0.11996496
253	0xbe8ed743	-0.27898607
254	0x3be65ce7	0.007030118
255	0xbc9dc5c0	-0.019259334

lstm.weight_hh_l0 f4 [40, 10]
0	0xbd2a26f3	-0.04154105
1	0x3e2dff83	0.16992001
2	0x3da829f7	0.08211129
3	0xbeaa2fe2	-0.33239657
4	0xbc8345f4	-0.016024567
5	0x3c8f14db	0.017466
6	0xbbd95552	-0.0066324854
7	0x3c860636	0.016360383
8	0x3cf9438b	0.030427715
9	0xbe99fdac	-0.3007635
10	0x3e2641f4	0.16236097
11	0x3d235187	0.039872672
12	0xbe573cf1	-0.21019341
13	0xbd830a96	-0.063985035
14	0x3e920ba0	0.28524494
15	0xba28bed7	-0.0006437129
16	0xbe4edc14	-0.2020114
17	0xbeb20997	-0.3477294
18	0x3d03adcf	0.03214818
19	0x3e13a8e4	0.14419895
20	0x3e1cdfd1	0.15319754
21	0xbe7e8d66	-0.24858627
22	0xbe06cfd3	-0.13165216
23	0xbddf9119	-0.10916347
24	0xbdb6c1e7	-0.08923703
25	0xbe2ed65e	-0.17073962
26	0xbdeacf20	-0.11465287
27	0x3e179412	0.14802578
28	0xbd946d3a	-0.07247396
29	0x3e06328b	0.13105218
30	0x3dcad5fd	0.09904096
31	0x3c330ac8	0.010927863
32	0x3e0e7165	0.13910444
33	0xbdd1147d	-0.10208986
34	0xbdfeb52d	-0.124369
35	0xbb975207	-0.0046179327
36	0x3e20a958	0.156896
37	0xbe18a833	-0.14907913
38	0xbe082391	-0.13294818
39	0xbdaf70b9	-0.08566422
40	0xbebb0a7f	-0.36531445
41	0x3c245adc	0.010031428
42	0xbdcdc195	-0.100466885
43	0xbebd3c8e	-0.36960262
44	0x3e57069d	0.20998617
45	0x3dbcb3bc	0.09213969
46	0xbe29155b	-0.16512053
47	0x3e1c1706	0.15243158
48	0xbcd53f72	-0.02603123
49	0x3e602de6	0.21892509
50	0x3e363af7	0.17795931
51	0xbdbcca8d	-0.09218321
52	0xbe82cb6c	-0.25545824
53	0x3db9cf91	0.09072793
54	0xbe5d81f2	-0.21631601
55	0x3e881601	0.26579288
56	0xbe659c8e	-0.22423002
57	0x3e1ecdb9	0.15508164
58	0xbe6d2f32	-0.23162535
59	0x3e8b89b1	0.27253488
60	0x3dea6c69	0.11446459
61	0xbd819769	-0.06327707
62	0xbe779144	-0.24176508
63	0xbdb7a2fd	-0.089666344
64	0x3e705d7f	0.23473166
65	0xbe97b4cc	-0.29630125
66	0xbe96f8d0	-0.29486704
67	0x3e3074dc	0.17232078
68	0x3c6aa38a	0.014321217
69	0xbe9bd87d	-0.30438605
70	0x3c6d4ee1	0.014484138
71	0x3d14d4ce	0.03633576
72	0xbe5a7191	-0.21332385
73	0xbe60cdff	-0.21953581
74	0x3e4c1b0f	0.19932197
75	0x3ddec6bb	0.108777486
76	0x3e069bc6	0.1314536
77	0xbcd9f9ba	-0.026608337
78	0xbc4c4990	-0.012468711
79	0x3e228bc0	0.15873623
80	0x3ec7a30b	0.3899158
81	0x3ee15005	0.44006363
82	0xbeb4e025	-0.3532726
83	0x3ea9c850	0.3316064
84	0xbe9ff07f	-0.3123817
85	0x3e0fe6c9	0.14052881
86	0x3eaf8960	0.34284496
87	0x3d04b5e2	0.03240002
88	0x3eedf6e9	0.4647744
89	0x3e1f7f7a	0.15575972
90	0x3dd77be8	0.1052168
91	0x3e62a98d	0.22134991
92	0xbe6acfc1	-0.22930814
93	0x3dec937b	0.11551567
94	0x3eac9b66	0.3371231
95	0xbeab5b21	-0.33467963
96	0x3e64b158	0.22333276
97	0xbccc6b6b	-0.024953565
98	0xbe5b8bbc	-0.21440023
99	0xbec336df	-0.381278
100	0xbe367ec2	-0.17821792
101	0xbc107ca1	-0.008818776
102	0x3de3bbfc	0.111198395
103	0xbe4478ae	-0.1918666
104	0xbeaf7805	-0.34271255
105	0xbe811f25	-0.25219074
106	0x3e4a4e5a	0.19756451
107	0xbbd446ae	-0.0064781522
108	0xbd849c4b	-0.06475123
109	0x3e959bef	0.2922053
110	0xbe82d509	-0.25553158
111	0x3dfbae35	0.12289087
112	0xbe04de51	-0.12975432
113	0xbeb10368	-0.3457291
114	0xbe4ba529	-0.19887222
115	0xbdc5ac1a	-0.096519664
116	0x3d00679e	0.031348817
117	0x3ec44194	0.38331282
118	0xbe379680	-0.17928505
119	0xbd436f44	-0.047713533
120	0x3e4f9fd8	0.2027582
121	0x3e7fe535	0.2498978
122	0xbe048f9d	-0.12945409
123	0x3dc16347	0.09442764
124	0x3d63d062	0.05561865
125	0xbe945600	-0.28971863
126	0xbca486ca	-0.020083804
127	0xbdde4b25	-0.108541764
128	0x3c2b7868	0.010465719
129	0xbe97597b	-0.29560456
130	0xbd8ab780	-0.06773281
131	0xbe95f27c	-0.29286563
132	0xbe643b4d	-0.22288246
133	0x3e32041c	0.1738438
134	0xbdbf556b	-0.09342464
135	0xbe8de699	-0.27714995
136	0x3e01f6de	0.12691829
137	0xbe2af6b6	-0.16695675
138	0xbe8407b1	-0.25787118
139	0x3e308274	0.17237264
140	0x3e9b51e5	0.30335918
141	0x3e9cd047	0.30627653
142	0x3dfa6d3b	0.12227865
143	0x3e3d850f	0.18507789
144	0x3e991db9	0.2990549
145	0xbe3bf180	-0.18353844
146	0x3e8acd7a	0.2710989
147	0x3e06e03d	0.13171478
148	0x3e8d0010	0.2753911
149	0xbd5c4e24	-0.05378546
150	0x3ec17b10	0.37789202
151	0x3dfc6c9b	0.12325402
152	0x3cd7d63f	0.026347278
153	0xbd5d6d07	-0.054059055
154	0x3d3d2ae7	0.046183493
155	0x3e6327ee	0.221832
156	0xbe12a4b8	-0.14320648
157	0x3e417baa	0.1889483
158	0x3cad6eb0	0.021170944
159	0x3de3300e	0.1109315
160	0xbdce500b	-0.10073861
161	0xbe61e2ff	-0.22059248
162	0xbda977b9	-0.082747884
163	0xbe855c23	-0.26046857
164	0x3e4f0af1	0.20219018
165	0xbeadfcba	-0.33981878
166	0x3e1e97f4	0.15487653
167	0xbe21ea08	-0.15811932
168	0x3c8c803c	0.01715099
169	0x3dc0cd01	0.094141014
170	0xbda53438	-0.080666006
171	0xbe00fa41	-0.12595464
172	0xbd30186a	-0.042992033
173	0xbdbce547	-0.09223419
174	0xbec241b6	-0.37940758
175	0x3e25a21d	0.16175123
176	0xbe8b7d38	-0.27243972
177	0x3dc27a1e	0.09495948
178	0xbd21705f	-0.039413806
179	0x3e0524f3	0.13002376
180	0x3e9516d4	0.2911898
181	0x3e95e4cd	0.29276124
182	0xbb527176	-0.0032111085
183	0xbdb85c8a	-0.090020254
184	0xbdc06105	-0.09393505
185	0xbe9709dc	-0.2949971
186	0x3e89fce9	0.26950768
187	0x3e768882	0.24075511
188	0xbc598a09	-0.013277539
189	0x3ced733f	0.028985618
190	0xbe6bff2e	-0.23046562
191	0x3b56a739	0.003275348
192	0xbd157f66	-0.03649845
193	0x3e204e7c	0.1565494
194	0xbdf5366c	-0.11973271
195	0x3c8cff14	0.017211474
196	0x3ea8b89e	0.32953352
197	0xbe026c5a	-0.12736645
198	0xbe309dcf	-0.17247699
199	0xbe77deb5	-0.2420605
200	0xbe2afc0a	-0.16697708
201	0x3ea66e67	0.32506105
202	0xbe8eee18	-0.27916026
203	0x3d786f79	0.060653184
204	0x3e161a9c	0.14658588
205	0x3d9fb4b5	0.07798139
206	0xbdc572e5	-0.09641055
207	0xbe3971ee	-0.18109867
208	0xbdb73eb9	-0.0894751
209	0x3e85ba54	0.2611872
210	0xbc863548	-0.016382828
211	0x3e516624	0.2044912
212	0xbeb2f8ac	-0.34955347
213	0x3d9dd914	0.0770742
214	0x39537b39	0.00020168432
215	0x3df052d2	0.11734547
216	0x3e9c6ac3	0.30550203
217	0x3ed388ac	0.4131521
218	0xbe465551	-0.19368483
219	0x3dcfa778	0.10139364
220	0x3ea27134	0.31726992
221	0xbe920e5a	-0.28526574
222	0x3d7db118	0.061936468
223	0xbdbed7b3	-0.09318485
224	0xbdfec2f9	-0.12439532
225	0x3eba51b2	0.36390454
226	0x3e2066df	0.15664242
227	0xbed501b8	-0.41602874
228	0xbe81035e	-0.2519788
229	0x3e92e06d	0.28686848
230	0xbe55dbaf	-0.20884584
231	0xbe9522c5	-0.2912809
232	0xbbd02fe9	-0.0063533676
233	0x3e751faf	0.23937868
234	0xbe959078	-0.29211783
235	0xbe61a945	-0.22037227
236	0x3b1ca08c	0.0023899404
237	0xbe7df042	-0.24798682
238	0xbe281e7d	-0.1641788
239	0x3db60864	0.08888319
240	0xbe27eb34	-0.16398317
241	0xbe392d22	-0.18083623
242	0x3de891ba	0.1135592
243	0x3e32c3f7	0.17457567
244	0x3e3b5229	0.1829306
245	0x3eafd16e	0.3433947
246	0xbe46c9e8	-0.19412959
247	0x3d3bec93	0.04587991
248	0x3e08d676	0.1336306
249	0x3d16536f	0.036700662
250	0x3d49e380	0.049289227
251	0xbba765e9	-0.005108584
252	0xbe93a1d8	-0.28834414
253	0x3eb1ff2a	0.34764987
254	0xbe831be0	-0.25607204
255	0xbe4d8a9b	-0.20072405

lstm.bias_ih_l0 f4 [40]
0	0x3dfbe002	0.122985855
1	0xbd803681	-0.06260396
2	0x3bcd26c7	0.006260726
3	0x3d7d0036	0.06176778
4	0xbe8a312b	-0.26990637
5	0x3dcd422f	0.10022389
6	0xbd903288	-0.07040888
7	0xbdb1af80	-0.08676052
8	0x3eb216ad	0.34782925
9	0xbe6cb041	-0.2311411
10	0xbc11bdc5	-0.008895342
11	0x3e7380ba	0.23779574
12	0x3e313bb9	0.17307939
13	0xbddeaeb2	-0.10873164
14	0x3e8bf403	0.27334604
15	0x3dfabcf7	0.122430734
16	0x3ea0ccc8	0.31406236
17	0x3e46e965	0.1942497
18	0xbe047c3e	-0.1293802
19	0x3e797bb4	0.24363595
20	0x3ebda074	0.3703648
21	0xbd0ffaf3	-0.035151433
22	0x3e329086	0.17437944
23	0x3e377b64	0.17918164
24	0x3d47477f	0.04865217
25	0x3d6d3154	0.05790837
26	0x3e9e9286	0.30971164
27	0x3e2fc2ee	0.17164204
28	0x3f0fdd55	0.561971
29	0x3d92bcf2	0.07164945
30	0xbc70d886	-0.014700061
31	0xbe10ef51	-0.14153792
32	0x3edcd1bc	0.43128765
33	0x3e88d208	0.2672274
34	0xbdbdebd2	-0.09273495
35	0x3ebef1ef	0.37293956
36	0x3ed183d2	0.40920883
37	0x3cda4937	0.02664624
38	0x3e01f152	0.12689713
39	0xbba08b9e	-0.004899456

lstm.bias_hh_l0 f4 [40]
0	0xbe2d7635	-0.16939624
1	0x3beeb115	0.0072842934
2	0x3ebecc55	0.37265268
3	0xbe93407c	-0.28760135
4	0x3e8e251f	0.27762696
5	0x3d127358	0.03575453
6	0x3da9ecff	0.082971565
7	0x3e94c5c4	0.29057133
8	0x3ecdc38f	0.40188262
9	0x3e28ac4f	0.1647198
10	0x3e094ecc	0.13408965
11	0x3e08fd76	0.13377938
12	0x3eda13ea	0.42593318
13	0xbe18c8a0	-0.14920282
14	0x3e97dfd2	0.2966295
15	0xbd977203	-0.07394793
16	0x3affd12c	0.0019517294
17	0x3eb4ad38	0.35288405
18	0x3e82b196	0.25526112
19	0x3ea7ebf4	0.32797205
20	0x3e46ce2e	0.19414589
21	0x3e5d2976	0.21597847
22	0xbe140b38	-0.14457405
23	0xbd5a4fc6	-0.053298734
24	0xbe61351d	-0.21992917
25	0x3eb89f83	0.36059198
26	0x3e3bb222	0.18329671
27	0x3dc62dd8	0.09676713
28	0x3e1b83aa	0.15186945
29	0x3e4bd07a	0.19903746
30	0x3e88867f	0.26665112
31	0x3ea5c67a	0.32377988
32	0x3e01e8dd	0.12686487
33	0xbe5329bc	-0.20621389
34	0xbdb6c67b	-0.08924576
35	0x3e436247	0.19080459
36	0x3e584a21	0.21122028
37	0x3e25ba6b	0.16184394
38	0x3ecd43f5	0.4009091
39	0x3ed04656	0.40678662

fc.weight f4 [1, 10]
0	0x3ffc44a7	1.9708451
1	0x4007a09e	2.1191783
2	0xc0123bff	-2.2849119
3	0x3fb46a29	1.4094898
4	0xbfe5841a	-1.7930939
5	0xbfd580c5	-1.6679922
6	0x401ab212	2.4171185
7	0x400959d6	2.1461082
8	0xbf9168bd	-1.1360089
9	0x3ffe51a6	1.9868667
