ckpt/MXN/THEOPOULA_lstm_bs{32}_lr{1.0e-03}_epoch{3}_eta{0.0e+00}_beta{1.0e+14}_r{5}_eps{1.0e-04}/TP_lstm_bs{32}_lr{1.0e-03}_epoch{3}_beta{1.0e+14}_r{5}_eps{1.0e-04}.pth (torch, 8927 bytes, 5 tensors)

lstm.weight_ih_l0 f4 [40, 27]
0	0xbe05f9e3	-0.13083605
1	0x3e2bec14	0.16789275
2	0x3d31045b	0.043217044
3	0xbe774bf9	-0.24150075
4	0x3e1e6ca9	0.15471138
5	0x3e9f9721	0.3116999
6	0x3e883f60	0.2661085
7	0xbe98be11	-0.2983251
8	0xbd31c7dd	-0.043403495
9	0xbeaedc3b	-0.34152398
10	0x3df655bc	0.12028071
11	0xbe32f60d	-0.17476673
12	0x3e4c86cb	0.19973294
13	0x3da18950	0.078875184
14	0x3e07c407	0.13258372
15	0x3e24ac43	0.16081338
16	0xbce907db	-0.028446129
17	0x3e937340	0.28798866
18	0x3e5bc2c8	0.21461022
19	0xbe81a13a	-0.2531832
20	0xbd2dd4df	-0.042439338
21	0xbd63515e	-0.05549752
22	0xbebe19b9	-0.37129
23	0x3e01dab8	0.12681091
24	0x3cbfe1d9	0.023423122
25	0x3d56d16a	0.052445807
26	0xbdb723dc	-0.089423865
27	0xbc30ddb2	-0.010795044
28	0x3e81e724	0.2537166
29	0x3d045f9c	0.032317743
30	0x3d2643f1	0.040592138
31	0xbe1eee2f	-0.15520547
32	0x3e93a7b7	0.28838894
33	0x3e9541aa	0.2915166
34	0xbbd06c73	-0.0063605844
35	0x3e09b993	0.13449697
36	0x3d0f6cd5	0.0350159
37	0x3d8eb542	0.06968166
38	0xbe99dad6	-0.3004977
39	0x3ee7ffb2	0.45312268
40	0x3cc1483b	0.023594012
41	0x3ea3b59c	0.31974494
42	0x3e285c04	0.16441351
43	0xbd6f062e	-0.058355503
44	0xbe7866dd	-0.24257989
45	0x3cbd4184	0.02310253
46	0x3e8e916d	0.27845326
47	0x3e71aeb1	0.23601796
48	0x3d2d7e03	0.042356502
49	0xbe91dc1e	-0.2848825
50	0xbd6988d8	-0.05701527
51	0x3d747394	0.059680536
52	0xbddd384a	-0.10801752
53	0xbe6326b0	-0.22182727
54	0xbe25f37b	-0.16206162
55	0xbe72d3c9	-0.23713602
56	0x3cdb704d	0.026786948
57	0xbe43a86e	-0.1910722
58	0x3d68d57f	0.05684423
59	0x3ecf3506	0.4047014
60	0x3e5ccbf5	0.21562178
61	0xbe80b989	-0.25141552
62	0x3dca65fe	0.09882735
63	0x3dcc5296	0.099766895
64	0xbcb7d748	-0.022441521
65	0x3e1dcd0a	0.15410247
66	0x3ebe9678	0.37224174
67	0xbd989c26	-0.07451658
68	0x3e858532	0.26078182
69	0x3d03309f	0.03202879
70	0xbdc4c2f2	-0.09607495
71	0xbe133fc8	-0.143798
72	0xbe0d7732	-0.13815
73	0xbe208540	-0.15675831
74	0xbe7641ec	-0.24048585
75	0x3e444b65	0.19169386
76	0x3d8d01b6	0.06885092
77	0x3e0b52d4	0.13605815
78	0xbdbfa0c1	-0.09356833
79	0xbdb7deeb	-0.08978065
80	0xbdadf374	-0.084937006
81	0x3dae7b34	0.08519593
82	0x3e3e596c	0.18588799
83	0xbdfb9d53	-0.122858666
84	0x3da0dbf8	0.07854456
85	0xbeab7f2e	-0.33495468
86	0x3e84fe09	0.25975063
87	0xbd11d56d	-0.03560393
88	0xbe6744ad	-0.22584791
89	0x3cd28fea	0.02570339
90	0x3e939bab	0.28829703
91	0xbe367ed1	-0.17821814
92	0x3deeb06d	0.11654744
93	0x3d424dc8	0.04743746
94	0x3da422dd	0.08014462
95	0x3e208102	0.15674213
96	0xbd01b73d	-0.03166889
97	0xbe0d0243	-0.13770394
98	0x3e561e6c	0.20910043
99	0x3d292847	0.041298177
100	0xbe5be4b4	-0.21473962
101	0xbdee98ce	-0.11650239
102	0x3e3dcd6e	0.18535396
103	0x3e0444b9	0.1291684
104	0x3e219700	0.15780258
105	0xbde9f0d5	-0.11422888
106	0xbdd57c89	-0.10424144
107	0x3c0cb02d	0.008586925
108	0x3ea6ef52	0.32604462
109	0xbd8fec39	-0.07027478
110	0xbe286ff3	-0.16448955
111	0x3bd5ef15	0.006528745
112	0x3e55999c	0.20859379
113	0x3b602fe0	0.0034208223
114	0x3de2458c	0.11048421
115	0x3ce0a4bc	0.027422301
116	0xbe413040	-0.18866062
117	0xbea71081	-0.3262978
118	0xbe5b9774	-0.21444494
119	0x3e758c70	0.23979354
120	0xbd13458f	-0.035955008
121	0x3e557199	0.20844115
122	0xbdab68be	-0.08369587
123	0xbe1d4cc5	-0.15361317
124	0xbe326504	-0.17421347
125	0x3e063424	0.13105828
126	0xbe536c95	-0.2064689
127	0x3dc9a7f6	0.09846489
128	0xbe47c464	-0.19508511
129	0xbe166d4d	-0.14690132
130	0xbe81b776	-0.25335282
131	0xbe1dbee7	-0.15404855
132	0x3c2b63c5	0.010460799
133	0x3b767f5b	0.003761253
134	0xbd41b558	-0.047292084
135	0x3e194272	0.14966753
136	0x3ca94e03	0.020667082
137	0x3ed8e6f8	0.42363715
138	0xbebdf190	-0.3709836
139	0x3c950633	0.018191433
140	0x3e4c078a	0.19924751
141	0x3e8c51e1	0.2740622
142	0xbe01d3bb	-0.12678425
143	0x3e6e6fda	0.23284855
144	0x3d937b63	0.072012685
145	0xbe2f5e94	-0.17125922
146	0xbe913e55	-0.28367868
147	0xbe1c6dc4	-0.15276247
148	0x3d6d2977	0.057900872
149	0x3e84efc3	0.25964174
150	0x3d2f23ec	0.042758867
151	0x3e563114	0.2091716
152	0x3e8e413a	0.2778414
153	0x3e4a0335	0.19727786
154	0xbdaea450	-0.08527434
155	0x3e1d1b8d	0.15342541
156	0x3e74232c	0.23841542
157	0xbd22de1e	-0.03976261
158	0x3d1ecdfe	0.03877067
159	0xbe11bac7	-0.14231406
160	0xbd78df4e	-0.060759835
161	0xbe1b0ee6	-0.15142402
162	0xbd231eae	-0.03982418
163	0xbde65ea9	-0.11248524
164	0x3e5a29bf	0.21304987
165	0xbeb45299	-0.35219267
166	0x3df2d2b4	0.11856595
167	0x3e96430a	0.29348022
168	0x3dc24202	0.09485246
169	0xbe45a037	-0.19299398
170	0x3d3de7be	0.046363585
171	0x3c4d109f	0.01251617
172	0x3e9317e2	0.2872916
173	0x3e46947a	0.19392577
174	0x3da731fd	0.081638314
175	0x3ed4e9e2	0.41584688
176	0x3dcc4a3f	0.09975099
177	0x3d128364	0.035769835
178	0x3e66c7b8	0.22537124
179	0xbd50adac	-0.050946876
180	0xbe2689fe	-0.16263577
181	0x3dbc7d93	0.09203639
182	0xbd70abd7	-0.05875763
183	0x3e14c0b9	0.14526643
184	0xbe5ff3d7	-0.21870361
185	0x3d424008	0.047424346
186	0x3e910b96	0.28329152
187	0x3d6b15d2	0.057393856
188	0x3d0778b0	0.03307408
189	0x3e27be27	0.16381131
190	0xbe5ed87f	-0.21762274
191	0x3e8451ae	0.25843567
192	0x3bd7f409	0.0065903706
193	0x3e832ca2	0.2561999
194	0xbdfc8e7c	-0.12331864
195	0x3d0889a2	0.033334382
196	0xbe125bca	-0.14292827
197	0x3db8f561	0.09031177
198	0xbe517c2c	-0.20457524
199	0x3e28d5cb	0.16487806
200	0xbe48286b	-0.19546668
201	0x3eaa3789	0.33245495
202	0x3e804160	0.25049877
203	0x3ec3f78b	0.38274798
204	0x3e798f69	0.24371113
205	0x3eaae844	0.3338033
206	0x3e4ff393	0.2030776
207	0xbe725005	-0.23663338
208	0x3e97df03	0.29662332
209	0xbdc631cb	-0.09677466
210	0x3da0bfaf	0.07849061
211	0x3e24a701	0.16079332
212	0xbe8594cf	-0.26090094
213	0x3e1c5c0a	0.15269485
214	0x3e2cc8cd	0.16873474
215	0xbe32d2ff	-0.17463301
216	0x3de276d0	0.11057818
217	0xbe4fcfd2	-0.20294121
218	0xbdd2e7ca	-0.102981165
219	0xbeb19e56	-0.34691113
220	0xbd230b0a	-0.03980545
221	0x3e814c85	0.25253692
222	0xbcf68e14	-0.030097045
223	0x3b38f9c3	0.0028225041
224	0x3e31b475	0.17353995
225	0xbe84693e	-0.25861543
226	0x3e32ff8b	0.17480294
227	0x3e58e048	0.21179307
228	0x3e8cff76	0.2753865
229	0x3e9fb5b2	0.3119331
230	0xbcff017f	-0.031128643
231	0x3dc8c1e3	0.09802606
232	0x3dbf08bb	0.09327837
233	0x3e758e90	0.23980165
234	0xbd584920	-0.052804112
235	0x3e9bb8ee	0.30414528
236	0xbdbe25c9	-0.09284551
237	0x3eac4125	0.3364345
238	0xbe8a815f	-0.27051827
239	0x3beb6f26	0.007184881
240	0x3ead4eea	0.3384927
241	0x3e220881	0.15823556
242	0x3d1efdcf	0.03881627
243	0xbdbae25a	-0.091252044
244	0xbe944312	-0.2895742
245	0x3e88dd4d	0.2673134
246	0xbe2d865e	-0.16945788
247	0xbdbed92b	-0.09318765
248	0xbcfe12b4	-0.031014778
249	0x3eb932ee	0.3617167
250	0xbe8ec0c9	-0.27881458
251	0xbc52924b	-0.012852262
252	0xbcf08fb8	-0.029365405
253	0x3e7e68f5	0.24844725
254	0xbec53b22	-0.38521677
255	0x3ec66506	0.3874895

lstm.weight_hh_l0 f4 [40, 10]
0	0xbea9de9c	-0.3317765
1	0xbe4b6302	-0.19861987
2	0x3d8e720a	0.06955345
3	0xbdc2777c	-0.09495446
4	0x3e616c1e	0.220139
5	0xbe4779ff	-0.19480132
6	0x3e27cb48	0.1638614
7	0x3e22e1d8	0.15906465
8	0xbe59a2ae	-0.21253464
9	0x3e8026fd	0.25029746
10	0x3e493fa1	0.19653179
11	0xbda335da	-0.07969256
12	0x3c3fc013	0.011703509
13	0x3c95db74	0.01829312
14	0x3e26352f	0.16231225
15	0xbe6623bc	-0.22474569
16	0x3da293b4	0.079383284
17	0xbe86b1d1	-0.26307538
18	0xbea8f760	-0.33001232
19	0x3d7a7ed3	0.061156105
20	0x3d4b6736	0.049658976
21	0xbe5d0937	-0.21585546
22	0xbed9f4f8	-0.4256971
23	0x3ddbebbc	0.10738322
24	0x3cf78684	0.03021551
25	0x3e4df352	0.2011235
26	0xbdaf8820	-0.08570886
27	0x3cf82779	0.03029226
28	0xbe2312e2	-0.15925172
29	0x3dadaab7	0.08479827
30	0xbe5085df	-0.20363568
31	0xbd43d8ae	-0.047814064
32	0x3e035585	0.12825592
33	0xbb9ec7a2	-0.0048455754
34	0x3c1075d9	0.00881716
35	0xbe64b5f0	-0.22335029
36	0x3d504782	0.050849445
37	0xbe811865	-0.25213924
38	0x3d814845	0.063126124
39	0x3dca6943	0.09883358
40	0xbe927a28	-0.28608823
41	0xbe87c630	-0.26518393
42	0x3e3724b5	0.17885096
43	0x3eaba115	0.33521333
44	0x3e3bae09	0.18328108
45	0xbe9148d3	-0.28375873
46	0xbe001428	-0.12507689
47	0x3d6dc298	0.058046907
48	0xbe3b2ac3	-0.18278031
49	0x3eb291cd	0.34876862
50	0xbd3a50fc	-0.04548739
51	0xbdb7a645	-0.0896726
52	0xbdb2db41	-0.087332256
53	0xbd7094c9	-0.058735643
54	0x3e1061d7	0.14099823
55	0x3e526b0b	0.20548646
56	0x3e937362	0.28798968
57	0x3db0b5cb	0.08628424
58	0x3e1ccbe4	0.15312153
59	0xbe5e4f34	-0.21709901
60	0xbe71ef7b	-0.23626511
61	0x3e80f6d5	0.25188318
62	0xbe3118ef	-0.17294668
63	0x3e888153	0.26661167
64	0xbe9be277	-0.30446216
65	0xbe85ca05	-0.2613069
66	0x3d8dbea8	0.069211304
67	0x3e521b26	0.20518169
68	0x3dfba871	0.12287987
69	0x3d971e4d	0.07378826
70	0xbd60b007	-0.054855373
71	0x3e32136d	0.17390223
72	0x3e619589	0.220297
73	0x3ec9d025	0.39416614
74	0x3e926e88	0.28599954
75	0xbea253f5	-0.3170468
76	0x3eb2bfe3	0.34912023
77	0x3dbc04b0	0.091805816
78	0xbe925d70	-0.28586912
79	0x3ea03766	0.31292266
80	0xbe7da25d	-0.24768968
81	0x3e8f07f2	0.2793575
82	0xbe145bdf	-0.14488171
83	0x3e98ebcc	0.298674
84	0xbd54c054	-0.05194123
85	0xbe05860f	-0.1303942
86	0xbd42af3e	-0.047530405
87	0xbcbb35e8	-0.022852853
88	0x3dc09e5b	0.09405204
89	0x3e3c1678	0.18367946
90	0x3e7731ae	0.24140045
91	0xbc89f9b5	-0.016842702
92	0xbea4164f	-0.3204827
93	0x3d1cd94c	0.038293168
94	0xbc8a8f01	-0.016913893
95	0x3d86271a	0.06550427
96	0x3bab3235	0.005224491
97	0x3dbdef0c	0.0927411
98	0x3e1d836a	0.15382162
99	0x3dfa591f	0.1222403
100	0x3db029c6	0.08601718
101	0x3d7e5273	0.06209035
102	0x3e541e3c	0.20714658
103	0xbe39cc0f	-0.18144248
104	0xbe5fb92f	-0.21847986
105	0x3e6739bb	0.22580616
106	0x3eaeb8a9	0.3412526
107	0x3df1bffb	0.118041955
108	0xbd8dca27	-0.06923323
109	0x3dff4926	0.12465124
110	0xbe9541c7	-0.29151747
111	0x3e25c894	0.16189796
112	0x3c9b3605	0.018946657
113	0x3dc877e2	0.09788491
114	0xbd2ed48f	-0.04268318
115	0x3e2d78d6	0.16940627
116	0x3e60e6af	0.21962999
117	0xbe30a125	-0.17248972
118	0xbd09b9fa	-0.033624627
119	0x3de694ab	0.11258825
120	0x3d591969	0.05300275
121	0xbe5d8a22	-0.21634725
122	0xbecedf99	-0.40404966
123	0x3da55ddd	0.080745436
124	0x3e911b44	0.28341115
125	0xbeb240f7	-0.3481519
126	0xbe6112cd	-0.21979828
127	0x3ddb9bb2	0.10723056
128	0xbea2b204	-0.3177644
129	0x3d8ac840	0.06776476
130	0xbe58212a	-0.21106401
131	0xbdb4e884	-0.08833411
132	0xbdae8ecb	-0.08523329
133	0xbed3ea35	-0.41389623
134	0xbe2bb8ab	-0.16769664
135	0xbc1122f2	-0.008858429
136	0x3c1e68d0	0.009668544
137	0x3da1ca26	0.07899885
138	0xbea3ea77	-0.3201482
139	0xbddaa3fc	-0.10675809
140	0x3df74a72	0.12074746
141	0xbcd129e0	-0.025532663
142	0x3da77f5d	0.081785895
143	0xbe8ffe2f	-0.28123614
144	0xbe58c472	-0.21168688
145	0xbe5e0e4f	-0.21685146
146	0x3e581c61	0.21104576
147	0xbe5cdcfc	-0.21568674
148	0x3e6dd2bd	0.23224922
149	0x3e92ae6a	0.28648692
150	0x3d1f03b3	0.038821887
151	0xbe1eef17	-0.15520893
152	0x3e7b35da	0.24532261
153	0x3dd1a78f	0.102370374
154	0xbe7492cb	-0.23884122
155	0x3e1b2b82	0.15153316
156	0x3e7d16eb	0.24715774
157	0xbea71308	-0.32631707
158	0x3dfa177e	0.12211512
159	0x3ced5140	0.028969407
160	0x3e4e103b	0.20123379
161	0xbd436370	-0.047702253
162	0xbe093c81	-0.13401987
163	0x3de28445	0.11060385
164	0x3e8bd6e2	0.2731238
165	0x3e3545d6	0.17702422
166	0xbdf34844	-0.11879018
167	0xbe61389d	-0.21994253
168	0x3d2f93d7	0.0428656
169	0x3d1d1d55	0.03835805
170	0x3e408401	0.18800355
171	0xbddb63e0	-0.10712409
172	0x3e2098ed	0.15683337
173	0x3e416a8f	0.18888305
174	0x3e39fb67	0.18162309
175	0xbd7540b3	-0.059876155
176	0x3e96f4fd	0.29483786
177	0x3e30b61c	0.17256969
178	0xbe92ea62	-0.28694445
179	0xbd2ceff2	-0.042221017
180	0xbe5d6b6a	-0.21623006
181	0xbe8ac5a7	-0.27103922
182	0x3e7497ff	0.23886107
183	0x3d6e27d9	0.05814347
184	0xbe97536f	-0.29555842
185	0xbe81f06f	-0.2537875
186	0x3e1985a0	0.1499238
187	0xbeb3d9c4	-0.3512708
188	0x3e4466fd	0.19179912
189	0x3e1f5425	0.15559442
190	0x3dbd5ff3	0.092468165
191	0xbe873209	-0.2640536
192	0x3e500b70	0.20316863
193	0xbe021828	-0.12704527
194	0xbd62a7d2	-0.055335827
195	0xbe0aefb9	-0.1356801
196	0x3e98be23	0.29832563
197	0x3e024c21	0.12724353
198	0xbe1b5807	-0.15170299
199	0x3e936b1c	0.28792655
200	0xbe367d7b	-0.17821305
201	0xbd0b8284	-0.034060016
202	0x3d9ed766	0.07755928
203	0x3d82bb31	0.0638336
204	0xbddd2077	-0.10797208
205	0xbe52c954	-0.20584613
206	0x3e27cfad	0.16387816
207	0xbdb00f45	-0.085966624
208	0x3e838cdf	0.25693414
209	0xbe5dd67b	-0.21663849
210	0xbd2b984c	-0.04189329
211	0xbd8796de	-0.066205725
212	0xbe6faa2d	-0.2340476
213	0x3db8b50f	0.09018909
214	0x3d051504	0.032490745
215	0x3e51de6f	0.20495008
216	0xbeb2a973	-0.34894904
217	0x3eb26ad5	0.3484713
218	0x3d9a4dde	0.07534383
219	0xbc0a44af	-0.008439227
220	0x3ec9b173	0.39393196
221	0xbd1150be	-0.035477392
222	0x3e37924d	0.17926903
223	0x3dffde91	0.12493623
224	0xbebb2990	-0.36555147
225	0x3e679a56	0.22617468
226	0x3e3fa2bf	0.18714426
227	0x3eae163b	0.34001336
228	0x3e375b47	0.17905913
229	0x3e3fcbfa	0.18730155
230	0xbe5d7af8	-0.2162894
231	0x3ceddd23	0.02903611
232	0xbdd6b46a	-0.1048363
233	0xbca772e1	-0.02044052
234	0x3e14ac50	0.14518857
235	0xbe03c4ba	-0.12868014
236	0xbd51677b	-0.051124077
237	0x3e13f01f	0.14447068
238	0xbe4ff33f	-0.20307635
239	0xbe1c74c6	-0.1527892
240	0xbe6b5528	-0.22981703
241	0xbe195b75	-0.14976294
242	0xbe3a9017	-0.18219028
243	0x3e0ec42a	0.13942018
244	0x3e0d0dbd	0.13774772
245	0xbe8609ef	-0.26179454
246	0xbcb5ab1f	-0.022176323
247	0xbe1e67ea	-0.15469328
248	0x3df30988	0.11867052
249	0xbd8ea9d4	-0.06965986
250	0xbc7a76e7	-0.015287138
251	0x3e035a40	0.12827396
252	0x3e095519	0.13411368
253	0x3d8eb6f5	0.0696849
254	0xbdc2d723	-0.0951369
255	0xbe25a471	-0.1617601

lstm.bias_ih_l0 f4 [40]
0	0xbd7e7740	-0.062125444
1	0xbdb74853	-0.089493416
2	0xbd6b140f	-0.057392176
3	0xbc5eb1f0	-0.013592228
4	0xbd6a442d	-0.057193924
5	0x3e3898f3	0.18027095
6	0xbe6ac3bf	-0.22926234
7	0x3d6f326a	0.058397688
8	0xbde64702	-0.112440124
9	0xbe2265dd	-0.1585917
10	0xbe38b6b0	-0.1803844
11	0xbdedb4d9	-0.116067596
12	0x3e88374b	0.26604685
13	0xbd73efa0	-0.059554696
14	0x3e3093e1	0.17243911
15	0x3e71ed25	0.2362562
16	0x3eaef8c7	0.34174177
17	0xbdc6abe2	-0.09700753
18	0xbd80a856	-0.062821075
19	0xbe453b49	-0.19260897
20	0xbe93f57d	-0.2889823
21	0xbe842077	-0.2580602
22	0x3d8f7e1e	0.07006477
23	0x3e87c54d	0.26517716
24	0xbe0b6426	-0.13612422
25	0xbe29d2d3	-0.1658433
26	0x3e8db6eb	0.27678618
27	0x3e074df7	0.13213335
28	0xbd9c3cc8	-0.076287806
29	0xbc9be74a	-0.019031186
30	0x3e68136a	0.22663656
31	0xbcbec5c5	-0.023287663
32	0x3e4dd229	0.20099701
33	0x3f00b851	0.50281245
34	0x3e5facb6	0.21843228
35	0x3f04c77f	0.51866907
36	0x3e1890eb	0.14899032
37	0x3ef0c452	0.4702478
38	0x3ed3f2de	0.4139623
39	0x3eb1781d	0.34661952

lstm.bias_hh_l0 f4 [40]
0	0x3e341c8b	0.17589013
1	0x3e884ec4	0.26622593
2	0xbe204bef	-0.15653966
3	0xbd7855f0	-0.06062883
4	0x3da85cb3	0.08220806
5	0xbe447a15	-0.19187196
6	0x3d8d69b7	0.06904929
7	0x3c67817c	0.014129993
8	0xbe84279e	-0.25811476
9	0x3c7e186d	0.015508753
10	0xbd934c33	-0.07192268
11	0xbe3cc9b7	-0.18436323
12	0x3e3a8bae	0.18217346
13	0xbc301cf6	-0.010749092
14	0x3e8651c6	0.26234263
15	0x3e86f2fd	0.2635726
16	0x3e51816c	0.20459527
17	0xbd0d7249	-0.03453282
18	0xbe5d051b	-0.21583979
19	0xbe5a127e	-0.21296117
20	0xbe974e88	-0.29552102
21	0xbe191cb3	-0.14952354
22	0x3dacbf07	0.08434873
23	0xbe634cd7	-0.22197281
24	0x3e497b27	0.19675885
25	0x3df23e77	0.118283205
26	0x3cfea483	0.031084305
27	0xbe99d5c3	-0.300459
28	0xbaea5567	-0.0017878235
29	0xbe888d80	-0.26670456
30	0x3f0c88b2	0.5489608
31	0x3f05290c	0.5201576
32	0x3d3c3780	0.045951366
33	0x3e9decd9	0.30844763
34	0x3eb79664	0.35856926
35	0x3e840032	0.257814
36	0x3f0b12e6	0.5432571
37	0x3ef83935	0.48481146
38	0x3e950120	0.2910242
39	0x3dd50dc3	0.104030155

fc.weight f4 [1, 10]
0	0xbf9bed52	-1.21818
1	0xbfaa083a	-1.328376
2	0xbfa88634	-1.3165956
3	0xbfb24fb1	-1.393057
4	0x3fa22c7b	1.2669824
5	0xbfbc4e1b	-1.4711336
6	0x3fab323a	1.3374703
7	0xbf9ba224	-1.2158856
8	0xbfaeb303	-1.364838
9	0x3fb3b5a9	1.4039813
