ckpt/ADAM_lstm_bs{32}_lr{1.0e-02}_eps{1.0e-04}_epoch{800}/ADAM_lstm_bs{32}_lr{1.0e-02}_eps{1.0e-04}_epoch{800}.pth (torch, 23544 bytes, 15 tensors)

lstm.weight_ih_l0 f4 [40, 27]
1.6868012 0.7919605 1.3166858 1.1590097 0.8298215 1.3283916 0.99136597 1.01532
1.5778743 1.1016815 0.85675955 1.0769339 1.5239475 1.3795089 1.1817106 0.4090784
0.14139886 0.14315106 -0.39798382 0.90293825 0.3786404 -0.07593363 -0.5486552 0.6168721
0.5777295 -0.2888511 -0.084318295 2.7112043 2.0243156 -0.8738007 -2.6258378 -0.47802386
-4.0639353 -2.606119 -20.286024 -1.5242954 6.8406034 -0.8108619 11.688512 3.2499697
2.1068544 1.1024498 -0.2941889 0.0648062 -3.4802547 16.176481 -0.31115764 -0.6288157
14.768053 3.6240146 17.821287 -1.7637068 1.3687723 2.1382127 -0.4104781 -0.55428207
-0.971412 -0.5062517 -0.5641431 -0.4712971 -1.1060579 -0.3293708 -0.2743037 0.10471812
-0.71692157 -0.10790073 -0.61442006 -0.74744546 -0.39616802 1.0908015 1.5912877 -0.20167942
-0.8992163 2.1839488 -0.9071153 -0.5907259 -0.90812755 0.55246055 0.3381819 0.7844259
0.14651659 -11.500665 0.16392641 1.7711973 3.3273318 -0.7088987 0.94361454 -1.4731325
1.8689489 2.8425248 0.17912957 -1.1971985 -7.1340632 -6.170494 -2.9377418 -0.007448608
7.1185846 4.9607854 2.332093 3.3699973 3.2168324 3.733433 3.446683 3.7439744
-2.3883765 5.930061 4.6761284 4.4917307 5.3509665 0.9791109 2.6228194 -2.153299
1.2950859 -2.7164717 8.291613 0.35508317 0.14413421 0.3497314 -5.09364 -0.9615478
2.767372 2.4943898 2.335542 1.0684363 0.7607536 0.7003015 0.35414588 0.40759552
1.2706261 -0.0595999 0.58112913 1.1633663 9.780525 1.9416885 -2.060853 3.521883
3.9606652 3.0856411 2.5905812 2.7674358 3.1458964 1.4590828 2.4342396 2.5079336
1.4468102 2.166805 2.2784426 3.094321 3.3813367 3.1298575 0.5400894 0.7043284
0.6383475 0.2947519 0.6318847 -0.16321366 -1.3670739 1.424055 -1.8220922 0.4606905
2.1912065 0.9208597 5.050056 7.3703065 3.627145 1.4130766 1.6884339 4.8416944
1.829287 1.5145787 -0.0013897703 1.7293195 5.1503024 -0.5482565 3.5829802 3.1277497
3.2077177 0.34676614 0.23513655 -0.17165792 0.24889012 0.6589496 0.4034421 -1.3036762
-0.77853405 -5.67864 -0.8518798 0.6175479 1.4646233 3.4789724 0.74946076 -1.6338935
9.203326 14.375786 -9.922313 -4.3097973 9.037143 -2.9355178 6.8545227 -2.737955
3.578808 2.7591946 0.94152737 -0.18530588 2.0210555 2.1110656 2.7796357 1.162632
0.2937516 1.3599888 -0.7927328 1.2263598 2.8831692 2.15009 2.909963 -1.1390193
0.31319872 0.026318997 0.1393243 0.9358636 0.79819983 0.16356483 0.3485865 0.56214947
0.4908394 0.3768889 0.04436594 0.23513782 0.116387 0.36679986 0.5283881 -0.13149044
0.50469077 0.8660331 -0.6928806 0.32877836 -0.22403412 -0.112919256 0.3234262 0.7558194
-0.41130206 0.5778316 -0.10373596 0.33677804 0.028305795 0.5051203 -0.024209775 0.21145394
0.60070455 0.6115322 -0.31630397 0.018011576 0.050662775 0.38355657 -0.33127576 0.18176644
00000000: 1ae9 d73f ecbd 4a3f 2989 a83f 6e5a 943f
00000010: 2f6f 543f bc08 aa3f 29ca 7d3f 01f6 813f
00000020: c9f7 c93f e603 8d3f 9854 5b3f f8d8 893f
00000030: b610 c33f bf93 b03f 4b42 973f b972 d13e
00000040: ddca 103e 3196 123e 89c4 cbbe f626 673f
00000050: 28dd c13e 1783 9bbd ab74 0cbf 54eb 1d3f
00000060: 15e6 133f 4be4 93be 12af acbd 5f84 2d40
00000070: 638e 0140 67b1 5fbf ba0d 28c0 8bbf f4be
00000080: c20b 82c0 a7ca 26c0 c749 a2c1 1d1c c3bf
00000090: 39e6 da40 a594 4fbf 2504 3b41 81ff 4f40
000000a0: b4d6 0640 131d 8d3f ed9f 96be 1db9 843d
000000b0: 7ebc 5ec0 6f69 8141 0e50 9fbe 11fa 20bf
000000c0: f249 6c41 dbef 6740 ff91 8e41 25c1 e1bf
000000d0: ee33 af3f 7ad8 0840 2f2a d2be 6ee5 0dbf
000000e0: 75ae 78bf b699 01bf af6b 10bf da4d f1be
000000f0: 4e93 8dbf 4aa3 a8be 8971 8cbe 7476 d63d
00000100: 2c88 37bf 0ffb dcbd a24a 1dbf 9658 3fbf
00000110: 89d6 cabe 629f 8b3f 51af cb3f 0d85 4ebe
00000120: 0a33 66bf d1c5 0b40 b538 68bf d039 17bf
00000130: 0c7b 68bf 0e6e 0d3f 2e26 ad3e 23d0 483f
00000140: 7208 163e b902 38c1 53dc 273e 98b6 e23f
00000150: 01f3 5440 637a 35bf b990 713f 9b8f bcbf
00000160: b839 ef3f edeb 3540 be6d 373e cd3d 99bf
00000170: 3f4a e4c0 b074 c5c0 f603 3cc0 7413 f4bb
00000180: 72cb e340 c1be 9e40 0341 1540 09ae 5740
00000190: 95e0 4d40 91f0 6e40 7496 5c40 479d 6f40
000001a0: 29db 18c0 0fc3 bd40 d8a2 9540 42bc 8f40
000001b0: 1e3b ab40 03a7 7a3f 46dc 2740 a7cf 09c0
000001c0: 60c5 a53f acda 2dc0 72aa 0441 76cd b53e
000001d0: eb97 133e fe0f b33e 19ff a2c0 ff27 76bf
000001e0: 9f1c 3140 15a4 1f40 8579 1540 85c2 883f
000001f0: bfc0 423f f646 333f 9c52 b53e 5cb0 d03e
00000200: e0a3 a23f 061f 74bd e1c4 143f 30e9 943f
00000210: 087d 1c41 4089 f83f 04e5 03c0 8866 6140
00000220: 8a7b 7d40 257b 4540 15cc 2540 ab1d 3140
00000230: 5e56 4940 3ac3 ba3f 95ca 1b40 fc81 2040
00000240: 1431 b93f efac 0a40 01d2 1140 5b09 4640
00000250: d267 5840 964f 4840 4d43 0a3f de4e 343f
00000260: be6a 233f b9e9 963e 32c3 213f 7b21 27be
00000270: 47fc aebf 6f47 b63f 513a e9bf a0df eb3e
00000280: ba3c 0c40 76bd 6b3f 0f9a a140 8dd9 eb40
00000290: 2523 6840 b2df b43f 9a1e d83f 29ef 9a40
000002a0: 1426 ea3f b7dd c13f f428 b6ba 575a dd3f
000002b0: 47cf a440 8a5a 0cbf 8c4f 6540 0d2d 4840
000002c0: 3f4b 4d40 558b b13e a3c7 703e 18c7 2fbe
000002d0: 0ddd 7e3e ecb0 283f f78f ce3e ddde a6bf
000002e0: 024e 47bf 6bb7 b5c0 cb14 5abf 9f17 1e3f
000002f0: c778 bb3f 7ca7 5e40 a9dc 3f3f 6c23 d1bf
00000300: d340 1341 3803 6641 cbc1 1ec1 dce9 89c0
00000310: 2398 1041 86df 3bc0 4058 db40 a83a 2fc0
00000320: 310b 6540 a596 3040 f007 713f d3c0 3dbe
00000330: f958 0140 b31b 0740 8de5 3140 20d1 943f
00000340: 9c66 963e 1d14 ae3f 89f0 4abf 5cf9 9c3f
00000350: d885 3840 139b 0940 d53c 3a40 62cb 91bf
00000360: 955b a03e f09a d73c 08ab 0e3e c294 6f3f
00000370: d356 4c3f 8a7d 273e ee79 b23e 07e9 0f3f
00000380: 4d4f fb3e 95f7 c03e 0fb9 353d f8c7 703e
00000390: 4f5c ee3d 31cd bb3e 7144 073f 6ea5 06be
000003a0: 6a33 013f 58b4 5d3f 9f60 31bf a355 a83e
000003b0: 3369 65be 3642 e7bd 1e98 a53e 617d 413f
000003c0: 2f96 d2be c6ec 133f 8573 d4bd 2c6e ac3e
000003d0: 8ee1 e73c 904f 013f 9453 c6bc 6287 583e
000003e0: c6c7 193f 608d 1c3f 98f2 a1be 038d 933c
000003f0: c583 4f3d 8761 c43e fa9c a9be fb20 3a3e

lstm.weight_hh_l0 f4 [40, 10]
-1.0344502 0.3981588 0.5774651 0.24182753 0.6612381 -0.65115273 0.076698944 -0.58832943
-0.8809463 0.21197009 -3.079294 -1.7378584 -2.7990127 11.586202 -2.491302 -1.0664431
7.0970793 -4.1000896 -2.225106 -4.315663 -2.0000317 -0.057268966 2.1030123 0.99504805
2.238142 -1.8401654 2.479928 -1.2941592 -0.6403931 -0.9076778 -1.6630855 3.0819268
0.05028313 -0.4074535 1.0273029 -0.37761587 -2.0779018 -2.88949 -0.06625721 6.008691
-2.8510115 3.8752017 -1.9635692 0.4093231 -1.8121353 -13.149079 10.59185 -3.359868
-6.2584286 -2.6186993 -1.0137221 0.5600377 1.7116549 0.62452644 1.9871064 -3.2939048
-0.69959635 -1.0240095 -2.525528 0.5483636 -3.852642 1.0632546 3.5607996 1.3861952
-4.671825 -1.3411744 3.5391338 2.6781933 -2.079087 0.553302 2.5782378 -8.809104
0.96694076 -0.6537926 0.85549474 7.5338764 5.394692 -0.20659564 3.5490766 1.0251514
0.00092699786 0.18245362 -0.3867987 -0.20869118 0.7137264 0.04587807 -0.13636057 0.09171466
-0.2816837 0.45347422 -0.5343089 0.2245501 0.35188287 -0.07225722 -0.05429389 -0.46496385
0.4702989 -0.17944106 -0.22780746 0.0075121894 -0.9689224 0.17447396 0.61548096 0.026510969
0.8075043 -0.615606 0.4718665 -0.281836 -0.3444234 0.11295745 0.6089782 -0.339795
-1.7662113 0.121295206 -1.7587264 0.8428849 -0.22465654 -0.074277416 0.9512603 -0.47310552
-0.8394044 0.13385628 1.982728 -0.138752 2.3881574 -1.5280409 0.68435395 -0.60999674
-0.8202308 -0.5117781 2.050913 -0.60366994 -2.6713545 -0.36342666 -1.5421513 2.3583531
-1.3651972 1.1226256 1.6795255 -0.9668957 -3.5646653 0.5946557 -4.8628306 4.4242616
-4.7627935 -4.9215417 1.7752087 2.1955056 2.1214051 2.7224422 -2.3656847 0.15557693
1.4130226 0.7809093 0.3654798 -1.098731 -1.0207167 -0.29419163 -1.8394653 0.7731557
-0.7715069 -0.6280478 1.9345133 0.7356563 3.4846835 -0.09178343 -0.5416533 -2.472256
-0.52376294 -0.20790876 3.1902828 2.6427643 -1.5807092 -9.401216 0.30654088 3.3562796
-4.933775 5.9229894 3.2703352 -1.3318621 -0.36216924 0.20024043 0.31706685 -0.10903054
0.38933465 0.20236467 0.49918744 -0.09925137 0.031671878 0.57678074 -0.7244348 0.035854302
0.44333264 0.26592803 0.49435952 -0.27081227 -0.033260223 -0.23554157 -0.16642345 0.32688567
0.63392645 0.002240716 -0.6965237 -0.16456494 -0.56529653 0.1085316 -0.48701286 0.08432291
0.71732265 0.16757172 -2.3290677 -3.6346679 -0.112339765 2.9947734 0.03364984 -1.2965046
-2.2614617 -6.364451 -1.4691317 0.05941742 -0.2917475 0.19816478 -0.012935457 0.26853898
1.1920129 -0.39746875 0.061260577 -0.6196401 0.5003867 -0.4137073 -3.7016952 -10.862885
-1.4484556 -2.3242655 -3.1851382 2.4723268 -1.8479365 -1.5838103 1.5888088 -1.4480736
-11.280846 2.2102346 0.66436917 -3.8542442 0.23913199 -4.5196896 -4.2316413 9.00322
-1.6993434 1.4062537 1.4669749 -0.27517283 0.11306503 -3.7534115 -7.6005487 1.8611289
00000000: dd68 84bf 78db cb3e c1d4 133f a3a1 773e
00000010: e646 293f f2b1 26bf 5614 9d3d c29c 16bf
00000020: b285 61bf b00e 593e 2713 45c0 2572 debf
00000030: 0623 33c0 1561 3941 7e71 1fc0 3581 88bf
00000040: 461b e340 ef33 83c0 2368 0ec0 e919 8ac0
00000050: 8500 00c0 dd92 6abd c197 0640 78bb 7e3f
00000060: b83d 0f40 8a8a ebbf 24b7 1e40 02a7 a5bf
00000070: cdf0 23bf 935d 68bf fcdf d4bf 4a3e 4540
00000080: aff5 4d3d bf9d d0be a97e 833f de56 c1be
00000090: 58fc 04c0 67ed 38c0 dcb1 87bd 3247 c040
000000a0: f976 36c0 4e03 7840 3c56 fbbf cc92 d13e
000000b0: 0df4 e7bf a162 52c1 3878 2941 1408 57c0
000000c0: 0c45 c8c0 c598 27c0 a5c1 81bf a15e 0f3f
000000d0: 8217 db3f f7e0 1f3f 8159 fe3f 56cf 52c0
000000e0: bf18 33bf be12 83bf 40a2 21c0 8f61 0c3f
000000f0: b091 76c0 ba18 883f 24e4 6340 d86e b13f
00000100: 977f 95c0 9aab abbf 2b81 6240 8567 2b40
00000110: c30f 05c0 33a5 0d3f d901 2540 17f2 0cc1
00000120: 6e89 773f f45e 27bf b401 5b3f 8415 f140
00000130: 51a1 ac40 cf8d 53be 1224 6340 2938 833f
00000140: c601 733a 1fd5 3a3e 7b0a c6be 24b3 55be
00000150: c6b6 363f a5ea 3b3d 1ba2 0bbe e5d4 bb3d
00000160: d938 90be c62d e83e 78c8 08bf 76f0 653e
00000170: fe29 b43e 98fb 93bd 4563 5ebd be0f eebe
00000180: 04cb f03e 66bf 37be 5c46 69be d028 f63b
00000190: 4c0b 78bf 4da9 323e 2990 1d3f 882d d93c
000001a0: 9ab8 4e3f 5b98 1dbf 7c98 f13e cf4c 90be
000001b0: 4458 b0be 3c56 e73d ffe5 1b3f 9cf9 adbe
000001c0: 3613 e2bf 9f69 f83d f21d e1bf 4ec7 573f
000001d0: 5d0c 66be c21e 98bd cc85 733f e33a f2be
000001e0: 35e3 56bf 9f11 093e 08ca fd3f 0115 0ebe
000001f0: 92d7 1840 d896 c3bf d231 2f3f bf28 1cbf
00000200: a5fa 51bf e403 03bf 2942 0340 1d8a 1abf
00000210: 79f7 2ac0 0f13 babe 3765 c5bf 42ef 1640
00000220: c8be aebf 32b2 8f3f b1fa d63f 7a86 77bf
00000230: 7a23 64c0 5b3b 183f 4f9c 9bc0 8d93 8d40
00000240: ce68 98c0 457d 9dc0 0a3a e33f 2a83 0c40
00000250: 1ac5 0740 7e3c 2e40 6167 17c0 8f4f 1f3e
00000260: eddd b43f ace9 473f 2b20 bb3e 38a3 8cbf
00000270: d8a6 82bf 49a0 96be 9973 ebbf 88ed 453f
00000280: 7a81 45bf bec7 20bf 229e f73f f953 3c3f
00000290: 0e05 5f40 f3f8 bbbd caa9 0abf 7139 1ec0
000002a0: 5415 06bf 09e6 54be 982d 4c40 0d23 2940
000002b0: ae54 cabf 616b 16c1 edf2 9c3e 49cd 5640
000002c0: 7ce1 9dc0 2189 bd40 2c4d 5140 757a aabf
000002d0: 3f6e b9be d40b 4d3e 9656 a23e 674b dfbd
000002e0: df56 c73e af38 4f3e 7f95 ff3e 4d44 cbbd
000002f0: 5fba 013d e7a7 133f 8f74 39bf f6db 123d
00000300: 7ffc e23e b827 883e b11c fd3e e8a7 8abe
00000310: df3b 08bd cf31 71be e96a 2abe 8f5d a73e
00000320: 0149 223f fad8 123b 614f 32bf b683 28be
00000330: 46b7 10bf d145 de3d c059 f9be 7db1 ac3d
00000340: 75a2 373f ec97 2b3e 720f 15c0 669e 68c0
00000350: 6412 e6bd 5eaa 3f40 6ad4 093d ddf3 a5bf
00000360: cabb 10c0 95a9 cbc0 820c bcbf ae5f 733d
00000370: ee5f 95be b5eb 4a3e 3def 53bc f17d 893e
00000380: e193 983f 0681 cbbe 5fec 7a3d bca0 1ebf
00000390: 5819 003f 71d1 d3be 93e8 6cc0 61ce 2dc1
000003a0: fe66 b9bf c4c0 14c0 4ed9 4bc0 9a3a 1e40
000003b0: 2f89 ecbf 4cba cabf 165e cb3f 7a5a b9bf
000003c0: 587e 34c1 7c74 0d40 1914 2a3f f0ab 76c0
000003d0: 04df 743e 4ca1 90c0 9b69 87c0 300d 1041
000003e0: 1684 d9bf 1f00 b43f d5c5 bb3f 74e3 8cbe
000003f0: a38e e73d e537 70c0 b237 f3c0 7939 ee3f

lstm.bias_ih_l0 f4 [40]
1.6186839 -3.2885072 -0.5757537 1.2497559 -0.26175395 2.4444354 1.1156682 -0.18497415
-0.08283344 0.25653782 1.1663957 -1.1597079 1.5696362 -4.1399546 -5.312526 2.418413
0.81942415 0.802768 0.57862115 0.65996134 -0.8706748 -0.13103175 0.6498115 -0.26101017
1.2511039 0.74879533 -0.25797293 0.39055565 -0.9067889 0.107132286 -3.3651888 -3.030165
-0.40224898 -2.4822023 -1.8395082 -2.9546344 -2.7724547 -3.0657694 -4.326184 -4.5706577
00000000: 0931 cf3f e776 52c0 9864 13bf 00f8 9f3f
00000010: 9d04 86be a171 1c40 37ce 8e3f dd69 3dbe
00000020: 94a4 a9bd ed58 833e 744c 953f 4f71 94bf
00000030: d7e9 c83f 827a 84c0 3700 aac0 47c7 1a40
00000040: c8c5 513f 3482 4d3f 8420 143f 3af3 283f
00000050: 8be4 5ebf 302d 06be 0c5a 263f 20a3 85be
00000060: 2c24 a03f 0db1 3f3f 0715 84be e9f6 c73e
00000070: 5123 68bf 2c68 db3d 415f 57c0 39ee 41c0
00000080: 94f3 cdbe 67dc 1ec0 0175 ebbf bb18 3dc0
00000090: e66f 31c0 9135 44c0 1970 8ac0 d442 92c0

lstm.bias_hh_l0 f4 [40]
1.4046628 -2.9193711 -0.47191644 1.2570155 -0.3723045 2.1235182 1.5280738 -0.11617654
0.26590687 0.15563463 1.1402122 -1.0865716 1.8254167 -3.718417 -5.38096 1.9695762
0.8835296 1.0206496 0.743735 0.55946124 -0.8048761 0.15918662 0.7084162 -0.17930333
0.914143 0.6759702 -0.67140275 0.44399205 -0.6175756 -0.17934264 -3.8273206 -3.0534515
-0.64476186 -2.26147 -2.1631289 -3.0273278 -2.6778152 -3.2238615 -4.7889357 -4.39209
00000000: fecb b33f fad6 3ac0 089f f1be e2e5 a03f
00000010: b29e bebe b9e7 0740 ec97 c33f f7ed edbd
00000020: f224 883e af5e 1f3e 79f2 913f c714 8bbf
00000030: 41a7 e93f 8bfa 6dc0 d330 acc0 131b fc3f
00000040: ff2e 623f a5a4 823f 6b65 3e3f da38 0f3f
00000050: 5c0c 4ebf d101 233e c45a 353f 4b9b 37be
00000060: 4705 6a3f 620c 2d3f 0de1 2bbf ed52 e33e
00000070: 6f19 1ebf 99a5 37be d2f2 74c0 c06b 43c0
00000080: 1d0f 25bf edbb 10c0 b470 0ac0 bdbf 41c0
00000090: 5361 2bc0 bf53 4ec0 f63e 99c0 008c 8cc0

fc.weight f4 [1, 10]
-2.8032575 1.3529148 4.1692147 1.4224004 3.5894454 -2.306912 0.43801773 -1.7164795
-1.9202836 1.0346434
00000000: 9268 33c0 502c ad3f 356a 8540 3711 b63f
00000010: 79b9 6540 72a4 13c0 dc43 e03e 9ab5 dbbf
00000020: dacb f5bf 326f 843f

exp_avg f4 [40, 27]
3.0557064e-22 1.0018514e-21 2.8913905e-22 1.3371512e-22 1.3686459e-22 6.120581e-23 1.6000724e-22 4.270378e-22
8.17867e-23 1.7031088e-22 4.774051e-22 2.729864e-22 3.2384972e-22 3.413529e-22 3.500046e-22 8.582657e-25
1.9215673e-23 6.69035e-24 -4.0402924e-22 1.4250361e-21 1.9819826e-23 -1.1860611e-22 -1.6965896e-25 -1.5283205e-25
-9.095484e-25 2.6218797e-26 5.5954486e-25 -0.004445296 -0.0026546314 -0.004785083 -2.7237236e-05 -3.8127302e-05
-0.003931394 -0.0037721288 2.4274674e-05 -0.0042684725 -0.0007870302 -0.0026053763 -0.0009225198 -0.004741528
-0.004830097 -0.004872494 3.7693357e-05 0.0009892362 -0.0019577146 -7.155694e-11 2.395102e-05 0.00021491366
-1.2051944e-06 0.00028002562 2.0201958e-07 -6.3012562e-06 -0.00062657107 -0.0036991357 -1.2301105e-17 3.4464943e-17
-1.8234406e-17 8.819485e-17 6.9840844e-17 -1.1721917e-17 1.6332832e-17 1.4663267e-16 1.3924371e-17 9.415146e-17
2.9163553e-18 4.5131765e-17 -1.0857633e-17 -1.1272468e-17 -1.2951767e-17 8.026124e-20 2.548695e-18 -1.8724067e-19
-5.090303e-19 7.8027765e-18 2.410379e-17 2.7828917e-17 2.9987061e-18 8.952925e-17 3.3194252e-17 8.499416e-21
4.42283e-20 0.0014555989 0.0015961655 0.0022344207 2.4389152e-05 9.069116e-06 0.0022165794 0.0025320665
7.434672e-05 0.0017777578 9.0163594e-05 0.0015996305 5.652948e-05 0.0015538355 0.0016193491 0.0016542486
-0.00010699131 -0.00011662023 2.6471125e-05 0.0007670122 0.00039966143 0.00054388895 0.00073590386 0.0007261877
-1.4587423e-06 8.81841e-05 -0.00046645437 -0.00021699091 2.7727907e-07 1.6283998e-07 3.603766e-07 1.26650805e-08
1.5816648e-08 2.7171257e-07 2.9325585e-07 7.7621586e-08 2.8512198e-07 6.148246e-08 4.2282858e-07 7.526895e-08
2.9370943e-07 3.0664614e-07 3.1208225e-07 6.5021327e-10 -5.6940417e-09 -1.731604e-08 -5.2744753e-10 -8.061503e-09
8.61314e-09 2.5666381e-08 -3.606012e-08 5.174047e-09 5.7650312e-12 1.0582195e-08 5.073778e-07 -2.5608278e-21
6.031828e-22 -1.9523979e-21 -8.3446723e-20 -5.833965e-20 -5.6450892e-21 -5.664338e-20 -2.0436943e-19 -4.4231464e-20
-6.7334906e-20 -4.7404174e-21 -4.555942e-20 -3.7148386e-21 -5.0160947e-21 -5.152716e-21 1.28355834e-23 -6e-45
1.747662e-38 -1.707003e-39 -5.895358e-29 -2.381068e-28 -9.0070844e-33 -3.539896e-28 -2.2541897e-19 -9.982404e-20
-1.02270915e-20 1.2885282e-20 1.940626e-14 -9.426113e-15 1.3552076e-14 5.857393e-13 4.154332e-13 1.0725169e-14
3.9935218e-13 1.4427737e-12 3.147298e-13 4.880821e-13 -1.6626908e-14 4.3282554e-13 2.6102862e-14 3.61726e-14
3.5557108e-14 3.6295e-41 6e-45 2.769946e-32 1.6387175e-31 -1.2604691e-25 -6.4875694e-23 -2.0710589e-19
1.4939907e-18 2.63711e-12 1.8081156e-13 -6.0240387e-13 5.8392784e-14 -6.7701316e-05 -8.421341e-05 -6.8035944e-05
-4.249008e-06 -7.543723e-06 -3.3660384e-05 -5.292382e-05 -1.7313438e-05 -5.326768e-05 -4.6524587e-05 -7.4975505e-05
-3.217576e-05 -6.8278016e-05 -6.703285e-05 -6.520223e-05 -6.365707e-06 -5.6315548e-05 -3.132528e-05 -5.810241e-06
9.1288695e-07 1.4800569e-06 1.896214e-06 3.5843825e-06 2.0443513e-06 3.4065363e-07 -2.6972211e-06 -1.2145812e-06
1.3902066e-18 1.8198143e-18 1.6855352e-18 -2.4467461e-20 -3.6580483e-20 1.3387666e-18 1.2838171e-18 -1.3955184e-19
1.9976019e-18 2.4822904e-19 2.7192216e-19 9.881303e-19 1.426721e-18 1.4186888e-18 1.3751199e-18 1.420687e-19
1.8809556e-18 6.427412e-19 5.6364565e-20 -4.678195e-19 1.4202179e-20 -8.0391595e-19 1.005638e-21 2.695584e-21
-3.9048967e-20 6.6119317e-22 4.6880642e-20 2.6139277e-20 3.6347987e-20 3.3240557e-20 1.8188493e-23 6.8854386e-23
3.334372e-20 2.8948055e-20 4.1478423e-22 3.4175587e-20 5.287995e-21 1.4649674e-20 1.504833e-20 2.7171697e-20
00000000: c4b4 b81b 4065 971c 1ac6 ae1b d3a6 211b
00000010: 8a75 251b 90fc 931a d86f 411b 7310 011c
00000020: 84bf c51a aae4 4d1b 6e49 101c 9902 a51b
00000030: 51c1 c31b ce55 ce1b 9790 d31b 68cf 8417
00000040: b4d7 b919 0269 0119 7f38 f49b 6a58 d71c
00000050: 83af bf19 d062 0f9b 1207 5296 6932 3d96
00000060: edbe 8c97 46d4 0115 b62b 2d17 d8a9 91bb
00000070: 53f9 2dbb 2fcc 9cbb 857b e4b7 e1ea 1fb8
00000080: ecd2 80bb d235 77bb 77a1 cb37 8bde 8bbb
00000090: b450 4eba f6be 2abb 41d5 71ba d25e 9bbb
000000a0: ca45 9ebb 71a9 9fbb ef18 1e38 42a9 813a
000000b0: 004d 00bb fa5a 9dae 6cea c837 725a 6139
000000c0: 2ac2 a1b5 67d0 9239 b8ea 5834 616f d3b6
000000d0: 7940 24ba 336d 72bb 53ea 62a3 06f1 1e24
000000e0: c62e a8a3 0d5d cb24 c20a a124 303b 58a3
000000f0: cfa4 9623 530e 2925 fe6d 8023 3619 d924
00000100: 6530 5722 2f22 5024 b949 48a3 baf0 4fa3
00000110: feea 6ea3 f182 bd1f 7d0f 3c22 050e 5da0
00000120: 3e3d 16a1 92ef 0f23 7751 de23 9656 0024
00000130: f543 5d22 be70 ce24 db14 1924 a78c 201e
00000140: bcdc 501f cbc9 be3a 6d36 d13a 5c6f 123b
00000150: 4e97 cc37 8e27 1837 0844 113b 07f1 253b
00000160: 97ea 9b38 a703 e93a 3616 bd38 b1aa d13a
00000170: 111a 6d38 11aa cb3a 5740 d43a 5fd3 d83a
00000180: 8660 e0b8 0292 f4b8 4f0e de37 5111 493a
00000190: a689 d139 c593 0e3a ace9 403a a25d 3e3a
000001a0: 01ca c3b5 7aef b838 728e f4b9 0e88 63b9
000001b0: f2dc 9434 1dd9 2e34 c879 c134 9d95 5932
000001c0: 2ddd 8732 e4df 9134 c770 9d34 ebb0 a633
000001d0: de12 9934 5708 8433 1e01 e334 8ba3 a133
000001e0: 1eaf 9d34 20a1 a434 428c a734 b1ba 3230
000001f0: 52a5 c3b1 60be 94b2 d2fb 10b0 dd7e 0ab2
00000200: fef8 1332 f878 dc32 85e0 1ab3 66c7 b131
00000210: c9d6 ca2c fccc 3532 bd32 0835 9d7d 419d
00000220: 024d 361c de84 139d 7308 c59f 28c0 899f
00000230: f443 d59d d3be 859f df46 71a0 8fe0 509f
00000240: 74fd 9e9f 8116 b39d f625 579f b757 8c9d
00000250: b180 bd9d 03aa c29d bb46 7819 0400 0080
00000260: b54d be00 6e96 1280 1077 9590 0aeb 9691
00000270: e011 3b8a 195e e091 5a10 85a0 eeb3 eb9f
00000280: 2e2f 419e 6765 731e cacb ae28 46ce 29a8
00000290: eb21 7428 f7de 242b 3cde e92a 1d35 4128
000002a0: b7d0 e02a 670d cb2b 582d b12a 0662 092b
000002b0: 0ac3 95a8 bca8 f32a 1a1d eb28 2be8 2229
000002c0: 8e22 2029 2d65 0000 0400 0000 e6d2 0f0b
000002d0: bbb7 540c dc09 1c96 1cdc 9c9a ea81 74a0
000002e0: 5f79 dc21 f391 392c 6293 4b2a c68f 29ab
000002f0: 267d 8329 defa 8db8 bb9b b0b8 85ae 8eb8
00000300: b392 8eb6 1620 fdb6 902e 0db8 85fa 5db8
00000310: 533c 91b7 bc6b 5fb8 6523 43b8 2b3c 9db8
00000320: 76f4 06b8 7b30 8fb8 fd93 8cb8 2ebd 88b8
00000330: 0299 d5b6 5c34 6cb8 4363 03b8 97f5 c2b6
00000340: 1d0d 7535 5ea6 c635 6b81 fe35 398b 7036
00000350: b031 0936 14e3 b634 e801 35b6 b104 a3b5
00000360: 8528 cd21 5247 0622 b8bd f821 b116 e79e
00000370: 17bf 2c9f 2c91 c521 3d75 bd21 f5c0 24a0
00000380: a265 1322 5087 9220 b783 a020 82d2 9121
00000390: ff8b d221 8c5c d121 90ee ca21 a1b9 2720
000003a0: 3fca 0a22 27b4 3d21 4a16 851f 7113 0aa1
000003b0: c322 861e 2c46 6da1 bcf7 971c 2dac 4b1d
000003c0: 4e67 389f 58d5 471c 3863 5d1f e5e0 f61e
000003d0: 05a6 2b1f 5ef9 1c1f 87e8 af19 cd7a a61a
000003e0: 1676 1d1f 0db4 081f c0b8 fa1b c063 211f
000003f0: 59c6 c71d bd5c 8a1e a120 8e1e 9150 001f

exp_avg_sq f4 [40, 27]
1.7978935e-19 6.443163e-19 4.1392805e-19 1.706732e-21 2.4100004e-21 3.846004e-19 5.410337e-19 3.4031988e-20
2.048112e-19 1.1695999e-21 5.813019e-19 7.133302e-20 2.0236609e-19 2.2046325e-19 2.312976e-19 1.765209e-27
5.2119024e-23 3.3019673e-22 1.7688052e-20 8.454978e-19 4.3467047e-23 5.1323875e-21 2.0386248e-21 1.436056e-22
1.9117096e-26 3.293776e-26 1.1955752e-24 1.4251504e-05 1.235158e-05 2.16244e-05 9.41723e-10 1.5339738e-09
1.5344525e-05 1.7012248e-05 1.8429377e-08 2.0088895e-05 4.5634658e-07 5.839982e-06 3.8576572e-06 1.5131695e-05
1.547777e-05 1.5472806e-05 8.943653e-07 5.94274e-06 2.1436874e-06 2.821804e-20 8.295853e-09 2.8064844e-06
4.6715518e-12 1.105029e-07 1.622957e-13 7.932349e-11 1.9244165e-07 7.67603e-06 4.385922e-08 2.7197762e-08
1.0338581e-07 4.1639603e-10 6.98367e-10 9.032268e-08 1.3039705e-07 7.9595255e-09 5.2891394e-08 1.3692721e-09
1.2383177e-07 9.340799e-09 4.7352273e-08 5.071426e-08 5.3052787e-08 1.0079958e-12 3.802072e-13 1.4208066e-11
3.6156859e-12 2.5758695e-08 2.7412342e-10 9.905059e-10 8.234383e-10 4.7090097e-08 5.8981164e-10 6.057138e-10
4.141416e-11 5.321869e-05 8.6556174e-05 9.3973336e-05 3.64459e-06 2.5174318e-06 7.320406e-05 9.707244e-05
1.6638523e-05 6.543125e-05 4.069634e-06 9.6273856e-05 6.431878e-06 5.886207e-05 6.1180384e-05 6.2142164e-05
2.0222362e-05 6.2735194e-06 4.580769e-05 1.0905939e-05 3.3192152e-06 3.5379735e-06 1.401499e-05 3.524276e-05
8.422556e-10 5.4592235e-08 1.2382368e-05 2.0998672e-05 2.321078e-05 4.6338093e-05 2.0545926e-05 1.3065127e-05
1.222423e-05 6.7947526e-06 1.0212846e-05 5.080858e-05 1.5418613e-05 7.0743413e-06 5.3679334e-05 1.1532398e-05
2.5785617e-05 2.7384493e-05 2.7555567e-05 3.23284e-05 7.402796e-05 3.901524e-06 3.623582e-06 3.5315484e-06
1.8747518e-06 7.3260594e-06 5.1667876e-06 3.041725e-06 2.0968748e-11 1.6266519e-06 0.00013158694 1.1726635e-26
4.5477546e-27 7.056656e-27 1.2340619e-23 5.9394024e-24 7.721651e-26 5.7047612e-24 7.404683e-23 3.711007e-24
7.935045e-24 9.199314e-26 2.963618e-24 2.492779e-26 4.4608106e-26 4.7889847e-26 5.1004816e-30 7e-43
7e-43 7e-43 6.4066e-41 9.52991e-40 2.990608e-32 3.899033e-36 5.9118284e-23 4.1098905e-23
5.0355767e-25 7.916735e-25 1.5725698e-13 1.374232e-12 7.768363e-14 1.5276921e-10 7.6884686e-11 3.703615e-13
6.9990076e-11 9.158686e-10 3.722221e-11 1.0141496e-10 3.4382748e-14 6.741244e-11 2.886807e-13 5.4700813e-13
5.42815e-13 1.5095931e-22 7e-43 2.0932533e-38 5.3886365e-34 2.2828406e-31 1.3146447e-28 3.4294358e-22
1.2950812e-21 2.2482842e-09 1.5134411e-11 5.1287086e-11 3.7225504e-13 7.694762e-05 0.00011396238 8.435411e-05
2.496603e-07 7.6420923e-07 2.5197414e-05 5.393287e-05 5.026936e-06 4.842148e-05 3.283523e-05 9.971203e-05
1.5388145e-05 8.1288934e-05 7.969805e-05 7.720324e-05 1.4504736e-06 3.674405e-05 3.1746826e-05 4.7641793e-06
1.6004608e-06 1.1720538e-06 1.4441249e-06 1.5001931e-06 1.7198528e-06 6.360841e-07 5.028372e-06 4.5425827e-06
6.2542223e-15 1.5207554e-15 1.2473083e-14 4.7824096e-18 5.8544394e-18 1.0035733e-14 1.3594609e-14 1.2905348e-16
8.932015e-15 6.265914e-16 8.2814996e-15 2.3045067e-16 6.922637e-15 7.111294e-15 7.304891e-15 4.696439e-20
1.7725639e-19 2.4522685e-18 1.2322915e-17 2.2776119e-15 1.1558639e-19 6.23849e-20 5.405044e-20 1.4324579e-14
8.8356796e-20 1.5743414e-20 4.0726606e-20 1.0212931e-23 7.076492e-24 1.9212045e-23 1.5364202e-27 9.607769e-28
1.2136412e-23 1.7489106e-23 3.8467955e-26 1.8373716e-23 1.8195524e-25 6.5532064e-24 2.4870899e-24 1.11659475e-23
00000000: ff41 5420 2a2b 3e21 0a57 f420 00f5 001d
00000010: 3018 361d 2b07 e320 5aaf 1f21 26b6 201f
00000020: 63cc 7120 b4be b01c ee91 2b21 2a6e a81f
00000030: 66e9 6e20 7723 8220 b588 8820 b1da 0b13
00000040: 3a08 7c1a 7897 c71b 160f a71e 028c 7921
00000050: 9931 521a 68e5 c11d bd08 1a1d c89b 2d1b
00000060: 9953 bd14 9219 2315 9d01 b917 be19 6f37
00000070: a239 4f37 0c66 b537 ef6d 8130 e8d3 d230
00000080: 1eb8 8037 86b5 8e37 a14e 9e32 9384 a837
00000090: ccff f434 10f5 c336 0671 8136 23de 7d37
000000a0: 42d6 8137 99cb 8137 5114 7035 bf67 c736
000000b0: 45dc 0f36 8441 051f 8c85 0e32 0957 3c36
000000c0: 995d a42c 9d4d ed33 8dba 362a 286f ae2e
000000d0: f5a1 4e34 4cc8 0037 b95f 3c33 83a0 e932
000000e0: f304 de33 88ea e42f 35f7 3f30 6bf7 c133
000000f0: 4503 0c34 5dbe 0832 b42a 6333 fb30 bc30
00000100: 9ef6 0434 4579 2032 6060 4b33 ebd0 5933
00000110: 28dc 6333 e0dc 8d2b a209 d62a 71f3 792d
00000120: 686e 7e2c f843 dd32 71b3 962f 5422 8830
00000130: 5258 6230 1c40 4a33 4e20 2230 527f 2630
00000140: 3324 362e 2237 5f38 7e85 b538 8d13 c538
00000150: 9495 7436 26f1 2836 2185 9938 5f93 cb38
00000160: f592 8b37 2338 8938 e48d 8836 a2e6 c938
00000170: 69d1 d736 abe2 7638 f84d 8038 5252 8238
00000180: 31a3 a937 1f81 d236 a221 4038 a7f8 3637
00000190: afbf 5e36 ec6d 6d36 ec21 6b37 a0d1 1338
000001a0: 7884 6730 cc78 6a33 debd 4f37 4e26 b037
000001b0: c5b4 c237 265b 4238 0a5a ac37 4b32 5b37
000001c0: ab16 4d37 7bfe e336 d757 2b37 4c1b 5538
000001d0: 3857 8137 2160 ed36 bf25 6138 467b 4137
000001e0: 314e d837 c0b7 e537 2127 e737 5b98 0738
000001f0: 753f 9b38 d6e9 8236 aa2c 7336 8aff 6c36
00000200: fb9f fb35 5fd2 f536 5e5e ad36 7020 4c36
00000210: 6c71 b82d 5553 da35 9afa 0939 1b45 6814
00000220: b627 b413 7fc5 0b14 c9b3 6e19 fec4 e518
00000230: c72d bf15 38b1 dc18 c508 b31a 0990 8f18
00000240: 717c 1919 94c3 e315 814c 6518 75df f614
00000250: 7ee3 5c15 9823 6d15 6ee6 ce0e f401 0000
00000260: f401 0000 f401 0000 97b2 0000 8d60 0a00
00000270: 0048 1b0b b6d8 a504 72f0 8e1a fbbd 461a
00000280: f3d7 1b17 d602 7517 3d0e 312a ed67 c12b
00000290: 90ed ae29 b6f8 272f 3b12 a92e b87e d02a
000002a0: e9e8 992e 86c0 7b30 7cb4 232e 8c03 df2e
000002b0: 9cd8 1a29 d43d 942e 4683 a22a 17f8 192b
000002c0: f1c9 182b a57f 361b f401 0000 63ef e300
000002d0: 7311 3308 322a 940c a9a6 2611 f34b cf1b
000002e0: 07b5 c31c 3c80 1a31 aa1f 852d 2090 612e
000002f0: 9b8f d12a f05e a138 16ff ee38 45e7 b038
00000300: 0d09 8634 0f24 4d35 095f d337 fa35 6238
00000310: 0dad a836 2b18 4b38 8fb8 0938 7d1c d138
00000320: ca15 8137 aa79 aa38 9123 a738 2de8 a138
00000330: e5ad c235 a01d 1a38 e527 0538 fddb 9f36
00000340: 6acf d635 764f 9d35 c1d3 c135 3e5a c935
00000350: b1d5 e635 5ebf 2a35 63b9 a836 7d6c 9836
00000360: 0555 e127 f929 db26 f1b1 6028 9570 b022
00000370: 9efd d722 a6c9 3428 11e6 7428 ddc9 1425
00000380: a6e7 2028 499a 3426 ad2f 1528 84d8 8425
00000390: 0e6a f927 0e1b 0028 dd97 0328 77c8 5d1f
000003a0: 7544 5120 0bf2 3422 5251 6323 861e 2427
000003b0: d875 0820 5c4d 931f f93e 7f1f 3b06 8128
000003c0: 68a0 d01f 3db1 941e 7253 401f fc8b 4519
000003d0: 17e1 0819 b8ce b919 9c74 f312 be3d 9812
000003e0: 9ac0 6a19 ee24 a919 ed7b 3e15 1eb3 b119
000003f0: eb3f 6116 d083 fd18 e46d 4018 18fb 5719

exp_avg f4 [40, 10]
-9.633026e-25 2.4483652e-25 5.2632593e-25 1.2870144e-25 3.5258753e-24 -4.699309e-25 3.2879752e-24 1.15852436e-26
-4.612076e-25 -1.7905257e-26 0.00496931 -0.0019994855 -0.0047449134 -2.3286666e-06 -0.003613696 0.0047838795
2.7912633e-05 -5.499436e-07 0.0049522445 2.4112364e-06 7.3529904e-18 -4.7494957e-18 -5.3480887e-18 1.5854941e-18
-1.3947149e-17 1.4406947e-17 -1.26706765e-17 1.6255236e-20 4.57541e-18 -5.786804e-19 -0.00029011615 1.54976e-05
0.002378658 -0.00021607417 0.0018110918 -0.002076162 6.609946e-06 1.5473554e-06 3.141097e-06 -2.9609124e-08
-3.5279672e-07 6.7106806e-11 4.849296e-07 -6.52938e-09 3.6826918e-07 -1.00985265e-08 6.5365247e-09 4.2451753e-09
-1.2785026e-08 -7.4581617e-13 1.2815397e-25 5.0546073e-33 -3.143316e-21 -3.1816308e-22 6.6719816e-22 -4.657259e-23
2.0666137e-20 -3.7563776e-25 3.1413388e-32 6.6376634e-32 3.1786652e-17 5.9697003e-21 1.4473259e-14 3.2254492e-15
3.1053253e-15 4.5904336e-16 -4.2445328e-13 7.674949e-18 6.265037e-22 -6.235848e-25 9.223417e-05 -1.4338677e-06
-9.317298e-05 -6.143418e-07 -7.116617e-05 4.9123736e-07 -1.1280399e-05 2.9880339e-05 2.6328237e-06 3.8001886e-11
-1.2544198e-19 2.6635395e-20 -8.136858e-21 7.388385e-23 1.2906168e-19 -1.2631538e-19 1.4381299e-19 -1.6285698e-22
-1.2431242e-19 -1.97862e-20 1.0718267e-20 -8.1378517e-22 4.0321757e-23 1.8255425e-24 -1.0739746e-20 1.0705163e-20
-1.0782389e-20 1.0458547e-23 1.0496534e-20 2.46272e-21 -7.616245e-23 1.7521727e-23 1.669752e-23 6.146554e-24
2.0373687e-22 -5.977825e-23 1.8147787e-22 6.3136147e-25 -6.124062e-23 -8.187722e-24 -2.517355e-12 2.4852121e-12
5.237005e-12 2.0824197e-14 3.9888782e-12 -4.7444553e-12 2.7366496e-13 -5.391475e-14 -1.8097244e-12 1.0417946e-15
-1.4728242e-24 -8.0723824e-32 4.2510986e-20 1.4130037e-20 -1.7376564e-22 8.0245345e-22 -8.6648244e-19 8.683421e-24
-3.7276946e-29 -3.0710475e-30 -1.2788583e-19 2.3408177e-21 2.493157e-18 -4.5279934e-19 1.4986236e-18 -1.4903983e-18
-6.189897e-19 1.9843291e-21 -2.3821401e-20 4.4722386e-24 -2.7270383e-10 3.2996927e-10 2.934585e-10 1.1461213e-12
2.2349622e-10 -2.9461034e-10 1.5864508e-11 -1.2444662e-16 -2.2235341e-10 7.981407e-14 7.557848e-24 1.2764805e-31
-1.1423989e-19 -2.3225812e-19 -1.003206e-18 -1.2641713e-21 1.4637113e-18 -7.364214e-24 4.9887066e-30 5.2979858e-30
8.949209e-12 1.2026084e-15 -3.807404e-11 -4.7535873e-12 -2.5323476e-11 9.428806e-12 6.111844e-11 1.9864566e-12
2.003955e-15 3.6395194e-18 7.659953e-07 -2.571278e-09 -5.4418325e-07 2.0772651e-08 -4.3246624e-07 -9.1314455e-08
-1.5597296e-07 7.012239e-08 3.869303e-09 8.2002645e-13 -1.4939014e-21 -1.4786324e-22 -5.623857e-22 2.4347318e-24
1.7545678e-21 -1.5566663e-21 2.5622073e-21 -2.909438e-24 -1.4991262e-21 -3.3206127e-22 1.3233217e-22 -7.457833e-24
1.2070926e-24 2.2544612e-26 -1.3278041e-22 1.321482e-22 -1.3382826e-22 1.2829961e-25 1.2955882e-22 3.1319296e-23
4.691536e-26 7.1189807e-32 -6.2583596e-26 -1.7885245e-26 -3.863828e-25 -1.5540164e-27 -4.1712006e-25 -1.670079e-27
-2.4725664e-28 -1.6722658e-33 1.2624338e-05 -8.511607e-07 -4.2440475e-05 5.5700303e-07 -3.2325526e-05 4.0625084e-05
-1.1073811e-06 1.1888223e-09 1.3054552e-05 9.836905e-10 -5.1517622e-23 -3.2068685e-24 1.0119618e-20 3.235512e-21
-2.0662469e-21 1.7169758e-22 -1.6698719e-19 2.744136e-24 5.983042e-24 -8.350445e-25 -5.3970227e-05 1.05744704e-07
5.240842e-05 2.5809572e-07 4.0102124e-05 -4.2509487e-06 1.6797671e-06 -2.094773e-07 -4.511328e-06 -1.0419836e-10
1.5851197e-14 6.126892e-20 -7.019636e-11 -2.17897e-12 -1.4401671e-12 1.9357977e-15 -9.276163e-14 -4.0768543e-17
-8.9520685e-24 6.507381e-24 7.9906296e-23 3.9589665e-32 -2.867957e-17 -1.6900196e-18 -3.0296969e-18 -4.1531006e-21
00000000: 5910 9597 e58b 9716 d6e3 2217 1d53 1f16
00000010: 9466 8818 c36f 1197 0f65 7e18 2a78 6514
00000020: a1bc 0e97 3853 b194 98d5 a23b cd09 03bb
00000030: 387b 9bbb 3046 1cb6 c2d3 6cbb 17c2 9c3b
00000040: ec25 ea37 d69f 13b5 7046 a23b bad0 2136
00000050: 84a3 0723 b839 afa2 454f c5a2 46fa e921
00000060: c6a3 80a3 71e1 8423 94bb 69a3 c086 991e
00000070: 87cd a822 dbcb 2aa1 bb1a 98b9 d800 8237
00000080: 42e3 1b3b f891 62b9 2862 ed3a 3810 08bb
00000090: 01cb dd36 baae cf35 a3cb 5236 2757 feb2
000000a0: 0368 bdb4 c691 932e 1c2c 0235 0959 e0b1
000000b0: 88b6 c534 ca7d 2db2 e197 e031 f5dc 9131
000000c0: 24a5 5bb2 b8ed 51ab 9da5 1e16 cef5 d109
000000d0: 9380 6d9d 5a51 c09b f5a5 491c 1336 619a
000000e0: a72f c31e 2e82 e896 8e1b 230b d752 ac0b
000000f0: 0e97 1224 6687 e11d 105d 8228 096b 6827
00000100: 24c3 5f27 6c4f 0426 2af2 eeaa ec93 0d23
00000110: 6059 3d1c 7afd 4097 d86d c138 5273 c0b5
00000120: dd65 c3b8 3fe9 24b5 0c3f 95b8 93dd 0335
00000130: f240 3db7 8aa7 fa37 91af 3036 5222 272e
00000140: 8318 14a0 6f90 fb1e 6eb3 199e e3a3 b21a
00000150: 805e 1820 7b20 15a0 cfc8 2920 cbe1 449b
00000160: 20c3 12a0 19e0 ba9e 5c76 4a1e 94f3 759c
00000170: ebfb 421a 983e 0d18 3ade 4a9e fe36 4a1e
00000180: 6fac 4b9e 374c 4a19 2046 461e ef13 3a1d
00000190: 4626 b89a b275 a919 0f7d a119 86c8 ed18
000001a0: 824d 761b f288 909a ae64 5b1b 9c65 4317
000001b0: 1c12 949a a35f 1e99 a324 31ac 9ae1 2e2c
000001c0: bf42 b82c 5491 bb28 9f58 8c2c 41ee a6ac
000001d0: 470f 9a2a 7acf 72a9 31b2 feab 7023 9626
000001e0: 94e8 e397 2f92 d18b a1c0 481f 5574 851e
000001f0: dc11 529b d486 721c 90bd 7fa1 38f6 2719
00000200: 3e04 3d90 2927 798e 1ffb 16a0 00de 301d
00000210: 67f6 3722 8da4 05a1 6628 dd21 a8f1 dba1
00000220: 8ab1 36a1 82ee 151d 9dfc e09e e802 ad18
00000230: a7eb 95af 0c67 b52f 9d54 a12f 5f4d a12b
00000240: 98bc 752f b8f6 a1af b28b 8b2d 297a 0fa5
00000250: ec7a 74af aeb9 b329 a730 1219 57b2 250c
00000260: e3de 06a0 db19 89a0 0d0c 94a1 4209 bf9c
00000270: 7301 d821 d271 0e99 b15d ca0e 6ee9 d60e
00000280: a86f 1d2d 6b50 ad26 8f73 27ae 8240 a7ac
00000290: 66bf dead 91df 252d 9f66 862e d2c8 0b2c
000002a0: 7266 1027 4a46 8622 cc9e 4d35 67b2 30b1
000002b0: fd13 12b5 8b6f b232 b52d e8b4 a718 c4b3
000002c0: 8579 27b4 3196 9633 c0f2 8431 22d1 662b
000002d0: 83c0 e19c 75c1 329b 7cf8 299c d560 3c18
000002e0: 4792 041d 9c3c eb9c 4c98 411d 5b1b 6198
000002f0: a38a e29c feb7 c89b d3fa 1f1b 6641 1099
00000300: ddc9 ba17 6245 df14 8c85 209b e3c1 1f1b
00000310: d7c9 219b c5d3 1e16 83a0 1c1b 6973 171a
00000320: 4950 6815 bed1 b80b 11f3 9a95 7c20 b194
00000330: cc28 ef96 653e f692 a817 0197 3a51 0493
00000340: afb7 9c91 29ed 0a89 1ecd 5337 517b 64b5
00000350: 1d02 32b8 f584 1535 4595 07b8 da64 2a38
00000360: 53a1 94b5 f763 a330 e004 5b37 8832 8730
00000370: ba1f 799a 931e 7898 7827 3f1e e777 741d
00000380: 071f 1c9d d491 4f1b c824 45a0 3751 5418
00000390: 2e75 e718 8537 8197 175e 62b8 c415 e333
000003a0: 1dd1 5b38 6890 8a34 5433 2838 5fa3 8eb6
000003b0: 5c74 e135 afec 60b4 0360 97b6 7622 e5ae
000003c0: 5fc6 8e28 caaa 901f 0a5d 9aae d554 19ac
000003d0: 7daf caab 2a7d 0b27 70e1 d0a9 0003 3ca4
000003e0: 7f28 2d99 fbbd fb18 9a33 c11a b18f 4d0b
000003f0: dc42 04a4 2367 f9a1 5b8d 5fa2 53e6 9c9d

exp_avg_sq f4 [40, 10]
2.6350106e-25 1.1196691e-31 1.7300667e-27 1.6988788e-27 7.7897204e-25 8.484961e-26 2.4725812e-25 2.564301e-28
2.5711022e-30 2.888135e-38 9.281373e-06 2.2527984e-06 2.3188955e-05 3.73954e-09 1.3450861e-05 2.2151062e-05
1.3243659e-08 1.2747785e-08 1.0821946e-05 4.597767e-13 5.815867e-09 1.8720768e-16 7.704757e-08 4.9345045e-10
1.2166288e-07 2.1107006e-08 2.3973992e-09 3.79615e-13 2.2319156e-14 3.1387447e-21 3.3334996e-05 3.509517e-07
0.00019582818 2.734358e-06 8.2894694e-05 3.7204467e-05 3.0419e-07 3.5173042e-07 2.3449204e-06 1.231736e-15
2.100504e-06 1.9700521e-14 0.00015264694 0.000105388324 3.6560876e-05 4.0054643e-10 9.624166e-07 2.8604946e-08
1.873898e-12 2.6669874e-21 6.5135927e-35 7e-43 1.3597703e-26 5.911142e-28 2.1958122e-27 3.994882e-30
3.4891138e-25 5.807695e-34 7e-43 7e-43 2.536916e-22 6.5013966e-29 4.6662652e-14 6.766417e-14
7.705573e-17 5.883085e-17 1.1946602e-10 9.4810464e-21 7.729014e-26 9.665879e-34 0.00014415303 3.3652007e-08
0.00015662254 2.4769818e-08 9.123638e-05 2.7182514e-07 2.326743e-06 1.6471218e-05 1.7914384e-07 3.764711e-17
1.2279903e-17 6.5922734e-18 6.891665e-20 2.457508e-22 1.2402953e-17 9.131401e-18 1.2648547e-17 8.1278395e-21
2.3556034e-18 7.081656e-24 2.2014865e-31 1.0177012e-31 8.076272e-34 5.6666737e-35 3.519632e-31 3.3945735e-31
1.4446501e-31 9.699137e-35 1.5852677e-31 1.1735248e-37 5.3086477e-23 2.919224e-28 4.917443e-24 2.8779468e-25
2.6930994e-22 4.8974558e-23 3.0142785e-23 4.4157666e-26 4.741246e-26 1.05929885e-33 1.2751085e-21 2.338748e-23
3.3805902e-21 1.9307855e-25 1.10185e-21 1.5131404e-22 5.3512423e-24 7.639672e-23 3.025636e-23 1.7884307e-31
1.9522684e-20 8.010625e-28 1.4021472e-18 4.0179025e-20 1.4134574e-18 1.351034e-19 1.4026725e-19 1.5789586e-22
1.0235326e-27 1.1796451e-35 1.0129477e-29 4.140303e-39 1.5874221e-23 2.0309793e-22 2.5521627e-22 4.2019783e-29
1.3456425e-22 2.7562505e-31 5.498008e-37 7e-43 6.070421e-19 1.9239287e-19 7.3848736e-19 1.32169945e-23
4.2834178e-19 7.3297586e-19 3.294011e-20 9.209866e-27 3.256943e-19 3.6294418e-26 3.812868e-30 1.475515e-39
3.563163e-23 4.254139e-22 3.9234045e-21 5.0751374e-27 3.1949589e-21 2.9315868e-31 3.377e-42 7e-43
3.87468e-09 6.646686e-13 2.5881238e-07 1.5253852e-08 1.1519548e-07 5.4154334e-09 4.7912768e-06 1.1258319e-10
3.1519475e-12 1.8355603e-20 2.6899187e-07 1.1550609e-13 5.924871e-07 4.457523e-10 3.3961584e-07 6.0477174e-09
2.0886816e-08 1.5137866e-08 3.1388555e-11 2.4860648e-20 6.685934e-22 4.3810093e-22 1.26890596e-23 7.449145e-25
4.7597893e-22 3.9462258e-22 8.578944e-22 2.366634e-25 1.7471209e-22 6.1572216e-28 8.1805655e-34 2.1374177e-34
1.742647e-35 8.029251e-38 1.969599e-33 2.3596798e-33 6.1832564e-34 6.1857964e-37 1.0324183e-33 2.2069e-40
1.137245e-28 7.787409e-35 7.84659e-30 2.7904082e-30 7.2824033e-28 6.443706e-29 1.4321943e-28 4.756673e-31
3.7445343e-33 6.038e-42 5.2299654e-08 5.235869e-08 1.4552656e-06 7.257921e-12 8.441058e-07 1.0887028e-06
1.8532579e-09 9.116254e-13 5.1282335e-08 5.9974718e-18 3.5095292e-18 1.1560458e-26 1.0583126e-15 7.7498396e-19
1.688671e-15 1.1651409e-18 5.01359e-17 2.0745568e-18 1.6668823e-25 2.908737e-32 9.862111e-06 5.668925e-10
0.006709321 0.00015539197 0.0002504356 2.7738804e-07 1.0992784e-07 1.1992625e-08 2.0810714e-07 1.4238501e-17
8.1647245e-11 5.322389e-24 0.0004647763 2.6067016e-07 7.046575e-06 4.73543e-13 8.930042e-09 8.339552e-15
1.05673465e-27 7.190675e-32 1.5631423e-22 3.4040244e-36 6.752806e-16 9.588883e-21 1.0474073e-17 3.3918094e-23
00000000: 6919 a316 6357 110c ec11 0913 5b99 0613
00000010: 8614 7117 d413 d215 9d0b 9916 2a88 a211
00000020: b497 500e ba3e 1d01 32b7 1b37 c82e 1736
00000030: e785 c237 577d 8031 02ab 6137 0bd1 b937
00000040: 3a86 6332 5a01 5b32 e78f 3537 676a 012b
00000050: e8d4 c731 f4d5 5725 5975 a533 7da3 0730
00000060: 70a2 0234 cc4e b532 7ebf 2431 4ab4 d52a
00000070: 7808 c928 2728 6d1d 2ed1 0b38 6f6a bc34
00000080: 3a57 4d39 ea7f 3736 c0d7 ad38 fe0b 1c38
00000090: 8e4f a334 76d5 bc34 6d5d 1d36 0a83 b126
000000a0: 62f6 0c36 4f72 b128 da0f 2039 ed03 dd38
000000b0: f158 1938 e633 dc2f 622c 8135 f1b6 f532
000000c0: 25dd 032c 0a83 491d 3729 ad06 f401 0000
000000d0: 46aa 8614 e254 3b12 5df8 2d13 3a0d a20e
000000e0: 37f7 d716 68fe 4008 f401 0000 f401 0000
000000f0: e058 991b 7ad4 a410 6026 5229 bd5d 9829
00000100: adad b124 9ba7 8724 b25a 032f 8717 331e
00000110: 725c bf15 1a9a a008 c927 1739 c688 1033
00000120: 0b3b 2439 68c5 d432 2956 bf38 5def 9134
00000130: 2425 1c36 ac2b 8a37 af5a 4034 dd9d 2d24
00000140: 3486 6223 4336 f322 8fb9 a21f 188c 941b
00000150: 4acb 6423 d271 2823 1353 6923 d287 191e
00000160: 17d0 2d22 a9fa 0819 78e2 8e0c ec1a 040c
00000170: a930 8608 62a5 9606 eb6f e40c 0752 dc0c
00000180: bc86 3b0c 74ec 0007 8ec7 4d0c 5fbb 1f02
00000190: f05a 801a 1e07 b911 ff3b be18 e322 b216
000001a0: b2c9 a21b 91d3 6c1a f6c2 111a 7ea8 5a15
000001b0: 6fc6 6a15 9701 b008 5fb0 c01c 9930 e219
000001c0: 206e 7f1d 0905 6f16 c281 a61c 6ded 361b
000001d0: 2304 cf18 47b7 b81a 8f4f 121a ce26 680c
000001e0: f462 b81e e9dd 7d12 a0eb ce21 76bd 3d1f
000001f0: e996 d021 7f80 1f20 2d99 2520 67e2 3e1b
00000200: 6a2f a212 fde1 7a05 4073 4d0f 7b15 2d00
00000210: ab86 9919 c487 751b ce44 9a1b cc10 5510
00000220: 9ead 221b 11e4 b20c 6816 3b03 f401 0000
00000230: ce2a 3321 2d23 6320 87f6 5921 63a7 7f19
00000240: 2ed9 fc20 1756 5821 268e 1b1f 926b 3614
00000250: 8841 c020 a4b8 3315 16ab 9a0e 2311 1000
00000260: d24d 2c1a ce92 001c d738 941d 020c c913
00000270: 7e67 711d 5745 be0c 6a09 0000 f401 0000
00000280: 0c22 8531 6c16 3b2b e7f2 8a34 9307 8332
00000290: 6361 f733 a812 ba31 c1c4 a036 b492 f72e
000002a0: 70cc 5d2c 205d ad1e f669 9034 5d0c 022a
000002b0: 670b 1f35 0f0e f52f 7254 b634 49cc cf31
000002c0: 986a b332 8508 8232 5f0c 0a2e 5ccd ea1e
000002d0: e911 4a1c 6b68 041c 2e71 7519 358a 6617
000002e0: 16db 0f1c e388 ee1b 2fa4 811c d07c 9216
000002f0: c636 531b 5121 4312 47ec 8708 470e 8e07
00000300: 5d4f b905 b693 da01 bda0 2309 d708 4409
00000310: 5479 4d08 e37d 5203 388a ab08 3267 0200
00000320: b629 1011 5c06 cf06 d325 1f0f 8362 620e
00000330: e0c9 6612 0b5e a310 5d8d 3511 e55c 1a0d
00000340: b88a 9b09 d510 0000 14a0 6033 fde0 6033
00000350: 8c52 c335 8a5d ff2c 8296 6235 8b1f 9235
00000360: b7b5 fe30 c44c 802b 8641 5c33 8544 dd22
00000370: 917a 8122 7cfa 6414 d884 9826 22bc 6421
00000380: f75c f326 c7f1 ab21 0636 6724 4513 1922
00000390: 9c59 4e16 bf07 170b 7275 2537 83d3 1b30
000003a0: ddd9 db3b b7f0 2239 e64c 8339 eceb 9434
000003b0: 7811 ec33 1f08 4e32 0e74 5f34 b653 8323
000003c0: 508b b32e 63e6 cd18 38ad f339 3cf2 8b34
000003d0: 9e71 ec36 5f4a 052b bd6a 1932 653b 1628
000003e0: 4072 a712 3cae ba0b e9f8 3c1b 8bca 9004
000003f0: eaa2 4226 fe20 351e 6936 4123 9104 241a

exp_avg f4 [40]
9.483382e-22 -0.004744906 1.8744311e-16 0.0023787934 4.904105e-07 -3.2257208e-19 2.273912e-12 -9.347006e-05
1.4767905e-18 3.4190376e-20 2.564074e-22 5.2377156e-12 5.563331e-18 -1.3079714e-18 2.9345842e-10 -1.6706175e-17
-4.2548065e-10 -5.671654e-07 2.303493e-21 -1.7348715e-22 -5.3863655e-22 -4.2444546e-05 1.3841291e-18 5.2640822e-05
-7.27738e-11 -1.635717e-16 1.6984499e-11 -8.9119205e-11 9.653038e-23 3.6406007e-22 0.00030114863 -0.0003222801
-1.5410806e-05 0.00056372024 -1.3691631e-05 -0.0028334176 0.0010254636 -3.9654555e-05 0.0022839243 -3.6780722e-05
00000000: 0f4f 8f1c 287b 9bbb 711b 5825 88e5 1b3b
00000010: c1a4 0335 b769 bea0 2803 202c 5b05 c4b8
00000020: 91ef d921 a175 211f 20fd 9a1b 2649 b82c
00000030: 2d40 cd22 c305 c1a1 9a54 a12f 5716 9aa3
00000040: 14e9 e9af 4f3f 18b5 090c 2e1d acbb 519b
00000050: fcca 229c 7c06 32b8 eb42 cc21 a7ca 5c38
00000060: 0208 a0ae d895 3ca5 b165 952d a7f9 c3ae
00000070: 6965 e91a 910f dc1b 7ce3 9d39 b4f7 a8b9
00000080: 7446 81b7 a0c6 133a 1bb5 65b7 dcb0 39bb
00000090: d968 863a c152 26b8 e4ad 153b 0045 1ab8

exp_avg_sq f4 [40]
8.837703e-19 2.3190163e-05 2.1438872e-07 0.00019919784 0.00019394736 1.8496655e-22 2.269998e-09 0.00015783451
1.6654831e-14 2.195572e-23 5.0629537e-22 3.452211e-21 4.6536218e-18 4.2490943e-20 7.3848736e-19 9.584224e-19
3.5406483e-05 6.0723323e-07 8.2213216e-22 5.732801e-33 3.176941e-21 1.4552946e-06 4.5665177e-15 0.0072435234
0.00047890004 1.6890139e-15 3.9156717e-07 1.2655623e-07 1.2017858e-24 2.1454565e-23 0.0058032214 1.6064305e-05
0.0025500827 0.0021972451 0.0016666787 0.001009382 0.00050263887 0.0001295686 0.00019303904 1.0429561e-10
00000000: e66b 8221 7f88 c237 b932 6634 c3df 5039
00000010: 595e 4b39 609c 5f1b 3afe 1b31 6180 2539
00000020: 6d03 9628 bb57 d419 b504 191c bc6b 821d
00000030: 37b0 ab22 66a8 481f 87f6 5921 2d70 8d21
00000040: 6c81 1438 c000 2335 6579 781c 9921 ee09
00000050: fa0a 701d 8b53 c335 b186 a427 145b ed3b
00000060: e014 fb39 9d69 f326 9538 d234 83e3 0734
00000070: a4f7 b917 ee7e cf19 f328 be3b d5c1 8637
00000080: 4a1f 273b a8ff 0f3b 7574 da3a 3d4d 843a
00000090: 86c3 033a cedc 0739 866a 4a39 3559 e52e

exp_avg f4 [40]
9.483382e-22 -0.004744906 1.8744311e-16 0.0023787934 4.904105e-07 -3.2257208e-19 2.273912e-12 -9.347006e-05
1.4767905e-18 3.4190376e-20 2.564074e-22 5.2377156e-12 5.563331e-18 -1.3079714e-18 2.9345842e-10 -1.6706175e-17
-4.2548065e-10 -5.671654e-07 2.303493e-21 -1.7348715e-22 -5.3863655e-22 -4.2444546e-05 1.3841291e-18 5.2640822e-05
-7.27738e-11 -1.635717e-16 1.6984499e-11 -8.9119205e-11 9.653038e-23 3.6406007e-22 0.00030114863 -0.0003222801
-1.5410806e-05 0.00056372024 -1.3691631e-05 -0.0028334176 0.0010254636 -3.9654555e-05 0.0022839243 -3.6780722e-05
00000000: 0f4f 8f1c 287b 9bbb 711b 5825 88e5 1b3b
00000010: c1a4 0335 b769 bea0 2803 202c 5b05 c4b8
00000020: 91ef d921 a175 211f 20fd 9a1b 2649 b82c
00000030: 2d40 cd22 c305 c1a1 9a54 a12f 5716 9aa3
00000040: 14e9 e9af 4f3f 18b5 090c 2e1d acbb 519b
00000050: fcca 229c 7c06 32b8 eb42 cc21 a7ca 5c38
00000060: 0208 a0ae d895 3ca5 b165 952d a7f9 c3ae
00000070: 6965 e91a 910f dc1b 7ce3 9d39 b4f7 a8b9
00000080: 7446 81b7 a0c6 133a 1bb5 65b7 dcb0 39bb
00000090: d968 863a c152 26b8 e4ad 153b 0045 1ab8

exp_avg_sq f4 [40]
8.837703e-19 2.3190163e-05 2.1438872e-07 0.00019919784 0.00019394736 1.8496655e-22 2.269998e-09 0.00015783451
1.6654831e-14 2.195572e-23 5.0629537e-22 3.452211e-21 4.6536218e-18 4.2490943e-20 7.3848736e-19 9.584224e-19
3.5406483e-05 6.0723323e-07 8.2213216e-22 5.732801e-33 3.176941e-21 1.4552946e-06 4.5665177e-15 0.0072435234
0.00047890004 1.6890139e-15 3.9156717e-07 1.2655623e-07 1.2017858e-24 2.1454565e-23 0.0058032214 1.6064305e-05
0.0025500827 0.0021972451 0.0016666787 0.001009382 0.00050263887 0.0001295686 0.00019303904 1.0429561e-10
00000000: e66b 8221 7f88 c237 b932 6634 c3df 5039
00000010: 595e 4b39 609c 5f1b 3afe 1b31 6180 2539
00000020: 6d03 9628 bb57 d419 b504 191c bc6b 821d
00000030: 37b0 ab22 66a8 481f 87f6 5921 2d70 8d21
00000040: 6c81 1438 c000 2335 6579 781c 9921 ee09
00000050: fa0a 701d 8b53 c335 b186 a427 145b ed3b
00000060: e014 fb39 9d69 f326 9538 d234 83e3 0734
00000070: a4f7 b917 ee7e cf19 f328 be3b d5c1 8637
00000080: 4a1f 273b a8ff 0f3b 7574 da3a 3d4d 843a
00000090: 86c3 033a cedc 0739 866a 4a39 3559 e52e

exp_avg f4 [1, 10]
0.015197658 0.004575046 -0.0065281168 0.0017265673 -0.004970905 0.0035404041 0.0011344005 0.000118951015
0.007832954 1.4753348e-05
00000000: 99ff 783c 44ea 953b d0e9 d5bb fc4d e23a
00000010: f9e2 a2bb 2006 683b 2ab0 943a 5775 f938
00000020: ca55 003c 2685 7737

exp_avg_sq f4 [1, 10]
0.016224544 0.000670701 0.08174428 0.00025912985 0.033715047 0.012685055 0.00016180471 0.00086970895
0.0035201483 2.5425603e-11
00000000: 56e9 843c fbd1 2f3a 8c69 a73d d2db 8739
00000010: ca18 0a3d fad4 4f3c 1faa 2939 2efd 633a
00000020: 4ab2 663b 5ea5 df2d
