ckpt/MXN/THEOPOULA_lstm_bs{32}_lr{1.0e-03}_epoch{400}_eta{0.0e+00}_beta{1.0e+14}_r{5}_eps{1.0e-04}/TP_lstm_lr{1.0e-03}_epoch{400}_beta{1.0e+14}_r{5}_eps{1.0e-04}.pth (torch, 8927 bytes, 5 tensors)

lstm.weight_ih_l0 f4 [40, 27]
0	0x3e5d3f13	0.21606092
1	0xbd13a646	-0.036047243
2	0x3e87c01a	0.2651375
3	0x3e7299c2	0.23691466
4	0xbe009ff5	-0.12561019
5	0x3d5e9e5a	0.054350235
6	0xbc08149e	-0.008305697
7	0x3eb13240	0.3460865
8	0x3e2c7559	0.1684164
9	0x3e96befd	0.29442587
10	0x3d06c61f	0.032903787
11	0xbe480fa1	-0.19537212
12	0x3e181527	0.14851819
13	0xbe2c7ab2	-0.1684368
14	0x3df418fd	0.11918829
15	0x3e7f9457	0.24958931
16	0xbe477644	-0.19478709
17	0x3e51dfcb	0.20495526
18	0x3e8f55a7	0.27995035
19	0x3e90f5ce	0.28312534
20	0x3e49de0a	0.19713607
21	0x3e8fa25e	0.28053564
22	0x3d9f1de2	0.077693716
23	0xbe41712f	-0.18890832
24	0xbe2d1bc2	-0.1690512
25	0xbdd7099b	-0.10499879
26	0x3c850255	0.016236464
27	0x3e71edd8	0.23625886
28	0xbddc7145	-0.10763792
29	0x3e1bbaed	0.15208025
30	0xbee24ab3	-0.44197616
31	0xbeb590f6	-0.3546216
32	0xbeafd1a5	-0.34339634
33	0x3e79df21	0.24401523
34	0xbd8b15b6	-0.067912504
35	0x3e826c3e	0.25473207
36	0xbef10b46	-0.47078913
37	0xbec071d4	-0.37586844
38	0xbdc5e3a9	-0.09662563
39	0x3babaf4c	0.005239403
40	0x3dd01a9a	0.10161324
41	0xbeaceab3	-0.3377281
42	0x3e81e51b	0.25370106
43	0x3d8905ca	0.06690557
44	0xbc404100	-0.011734247
45	0x3ea4f382	0.32217032
46	0xbe00e855	-0.12588628
47	0xbb69c50e	-0.0035670432
48	0x3e354acb	0.17704313
49	0x3be50870	0.006989531
50	0xbda4dab6	-0.08049528
51	0xbe578af9	-0.21049108
52	0xbeb74ee7	-0.35802385
53	0xbe6292f3	-0.22126369
54	0xbe3238c1	-0.17404462
55	0xbd33a1b2	-0.043855377
56	0xbe611d1b	-0.21983759
57	0xbef433c4	-0.47695744
58	0x3d037507	0.032094028
59	0x3dd29234	0.10281792
60	0x3de6a258	0.11261433
61	0xbed899d6	-0.42304868
62	0xbda29872	-0.07939233
63	0xbe41f5f7	-0.18941484
64	0xbda167ba	-0.078811124
65	0xbeacff5a	-0.33788568
66	0x3e6c7b29	0.23093857
67	0xbdfdf56a	-0.12400325
68	0x3d6bcc1b	0.057567697
69	0x3dedc2a5	0.11609391
70	0xbe132a55	-0.14371617
71	0x3ea16a65	0.31526485
72	0x3e823be0	0.25436306
73	0xbd90f35f	-0.07077669
74	0x3e876215	0.26442018
75	0xbe051c71	-0.12999131
76	0x3dea6f1f	0.11446976
77	0x3de60c18	0.112327754
78	0xbe9cc158	-0.3061626
79	0xbe22636a	-0.15858236
80	0x3e1f251e	0.15541503
81	0xbdf2447f	-0.11829471
82	0xbeb85a35	-0.36006323
83	0x3d7987dd	0.060920585
84	0xbd4d4ddc	-0.05012308
85	0xbdbc0aba	-0.091817334
86	0x3e06ded5	0.13170941
87	0xbe9cb1a8	-0.3060429
88	0xbed28870	-0.4111972
89	0x3e3ad9f6	0.18247208
90	0xbeef2627	-0.46708795
91	0xbe2c0eae	-0.16802475
92	0x3c932d23	0.017965859
93	0x3bb49cfe	0.005511879
94	0xbd580370	-0.052737653
95	0x3d9d9a69	0.07695467
96	0xbe080244	-0.13282114
97	0x3e17d638	0.14827812
98	0xbd0302cd	-0.031985093
99	0xbeabdad9	-0.33565405
100	0x3bade0b1	0.0053063263
101	0xbd4cb73f	-0.049979445
102	0xbe589edc	-0.2115435
103	0xbe04a9be	-0.12955377
104	0xbd71e65c	-0.05905758
105	0x3e36ba5b	0.17844526
106	0xbe1562cc	-0.1458847
107	0xbe8eb41d	-0.2787179
108	0xbe4bd0c8	-0.19903862
109	0x3d64fffc	0.05590819
110	0x3e2321a7	0.15930806
111	0xbe2c012d	-0.16797324
112	0x3bd2ae2a	0.0064294534
113	0xbcc51123	-0.024056023
114	0x3e7681ee	0.24073002
115	0xbe50821f	-0.20362137
116	0x3e7f165e	0.24910876
117	0x39deb957	0.0004248123
118	0x3d893a1a	0.06700535
119	0xbda21f78	-0.079161584
120	0xbe0f10c1	-0.13971235
121	0x3e4724c2	0.19447616
122	0x3de9e6f6	0.114210054
123	0xbd5d3c6c	-0.0540127
124	0x3ebf00e7	0.37305376
125	0x3d810114	0.06299034
126	0x3e35cfc3	0.17755036
127	0xbdbaa047	-0.09112602
128	0x391327f0	0.0001403389
129	0x3c88c019	0.016693162
130	0xbea2ee3b	-0.3182238
131	0x3ea09cfd	0.31369773
132	0x3e240a37	0.16019522
133	0x3d8dd9f0	0.06926334
134	0x3ebf23ee	0.373321
135	0x3ea17fd6	0.31542844
136	0xbebb4043	-0.36572465
137	0xbc758b24	-0.014986787
138	0xbef9871a	-0.48735887
139	0xbeac47e8	-0.3364861
140	0x3e9764d3	0.2956911
141	0x3dd69169	0.104769535
142	0x3d85a298	0.06525153
143	0x3d0cc242	0.034364946
144	0xbe28663c	-0.1644525
145	0xbd949cd3	-0.07256474
146	0xbdbd3829	-0.09239227
147	0x3d8a7ad0	0.06761706
148	0x3d3e06eb	0.046393316
149	0x3d31ad7e	0.043378346
150	0xbe618fb6	-0.22027478
151	0x3e740457	0.2382978
152	0x3e953989	0.29145458
153	0x3cc15066	0.023597907
154	0x3d335218	0.043779463
155	0x3d41cfc7	0.047317293
156	0xbe64be70	-0.22338271
157	0x3e709131	0.23492886
158	0xbe620dec	-0.22075623
159	0xba550f80	-0.0008127615
160	0xbe846c98	-0.258641
161	0x3e8959a3	0.268262
162	0xbe9e1510	-0.30875444
163	0x3c83ccfa	0.016088951
164	0x3e443813	0.19162016
165	0xbe48c430	-0.1960609
166	0x3d7d10d0	0.06178361
167	0x3e228748	0.15871918
168	0xbe7b4a41	-0.24540044
169	0xbe509bd2	-0.2037194
170	0xbe85db9a	-0.26144105
171	0xbe4717ef	-0.19442724
172	0xbeb9ec8f	-0.36313292
173	0xbec16af4	-0.3777691
174	0xbd944ecc	-0.07241592
175	0x3e6440fb	0.22290413
176	0xbdcb16f0	-0.09916484
177	0xbe5bdd54	-0.21471149
178	0x3c26740d	0.010159505
179	0xbe2ecdd9	-0.17070712
180	0x3cb95da1	0.022627654
181	0x3e805717	0.25066444
182	0xbd9a4fb5	-0.07534734
183	0xbd46229a	-0.048372842
184	0x3e41383f	0.18869112
185	0x3dd4588c	0.103684515
186	0x3d77d5c1	0.060506586
187	0x3e398b82	0.18119624
188	0xbc43c312	-0.011948364
189	0xbe8158b1	-0.2526298
190	0x3d28247c	0.04105042
191	0x3e7b9666	0.24569091
192	0x3c58bc15	0.013228436
193	0xbe5def1c	-0.21673244
194	0x3d58407b	0.05279587
195	0xbe97ddda	-0.29661447
196	0xbe82db9e	-0.2555818
197	0xbda86902	-0.08223154
198	0xbe83d52d	-0.25748578
199	0xbd244a20	-0.040109754
200	0x3c01920d	0.007908356
201	0xbe80564a	-0.25065833
202	0x3e4bd06c	0.19903725
203	0x3e4d6253	0.20057039
204	0xbdd72a8a	-0.105061606
205	0x3e0d1ee3	0.13781314
206	0xbb8bbb10	-0.004264243
207	0x3e1b2e05	0.15154274
208	0xbe8d24a9	-0.27567032
209	0xbeabfeea	-0.33592921
210	0xbdd067ec	-0.101760715
211	0x3e820f0b	0.25402102
212	0x3e5e42d1	0.21705176
213	0x3cc8eb4b	0.024526259
214	0x3e2244ed	0.15846606
215	0xbe2ff1cb	-0.1718208
216	0xbd88a699	-0.06672401
217	0x3e4d4a32	0.20047835
218	0xbd43ac6c	-0.047771856
219	0xbe429317	-0.19001423
220	0xbe0dfcfe	-0.1386604
221	0x3d95dfd9	0.07318086
222	0x3e0104b4	0.1259945
223	0xbe21cba3	-0.15800337
224	0xbe9f5820	-0.31121922
225	0xbeaf23f8	-0.3420713
226	0xbd9636ef	-0.073346965
227	0x3e02be2f	0.12767862
228	0xbe117844	-0.14206034
229	0x3e84b953	0.2592264
230	0xbdca545d	-0.09879372
231	0xbbb14ff9	-0.005411145
232	0x3ea181c6	0.31544322
233	0x3e97c8c2	0.29645354
234	0xbe97fbfc	-0.29684436
235	0xbe24b186	-0.16083345
236	0xbead73b7	-0.33877346
237	0xbe4fc7a2	-0.20290998
238	0x3e7fa28d	0.24964352
239	0x3eae18a3	0.3400317
240	0x3e45ad28	0.19304335
241	0xbdab8d04	-0.08376506
242	0x3e5e268a	0.21694389
243	0x3ea8e11c	0.32984245
244	0x3d67232e	0.056430034
245	0xbdb1dfd8	-0.08685273
246	0xbe2694d9	-0.16267718
247	0xbe8955a7	-0.2682316
248	0xbecac40c	-0.39602697
249	0x3c3af2d7	0.011410437
250	0xbeeeb289	-0.46620587
251	0x3dd47fce	0.10375939
252	0xbe84862a	-0.2588361
253	0x3da7762e	0.08176838
254	0xbe27678a	-0.16348091
255	0x3e4996f9	0.19686498

lstm.weight_hh_l0 f4 [40, 10]
0	0x3d8fcc3a	0.07021375
1	0x3eb7d6bc	0.35906017
2	0x3e750850	0.23928952
3	0xbe8673b7	-0.26260158
4	0xbdae42eb	-0.08508857
5	0xbd5ef422	-0.054432042
6	0x3d84b798	0.0648033
7	0x3eb073e8	0.3446343
8	0xbec2c120	-0.38037968
9	0xbe5ac7d7	-0.21365295
10	0xbd8bcf9f	-0.0682671
11	0xbea31917	-0.3185508
12	0x3ead1984	0.3380853
13	0x3e89bcde	0.26901907
14	0xbe6707f2	-0.22561625
15	0xbdc20f17	-0.094755344
16	0xbd995378	-0.074866235
17	0x3dfe1db6	0.12408011
18	0xbd8812a8	-0.066441834
19	0x3e555b9c	0.20835727
20	0x3e9e262b	0.30888495
21	0xbe698408	-0.22804272
22	0xbdfed095	-0.124421276
23	0xbd8992be	-0.06717442
24	0xbc84de3a	-0.016219247
25	0x3e48790b	0.19577424
26	0xbe72001a	-0.23632851
27	0xbeb91fe3	-0.3615714
28	0x3d404046	0.046936296
29	0xbd26cc03	-0.040721904
30	0xbe732a7a	-0.23746672
31	0xbe6bcfb3	-0.2302845
32	0x3e72154d	0.23640938
33	0x3e250ba8	0.16117728
34	0xbd4b74ce	-0.04967194
35	0xbe816fd9	-0.25280645
36	0xbe0c09f3	-0.1367567
37	0x3da81fc0	0.08209181
38	0xbe5b1fee	-0.21398899
39	0x3d809a3a	0.062794164
40	0x3e1d0339	0.1533326
41	0xbe1df5aa	-0.15425745
42	0xbd4ce89a	-0.050026514
43	0xbe0a2fd4	-0.13494807
44	0xbe550e89	-0.20806326
45	0xbe17ba73	-0.14817218
46	0xbe663355	-0.22480519
47	0xbeae25e7	-0.34013292
48	0xbe242739	-0.16030587
49	0xbd5473e9	-0.051868353
50	0x3e669001	0.2251587
51	0xbde68341	-0.112555034
52	0xbe951a8b	-0.29121813
53	0x3e36552e	0.17805931
54	0xbec63eb2	-0.38719708
55	0xbcc0ec89	-0.023550289
56	0x3dc82d79	0.09774298
57	0x3e0a5290	0.13508058
58	0x3e6a861e	0.22902724
59	0xbe1341cd	-0.1438057
60	0x3e963933	0.29340515
61	0xbcd84efa	-0.026404846
62	0xbdc1785d	-0.094467856
63	0x3e3111b8	0.17291915
64	0xbe744daf	-0.23857759
65	0xbd609f21	-0.054839257
66	0x3db2a352	0.08722557
67	0xbe2df438	-0.16987693
68	0x3e841ec1	0.25804713
69	0xbe02de96	-0.12780222
70	0xbe3b156e	-0.18269894
71	0xbe8c3912	-0.2738729
72	0x3a97503a	0.0011544295
73	0x3e4853ba	0.19563189
74	0xbd9e08ec	-0.077165455
75	0x3e9c5d48	0.30539918
76	0x3d18bceb	0.03728954
77	0x3e9e642c	0.309358
78	0x3e30525d	0.17218919
79	0xbe4ea28b	-0.20179193
80	0x3dfa006e	0.12207113
81	0xbe9efe01	-0.31053165
82	0x3e64d684	0.22347456
83	0x3e4eac56	0.20182928
84	0xbde6e042	-0.112732425
85	0xbe96b030	-0.29431295
86	0xbe01d068	-0.12677157
87	0x3e56fef6	0.20995697
88	0x3e0aa240	0.13538456
89	0x3d53487e	0.051582806
90	0x3e71184c	0.23544425
91	0xbe74a828	-0.23892272
92	0x38d9e9b0	0.00010390894
93	0xbe265487	-0.16243182
94	0xbe06aab9	-0.13151063
95	0xbe402f59	-0.18768062
96	0xbe639622	-0.2222524
97	0xbeb0443a	-0.34427053
98	0x3deb13d9	0.11478395
99	0xbe876431	-0.26443627
100	0xbd41f2c7	-0.04735067
101	0xbe2bece0	-0.1678958
102	0x3e7332a3	0.23749785
103	0xbe260adf	-0.16215084
104	0xbd363ab9	-0.044489596
105	0x3d7a0f03	0.061049473
106	0x3e56aa60	0.2096343
107	0xbe102c0d	-0.14079304
108	0xbcfb1365	-0.030648896
109	0x3ea1c078	0.31592155
110	0x3ea0d337	0.31411144
111	0xbcd517e5	-0.02601237
112	0xbe082e01	-0.13298799
113	0xbe9745a4	-0.2954532
114	0x3e6ff8ec	0.234348
115	0x3e79bbe8	0.24388087
116	0x3e3ab07b	0.18231384
117	0xbe8df116	-0.27722996
118	0x3b6c72d2	0.003607918
119	0x3d13c424	0.036075726
120	0xbe0261cd	-0.1273262
121	0x3e4b70b2	0.19867209
122	0xbe2d0fc9	-0.16900553
123	0xbe10001f	-0.14062546
124	0xbdd2a78e	-0.10285865
125	0xbd743f73	-0.059630822
126	0xbea0d686	-0.31413668
127	0x3d10611f	0.035248872
128	0x3e866ab0	0.2625327
129	0x3dec74cb	0.11545714
130	0xbd91155e	-0.070841536
131	0x3eac80ee	0.33692116
132	0x3e99b3f7	0.30020115
133	0xbc88558f	-0.01664236
134	0xbe4ece08	-0.20195782
135	0x3eb801a1	0.35938743
136	0xbdc197f2	-0.094528094
137	0x3e5b0f4a	0.21392551
138	0xbea6c0c8	-0.32568955
139	0x3dcb4d29	0.099268265
140	0x3e8a94e1	0.2706671
141	0x3bf82f30	0.0075739846
142	0xbedf0e22	-0.4356547
143	0x3d79d08f	0.060989913
144	0xbedc11a4	-0.4298221
145	0x3e9f505d	0.31116
146	0xbe1a4d57	-0.15068565
147	0xbe1579a5	-0.14597185
148	0xbd83a59b	-0.06428071
149	0x3de9449a	0.11390038
150	0x3e07c4d0	0.13258672
151	0xbdef6e88	-0.11691004
152	0xbd71a5d7	-0.058996048
153	0xbebbef2f	-0.3670592
154	0xbf116b06	-0.5680393
155	0x3e548ed0	0.20757604
156	0x3dcd7760	0.100325346
157	0x3e1465d1	0.14491965
158	0xbc7929bb	-0.015207703
159	0x3d5370b0	0.05162114
160	0xbe3a3270	-0.18183303
161	0x3d807cbc	0.06273791
162	0x3d1f5ae5	0.038905043
163	0x3dbf7f75	0.093504824
164	0x3e0ac2df	0.135509
165	0xbdabf6a7	-0.083966546
166	0xbe9b7af6	-0.3036725
167	0x3e4c776a	0.19967428
168	0xbd67f50b	-0.056630176
169	0xbe29386f	-0.16525434
170	0x3e2b74d1	0.1674378
171	0xbd457ae3	-0.048212897
172	0xbe8cacc1	-0.2747555
173	0xbeaacf9f	-0.33361527
174	0xbddef357	-0.10886257
175	0x3e06b400	0.13154602
176	0x3e4dc617	0.20095097
177	0x3e98cb9d	0.29842845
178	0xbe051e29	-0.12999786
179	0x3d20735a	0.039172508
180	0x3dd9da95	0.10637394
181	0xbe08377f	-0.1330242
182	0x3ea13fc4	0.31493962
183	0x3e296b17	0.16544758
184	0xbe5c6985	-0.21524628
185	0x3ec188f3	0.37799796
186	0xbd5ad650	-0.05342704
187	0x3e9b17bb	0.30291542
188	0x3d94340b	0.07236489
189	0x3e368e54	0.17827731
190	0x3e96b99f	0.29438493
191	0x3d8dff75	0.0693349
192	0xbdc2b243	-0.09506657
193	0x3e3fc947	0.18729125
194	0x3e3095ce	0.17244646
195	0xbe050841	-0.1299143
196	0x3e2512b7	0.1612042
197	0x3c84c2f7	0.016206248
198	0xbe1805ee	-0.14846012
199	0xbe89e4ed	-0.2693247
200	0x3e2a2db3	0.16618995
201	0xbd00a888	-0.031410724
202	0xbdac6ccf	-0.08419191
203	0x3e4cd2a0	0.20002222
204	0xbe1fabe8	-0.15592921
205	0x3df15d0e	0.11785327
206	0xbdad8ef4	-0.08474532
207	0xbd8c28b9	-0.06843705
208	0x3e79fdce	0.24413225
209	0xbe0f9fbc	-0.14025778
210	0x3dbc955e	0.09208177
211	0x3e9515af	0.29118106
212	0x3d1f6685	0.03891613
213	0x3cf8dee7	0.030379726
214	0xbe856d14	-0.26059783
215	0x3e2c3a8f	0.16819213
216	0x3e2f9773	0.17147617
217	0x3e9bab93	0.30404338
218	0x3d8a93bf	0.067664616
219	0x3d97733d	0.07395027
220	0xbe74b581	-0.23897363
221	0x3e808084	0.2509805
222	0xbe2dc3a7	-0.16969167
223	0xbdba972c	-0.09110865
224	0xbc093f0a	-0.008376846
225	0x3e7987d7	0.24368225
226	0xbc55014c	-0.0130007975
227	0x3e848278	0.2588079
228	0x3e1e8963	0.15482096
229	0xbdfa774a	-0.12229784
230	0xbeac6630	-0.33671713
231	0xbd1d433c	-0.038394198
232	0xbe914a60	-0.28377056
233	0x3e828eb5	0.25499502
234	0xbd3ce0f1	-0.04611296
235	0xbe2a0703	-0.16604237
236	0x3df2ee39	0.118618436
237	0xbe1e506a	-0.15460363
238	0x3e5199e1	0.20468856
239	0x3ea90d18	0.33017802
240	0x3dbccfcf	0.09219324
241	0xbec9910a	-0.3936847
242	0xbe67c945	-0.22635372
243	0xbea53242	-0.32264906
244	0xbd81d509	-0.06339461
245	0x3f1a12cd	0.6018494
246	0xbc8efdb0	-0.017454952
247	0x3ef90934	0.48639834
248	0xbe2a756f	-0.1664636
249	0xbd371309	-0.044695888
250	0x3e90c44d	0.28274766
251	0xbe53a950	-0.20670056
252	0xbd3779e0	-0.044793963
253	0xbeabf1ae	-0.33582824
254	0xbdac40ee	-0.08410822
255	0xbd5e8df0	-0.05433458

lstm.bias_ih_l0 f4 [40]
0	0x3eb4b4b6	0.35294122
1	0x3cc67764	0.024226852
2	0xbe611aed	-0.21982928
3	0x3d155616	0.03645905
4	0xbe8cecb0	-0.27524328
5	0xbd96c491	-0.07361711
6	0x3e091ace	0.13389131
7	0xbd65054c	-0.055913255
8	0x3dc15937	0.094408445
9	0xbc02b9c2	-0.007978858
10	0xbe6ead11	-0.23308207
11	0x3e8225be	0.2541942
12	0x3e3ed02b	0.18634097
13	0x3e84f104	0.2596513
14	0xbe8b26b3	-0.27177963
15	0x3e30ac01	0.17253114
16	0x3d5ffdf8	0.054685563
17	0x3eb14e26	0.34629935
18	0x3ee8f1ae	0.45496887
19	0xbe16565a	-0.14681378
20	0xbdeab833	-0.114609145
21	0x3e2332ba	0.1593732
22	0xbe6ddbc5	-0.23228367
23	0xbeb47630	-0.3524642
24	0xbe1d9804	-0.1539002
25	0x3e3fe8e9	0.18741192
26	0x3d097329	0.03355709
27	0x3ec1dce7	0.37863848
28	0xbe579aee	-0.21055195
29	0x3c1d44d9	0.009598934
30	0xbe316d2b	-0.173268
31	0xbe062638	-0.13100517
32	0x3e20f818	0.1571964
33	0x3deb8414	0.11499801
34	0x3f05d424	0.52276826
35	0x3cbd1c1c	0.023084693
36	0x3e844a2f	0.25837848
37	0x3f06bf30	0.5263548
38	0x3ed15003	0.40881357
39	0x3e60a617	0.21938358

lstm.bias_hh_l0 f4 [40]
0	0x3e2802ec	0.16407365
1	0x3c6ad526	0.014333045
2	0xbe1d8bba	-0.15385333
3	0xbe2a9133	-0.16656952
4	0x3e9d9bcf	0.30782935
5	0x3e4a3db9	0.19750108
6	0x3e1d6662	0.15371087
7	0x3e0223c4	0.12708956
8	0x3dc118ee	0.09428583
9	0x3ded65e5	0.115917005
10	0xbd2c7b47	-0.042109754
11	0x3de625dc	0.1123769
12	0x3d095f47	0.03353813
13	0x3f047d1d	0.5175341
14	0x3e8150b7	0.25256893
15	0x3eb15991	0.34638646
16	0xbdc7b80b	-0.097519
17	0x3f02d47e	0.5110549
18	0x3ee9a4c1	0.4563351
19	0x3eab401d	0.33447352
20	0xbdc10934	-0.094255835
21	0xbe8a8998	-0.270581
22	0xbd536ab7	-0.051615443
23	0x3e33ec15	0.17570527
24	0x3ea59e7b	0.32347474
25	0x3ec2ce82	0.38048178
26	0x3e5a769f	0.21334313
27	0xbd9d2987	-0.07673936
28	0x3e575e83	0.21032147
29	0x3ea4ce08	0.3218844
30	0x3cd3127c	0.02576565
31	0x3dcb80fe	0.09936713
32	0xbd8e8ff9	-0.06961054
33	0x3f06eca6	0.52704847
34	0x3ec748d7	0.3892276
35	0x3f077918	0.5291915
36	0xbe1aef66	-0.15130386
37	0x3e82f316	0.25576085
38	0x3e343141	0.17596914
39	0x3e4be82a	0.19912782

fc.weight f4 [1, 10]
0	0x3f5480d5	0.8300908
1	0x3fa9b742	1.3259051
2	0xbff5eee2	-1.9213526
3	0xc0290558	-2.6409512
4	0xc00b5a6e	-2.1773944
5	0x4012d434	2.2942019
6	0x3f90088a	1.1252606
7	0x401d993d	2.462478
8	0xc01eb414	-2.479741
9	0x3ff45b81	1.9090425
